parameters_BinaryClassification_Adam_0.01_150.pth (torch, 28469 bytes, 13 tensors)

weight f4 [64, 12]
0.2824963 0.18685131 -0.53397876 -1.4260522 0.29495955 0.25646698 0.41908944 0.07569943
-0.011816024 -0.89652044 0.20287688 -0.28676122 0.11126439 -0.28080872 -0.11297856 -0.19634263
-0.1808662 -0.040177 0.21718162 0.016490009 0.15207475 0.23612218 -0.22518632 -0.085607305
0.055146918 -0.28444436 -0.1890164 -0.17682004 0.14871506 -0.18977927 0.07303131 0.19175552
0.06272485 -0.15439442 -0.4783347 -0.01738392 1.3976175 -0.06601803 -2.652625 -2.39212
1.612143 0.48679152 0.7020435 1.7202929 -0.0833952 -1.1505235 0.33636186 -0.07490288
1.7488854 -1.0389636 -2.7753828 -3.2994208 1.3041221 -0.4383388 0.92826575 2.2133875
-1.1918288 -1.6798394 0.12737751 -2.143467 1.7869458 0.85026133 -1.4328825 -0.17017144
-0.1596072 -0.41422084 -2.056704 2.5813673 -0.39296702 0.40278795 0.21221805 0.16896409
-0.22669022 0.009828387 0.26495567 0.2565034 -0.17509359 -0.10162414 -0.15128794 -0.13081466
-0.14184439 -0.025516508 0.18595573 -0.11844145 3.0949268 -1.7218761 -5.247316 -6.4186993
3.2823343 0.33962718 2.6501105 6.431595 -1.6414127 -3.4079213 0.12432853 -1.452215
0.04038813 -0.25014645 0.07471382 0.023116665 0.05574208 -0.24541903 -0.2974945 -0.23040685
-0.06166445 0.19240226 -0.27313557 0.19864729 1.8929641 -2.3313274 -3.346624 -4.784544
2.8226206 0.9504781 3.7226665 3.475167 -1.7379639 -3.0300908 -0.2261273 -1.4347615
0.14431672 -0.039732866 -0.045386285 -0.4534119 0.22083935 -0.18380329 0.1789799 0.09543865
0.1992398 -0.045667704 -0.35764548 -0.31602132 0.06075751 0.16261452 0.06672947 -0.2575825
0.1386926 0.13222903 0.1877474 0.27332762 0.20472628 -0.17347619 -0.2733431 0.2564976
-0.27411333 -0.3052997 -0.2777863 -0.3280593 -0.35674366 -0.1791819 -0.2551803 0.2009087
-0.28360578 -0.18670835 0.060251426 0.16077188 2.3200858 -0.64112586 -5.1586223 -4.7461205
2.1553319 -0.037040923 1.2259467 2.4480808 -0.62187886 -2.2960203 0.21692736 -1.1315509
-0.6173474 0.055525906 3.3304133 3.2118752 -0.84627527 0.013955708 -0.74830514 -1.591094
0.109666914 1.5385011 0.1490037 0.71385694 -0.08304865 -0.20167513 0.2450383 0.091703594
-0.18790656 0.037011437 0.13377471 -0.25435102 -0.10647083 -0.07310914 -0.23991352 -0.19410777
-1.706278 0.28875935 2.9377222 2.6645482 -1.2726299 0.29389164 -0.55212617 -1.4570568
1.163468 0.6721947 -0.25753966 0.66326445 -0.22896694 -0.08722756 0.20203221 0.28425622
-0.08317732 0.09452527 -0.22607481 0.28440344 -0.25997722 0.036128096 -0.28864992 -0.20295742
-0.14523315 -0.121778525 -0.22509184 0.10897092 -0.03923309 0.19143221 -0.1800365 -0.05145282
-0.022595279 0.27921474 0.12862866 0.06326214 -0.14468585 -0.27393168 0.16934952 0.16054477
-0.03301941 0.032185454 -0.053848874 -0.15671 -0.11134802 0.016134694 0.22937092 0.14191188
-2.033916 0.3191344 4.078925 3.2363338 -1.4265783 0.4833249 -0.7893476 -2.4617476
1.2233918 1.2020684 -0.30305108 1.692786 0.05707084 0.2145594 -0.22325785 -0.02540391
00000000: 5ba3 903e f355 3f3e d5b2 08bf e188 b6bf
00000010: f004 973e a44f 833e e492 d63e 4e08 9b3d
00000020: ff97 41bc 5d82 65bf f5be 4f3e 5ed2 92be
00000030: 96de e33d 29c6 8fbe 4e61 e7bd 0b0e 49be
00000040: fd34 39be a390 24bd dc64 5e3e 0e16 873c
00000050: 7cb9 1b3e 03ca 713e 3e97 66be e252 afbd
00000060: bce1 613d b1a2 91be 848d 41be 5010 35be
00000070: c348 183e 7f55 42be 7191 953d 8f5b 443e
00000080: e375 803d 9219 1ebe 49e8 f4be b968 8ebc
00000090: 21e5 b23f 7634 87bd 9cc4 29c0 7e18 19c0
000000a0: b45a ce3f bd3c f93e 1fb9 333f 8f32 dc3f
000000b0: 1acb aabd 5b44 93bf 9f37 ac3e ae66 99bd
000000c0: 7adb df3f c2fc 84bf df9f 31c0 b629 53c0
000000d0: 79ed a63f f16d e0be d3a2 6d3f 24a8 0d40
000000e0: d98d 98bf fa04 d7bf 406f 023e 902e 09c0
000000f0: a4ba e43f baaa 593f b268 b7bf 6c41 2ebe
00000100: 1270 23be c114 d4be 0aa1 03c0 1f35 2540
00000110: f932 c9be 393a ce3e b04f 593e ec04 2d3e
00000120: 7b21 68be 3e07 213c 45a8 873e 6a54 833e
00000130: bc4b 33be 5120 d0bd 3aeb 1abe 47f4 05be
00000140: a83f 11be ff07 d1bc 2e6b 3e3e 6e91 f2bd
00000150: 4813 4640 7066 dcbf 03ea a7c0 fc65 cdc0
00000160: c411 5240 9de3 ad3e 699b 2940 a0cf cd40
00000170: d019 d2bf 621b 5ac0 f59f fe3d 2ee2 b9bf
00000180: 066e 253d 3213 80be 8f03 993d 295f bd3c
00000190: cf51 643d 204f 7bbe 3351 98be c6ef 6bbe
000001a0: dd93 7cbd 1905 453e 6dd8 8bbe 326a 4b3e
000001b0: a64c f23f 7834 15c0 162f 56c0 fc1a 99c0
000001c0: d1a5 3440 8852 733f 2b40 6e40 2369 5e40
000001d0: 9a75 debf 02ed 41c0 ea8d 67be 44a6 b7bf
000001e0: c3c7 133e eebe 22bd f8e6 39bd 9b25 e8be
000001f0: b623 623e ee36 3cbe 8246 373e 5775 c33d
00000200: 8505 4c3e 0f0e 3bbd 4f1d b7be 8ccd a1be
00000210: dedc 783d 6c84 263e 76a9 883d dae1 83be
00000220: 6f05 0e3e 0c67 073e db40 403e 99f1 8b3e
00000230: c4a3 513e bea3 31be a0f3 8bbe a753 833e
00000240: 9558 8cbe 3e50 9cbe 023a 8ebe 63f7 a7be
00000250: 1ba7 b6be 767b 37be fea6 82be 03bb 4d3e
00000260: c734 91be 7930 3fbe 33ca 763d 62a1 243e
00000270: 497c 1440 d320 24bf 6f13 a5c0 38e0 97c0
00000280: f5f0 0940 39b8 17bd d2eb 9c3f 5bad 1c40
00000290: 7433 1fbf fff1 12c0 3522 5e3e a9d6 90bf
000002a0: 7b0a 1ebf 226f 633d 7e25 5540 5d8f 4d40
000002b0: 7fa5 58bf 7ba6 643c ed90 3fbf f8a8 cbbf
000002c0: 0c99 e03d 9bed c43f 6d94 183e 54bf 363f
000002d0: 6915 aabd ed83 4ebe 52eb 7a3e 18cf bb3d
000002e0: 946a 40be 4e99 173d 3dfc 083e 4c3a 82be
000002f0: 610d dabd 3fba 95bd e4ab 75be 30c4 46be
00000300: 5167 dabf 44d8 933e a403 3c40 f587 2a40
00000310: 89e5 a2bf f778 963e 2458 0dbf d680 babf
00000320: 85ec 943f f414 2c3f 3ddc 83be b3cb 293f
00000330: 4f76 6abe 5da4 b2bd 88e1 4e3e 088a 913e
00000340: df58 aabd 7796 c13d 2880 67be 549d 913e
00000350: bc1b 85be 0efb 133d ecc9 93be 12d4 4fbe
00000360: 00b8 14be 0567 f9bd 7a7e 66be 252c df3d
00000370: e0b2 20bd ce06 443e 7d5b 38be 31c0 52bd
00000380: bc19 b9bc 3cf5 8e3e 3bb7 033e 958f 813d
00000390: 8728 14be c640 8cbe f669 2d3e d965 243e
000003a0: 5c3f 07bd e5d4 033d a390 5cbd 9678 20be
000003b0: 6e0a e4bd e82c 843c 36e0 6a3e 5951 113e
000003c0: ae2b 02c0 9665 a33e 8e86 8240 1820 4f40
000003d0: 1e9a b6bf 5c76 f73e af12 4abf 468d 1dc0
000003e0: 1a98 9c3f 61dd 993f 8329 9bbe 36ad d83f
000003f0: 1dc3 693d 76b5 5b3e b59d 64be dc1b d0bc

bias f4 [64]
0.0033912645 -0.07498254 -0.0043219975 0.1119149 -0.25190002 0.25706074 -0.28393617 0.041847643
-0.015367897 -0.021452935 -0.0003372058 -0.20979345 -0.11589269 0.020348106 0.07669073 -0.23717661
0.38060552 0.017045155 -0.14444232 -0.24493298 0.31836945 -0.28197384 -0.10712347 -0.18606633
-0.13784993 -0.17355414 -0.27697578 0.18911478 -0.09310472 -0.19730122 -0.08610987 0.40880886
0.1569195 -0.11214089 -0.18293512 0.01169841 -0.09865869 0.09153855 0.22534376 0.15499307
0.22189075 -0.04863049 -0.047861297 0.25888348 -0.014370423 -0.25036368 -0.055133365 -0.21621644
-0.27266094 0.22283846 -0.2872741 -0.31570435 0.52676713 -0.20989324 -0.015553956 -0.1062275
-0.24458021 -0.19790202 -0.07091247 -0.254096 -0.2678951 -0.07149154 -0.0062453793 0.61791396
00000000: fa3f 5e3b 7290 99bd 8b9f 8dbb a433 e53d
00000010: 0af9 80be 779d 833e 1560 91be 6f68 2b3d
00000020: a2c9 7bbc 11be afbc ffca b0b9 18d4 56be
00000030: 2659 edbd 12b1 a63c 0810 9d3d 6dde 72be
00000040: bade c23e 48a2 8b3c b0e8 13be b6cf 7abe
00000050: 5201 a33e e05e 90be 8d63 dbbd 2c88 3ebe
00000060: 8828 0dbe 2db8 31be c5cf 8dbe 4ea7 413e
00000070: b0ad bebd 5509 4abe 5f5a b0bd 654f d13e
00000080: 81af 203e 1faa e5bd 5853 3bbe b0aa 3f3c
00000090: 910d cabd 9078 bb3d 84c0 663e 81b6 1e3e
000000a0: 5437 633e c430 47bd 350a 44bd 608c 843e
000000b0: ec71 6bbc ab2f 80be 86d3 61bd d867 5dbe
000000c0: 379a 8bbe c42f 643e 9715 93be 00a4 a1be
000000d0: 36da 063f 41ee 56be 05d6 7ebc ce8d d9bd
000000e0: 3c73 7abe d4a6 4abe 8f3a 91bd df18 82be
000000f0: 8c29 89be 286a 92bd 0aa6 ccbb 9c2f 1e3f

weight f4 [64, 64]
0.118893616 0.12068966 0.018896231 0.2735642 0.27484 0.1464732 0.25068113 0.098989405
0.041239303 0.05810258 -0.1273402 0.1354221 -0.034005996 0.17306931 -0.22182178 0.19710846
-0.13447392 0.14003542 0.11855547 0.17881773 -0.14188872 0.005971846 0.24564625 0.031356737
-0.054524228 -0.13172656 -0.017501516 -0.32118538 0.22066014 -0.13201176 0.12394018 0.29340273
0.24343124 -0.038876556 0.09968022 0.06485046 -0.12268535 -0.09287441 -0.0698432 -0.35195982
0.2859607 0.08864388 -0.03398562 0.3338112 0.20409898 0.089984395 0.07321214 0.20049344
-0.19543439 0.10512258 -0.26213992 0.21816038 0.27926913 0.119348675 -0.05092228 0.22175065
0.18901007 0.012458743 -0.048530146 0.07552291 0.16574949 -0.040366467 0.0076823398 0.09971865
0.1819215 -0.19538714 -0.008383446 0.33742595 0.2748478 0.4088794 0.34154835 0.24081324
0.1737553 0.18296741 -0.032290805 0.25903267 -0.01118051 0.34273216 -0.09553362 0.32428154
-0.36321643 0.055724077 0.34118518 -0.050197367 -0.2795465 0.05816868 0.19163665 0.112420656
-0.18991128 -0.20020293 -0.27782124 -0.25328267 0.21096179 -0.08928687 0.07068141 0.46625307
0.24774602 -0.063408695 0.13451326 0.13890631 -0.27347058 -0.042518582 0.10269026 -0.42317748
0.26418746 0.37354377 0.08123165 0.4435005 0.14954981 -0.39977917 0.26285043 0.00607602
-0.2816947 0.027969595 -0.21912144 0.31928185 0.0645474 0.23419449 0.08401767 0.40735662
0.41814238 0.13614179 0.09844429 0.07366803 0.42459795 0.050026163 0.09246066 0.10878023
0.029633721 0.07646195 -0.013934769 0.06669662 0.17226718 0.07342596 0.046667427 0.15319821
-0.12169597 0.0043330397 0.025825385 0.070683815 -0.124086596 -0.06896451 -0.11738066 0.074167
0.018693909 -0.22859208 -0.15457977 0.013958298 -0.13414362 0.039382804 -0.08635033 -0.009785165
0.17000201 0.06591223 -0.026605416 -0.11887956 0.24012852 0.113024324 -0.14063646 -0.062206548
-0.014569467 -0.1466469 0.18770058 0.13912651 0.10321932 -0.02504173 -0.048161626 -0.18923154
0.16618879 0.10182813 -0.044073507 0.14164348 -0.11889626 -0.024912179 -0.035955742 -0.074060746
0.0021916672 0.019778082 0.18485405 0.06675745 0.070541106 0.09693421 0.05923373 0.07758288
-0.008071422 0.14413476 0.01809687 -0.1095565 0.15713991 -0.10979095 0.15668182 -0.037899215
-0.016886512 0.02366134 -0.32175726 -0.055395994 -0.16745666 -0.22442257 -0.17718199 -0.18676743
-0.19545266 -0.09106255 -0.0070777996 -0.181793 -0.11737993 -0.12779538 0.06199475 -0.16239215
0.10319714 -0.11875943 -0.015626516 0.023469022 0.057611294 -0.03655179 -0.032956485 0.02640612
-0.062326264 0.11037579 0.032234933 -0.008040002 -0.28047115 -0.1687363 -0.053328704 -0.12473275
-0.163399 -0.017373417 0.038696367 -0.19806004 0.11779243 0.10749268 0.009857508 -0.039496038
-0.21235341 -0.17747593 0.07785542 -0.08803405 -0.10430349 0.045786444 -0.0386826 -0.11465883
0.19302838 0.11006857 -0.010368233 -0.1347032 -0.052170087 -0.06153081 -0.035479683 0.021210492
-0.10868455 -0.10910236 0.038296837 -0.089994274 -0.07497525 -0.030989941 -0.15283598 0.038749266
00000000: 7f7e f33d 242c f73d 45cc 9a3c 9b10 8c3e
00000010: d4b7 8c3e 12fd 153e 4759 803e f5ba ca3d
00000020: 8bea 283d f9fc 6d3d 7865 02be 17ac 0a3e
00000030: df49 0bbd 1539 313e 4025 63be cdd6 493e
00000040: 88b3 09be 7265 0f3e 36cd f23d ff1b 373e
00000050: 474b 11be 7aaf c33b b18a 7b3e ec6f 003d
00000060: cc54 5fbd 54e3 06be 575f 8fbc 6972 a4be
00000070: bbf4 613e 172e 07be 59d4 fd3d e238 963e
00000080: 0a46 793e 063d 1fbd 2525 cc3d 51d0 843d
00000090: 7542 fbbd f034 bebd f409 8fbd 1434 b4be
000000a0: 7169 923e ec8a b53d 8134 0bbd 4de9 aa3e
000000b0: 53ff 503e bd49 b83d 3ff0 953d 274e 4d3e
000000c0: f41f 48be 824a d73d 3437 86be 6f65 5f3e
000000d0: 5dfc 8e3e 146d f43d e193 50bd 9a12 633e
000000e0: db8b 413e c11f 4c3c 8cc7 46bd c1ab 9a3d
000000f0: 3cba 293e 4f57 25bd 23bc fb3b 4b39 cc3d
00000100: a149 3a3e 9113 48be b95a 09bc 18c3 ac3e
00000110: dab8 8c3e a458 d13e 6ddf ae3e bf97 763e
00000120: e9ec 313e cf5b 3b3e 5d43 04bd ee9f 843e
00000130: 752e 37bc 977a af3e 21a7 c3bd 3b08 a63e
00000140: 81f7 b9be ee3e 643d d3af ae3e c19b 4dbd
00000150: b820 8fbe 4842 6e3d 663c 443e cd3c e63d
00000160: 1a78 42be ff01 4dbe 963e 8ebe 44ae 81be
00000170: 5e06 583e 09dc b6bd 6ac1 903d b9b8 ee3e
00000180: 22b1 7d3e 6bdc 81bd d8bd 093e 753d 0e3e
00000190: 5604 8cbe f727 2ebd 454f d23d b8aa d8be
000001a0: 9443 873e 2141 bf3e c85c a63d 7f12 e33e
000001b0: 9623 193e dbaf ccbe 5594 863e 5a19 c73b
000001c0: 4a3a 90be 7e20 e53c 5f61 60be e978 a33e
000001d0: 6d31 843d aed0 6f3e 7511 ac3d 0c91 d03e
000001e0: c216 d63e c168 0b3e 299d c93d 44df 963d
000001f0: e764 d93e 3ce8 4c3d 045c bd3d 2bc8 de3d
00000200: 6bc2 f23c 1598 9c3d a84e 64bc 3d98 883d
00000210: cf66 303e 5a60 963d 5826 3f3d fedf 1c3e
00000220: bd3b f9bd 2cfc 8d3b c28f d33c adc2 903d
00000230: 1d21 febd 443d 8dbd 4565 f0bd dee4 973d
00000240: f823 993c 0b14 6abe 294a 1ebe 58b1 643c
00000250: f25c 09be dd4f 213d 71d8 b0bd f551 20bc
00000260: 0215 2e3e fefc 863d 9af3 d9bc 2077 f3bd
00000270: 40e4 753e 4c79 e73d 0103 10be 4bcc 7ebd
00000280: c6b4 6ebc 9b2a 16be 9534 403e 2e77 0e3e
00000290: a764 d33d 5024 cdbc 2045 45bd eac5 41be
000002a0: 652d 2a3e 448b d03d 6c86 34bd fd0a 113e
000002b0: e27f f3bd a014 ccbc 5446 13bd 29ad 97bd
000002c0: 13a2 0f3b a505 a23c 614a 3d3e 21b8 883d
000002d0: db77 903d 7185 c63d 119f 723d c6e3 9e3d
000002e0: ff3d 04bc 1098 133e e33f 943c 295f e0bd
000002f0: 49e9 203e 14da e0bd 3371 203e 353c 1bbd
00000300: 9555 8abc 6dd5 c13c 5ebd a4be e9e6 62bd
00000310: c279 2bbe 08cf 65be 326f 35be f63f 3fbe
00000320: be24 48be 017f babd e3ec e7bb f227 3abe
00000330: e464 f0bd cbdc 02be 35ee 7d3d 214a 26be
00000340: 0659 d33d 2538 f3bd 2e03 80bc 1b42 c03c
00000350: d2f9 6b3d 54b7 15bd 61fd 06bd a651 d83c
00000360: d349 7fbd b40c e23d c708 043d 36ba 03bc
00000370: ea99 8fbe 35c9 2cbe 336f 5abd e273 ffbd
00000380: 1152 27be b252 8ebc 1580 1e3d 40d0 4abe
00000390: 283d f13d 1f25 dc3d 6381 213c 99c6 21bd
000003a0: 2c73 59be 40bc 35be aa72 9f3d 324b b4bd
000003b0: 119d d5bd 918a 3b3d a571 1ebd 40d2 eabd
000003c0: 3ba9 453e a16b e13d 85df 29bc a3ef 09be
000003d0: 4db0 55bd bb07 7cbd 2553 11bd a0c1 ad3c
000003e0: 0196 debd 0f71 dfbd 25dd 1c3d eb4e b8bd
000003f0: a08c 99bd 9ede fdbc 0981 1cbe 8db7 1e3d

bias f4 [64]
-0.009768374 -0.104540184 -0.12995651 0.017271655 -0.014853479 -0.299118 -0.03586486 0.05590678
-0.11491233 -0.14168625 0.12618272 0.13460778 -0.2136335 0.16711396 0.016015576 -0.1432402
0.013107867 -0.057585288 -0.08547031 -0.07761533 0.1255878 -0.67127454 -0.16904517 0.14506437
0.18908547 -0.074059024 -0.16622855 0.05483683 -0.1314088 0.3273351 0.027726844 0.18319388
-0.018210387 0.027774375 -0.13236327 0.012972063 -0.20547652 0.18960021 0.013014252 -0.111360446
0.21402735 0.060477164 0.35031354 0.19077277 -0.15906475 0.022858785 -0.31312296 -0.34188843
0.07921571 0.10652758 0.08346809 -0.16517255 -0.1321107 0.39435872 0.34972337 -0.24749626
-0.21242788 -0.32680672 -0.25401697 -0.009036825 -0.2335959 -0.73031914 -0.010235832 -0.023489514
00000000: 880b 20bc 2a19 d6bd 5213 05be 497d 8d3c
00000010: 025c 73bc ff25 99be 08e7 12bd 82fe 643d
00000020: 2857 ebbd 3316 11be 0b36 013e 9fd6 093e
00000030: bdc2 5abe ec1f 2b3e 1933 833c 8fad 12be
00000040: 61c2 563c 8dde 6bbd 0f0b afbd c9f4 9ebd
00000050: 179a 003e a6d8 2bbf 2d1a 2dbe c18b 143e
00000060: 9f9f 413e 42ac 97bd d137 2abe 959c 603d
00000070: 0790 06be 7798 a73e 6823 e33c 2d97 3b3e
00000080: f32d 95bc 1687 e33c 3d8a 07be c788 543c
00000090: 7068 52be 8f26 423e bb39 553c f210 e4bd
000000a0: fc29 5b3e e7b6 773d 4c5c b33e f059 433e
000000b0: dfe1 22be 5942 bb3c a751 a0be 000c afbe
000000c0: d93b a23d 222b da3d 51f1 aa3d fe22 29be
000000d0: 0748 07be 63e9 c93e f10e b33e a96f 7dbe
000000e0: b286 59be 3653 a7be 830e 82be 310f 14bc
000000f0: c333 6fbe 32f6 3abf 31b4 27bc 156d c0bc

weight f4 [1, 64]
-0.01957826 0.011464419 -0.0067152344 0.003876061 0.018641973 0.039886765 0.015199983 0.032159667
0.037434157 0.00056380563 0.00741601 0.037685774 0.07455307 0.010445243 0.036832947 -0.0071061384
0.011439626 -0.040375996 0.0010320991 -0.0049411813 0.0013847224 0.18262291 0.0036118075 -0.0020329359
0.026483607 0.08801603 0.012487468 0.004778017 0.06111554 0.012866521 -0.027714327 -0.031835634
-0.01885622 0.02128277 0.04735102 -0.044799738 0.0608542 -0.00056686206 -0.007786926 -0.076281376
0.05520815 0.003253365 0.04503857 0.014159193 -0.017873067 0.046454895 0.05645727 -0.011144172
-0.090356246 0.12922636 -0.058418386 0.0049781906 -0.019936623 0.08459995 0.05971649 0.040477905
0.041960437 -0.0074560535 0.007416241 -0.083968244 0.064571016 0.044727474 -0.060389202 0.0022290018
00000000: 9662 a0bc 42d5 3b3c 780b dcbb 8305 7e3b
00000010: 0db7 983c 4e60 233d 5909 793c dbb9 033d
00000020: 8f54 193d 5bcc 133a 0002 f33b 665c 1a3d
00000030: 48af 983d 8622 2b3c 25de 163d 9cda e8bb
00000040: 456d 3b3c 4d61 25bd 8047 873a a2e9 a1bb
00000050: 937f b53a 8001 3b3e 13b4 6c3b 013b 05bb
00000060: 26f4 d83c c041 b43d 3d98 4c3c e990 9c3b
00000070: 4a54 7a3d 1ace 523c 2809 e3bc 1566 02bd
00000080: 5c78 9abc 3459 ae3c 25f3 413d ee7f 37bd
00000090: 4142 793d 7899 14ba 7829 ffbb 6939 9cbd
000000a0: f121 623d 6836 553b 5d7a 383d f6fb 673c
000000b0: 8a6a 92bc 7d47 3e3d bd3f 673d 0c96 36bc
000000c0: b20c b9bd ea53 043e 1e48 6fbd 1720 a33b
000000d0: 2152 a3bc bd42 ad3d 4799 743d 29cc 253d
000000e0: b5de 2b3d e951 f4bb f003 f33b 8bf7 abbd
000000f0: cf3d 843d 2834 373d ab5a 77bd 7214 123b

weight f4 [64]
0.8131057 1.0 1.1484957 0.91282535 0.7897144 1.050545 1.0 1.0897764
1.0598412 0.97216177 1.1368123 1.0 1.0111595 0.8357935 0.6279431 1.0
0.8907837 1.0 1.0 0.99786526 0.9852523 1.0 1.0 1.0
1.0 1.0 0.42658052 0.74227 1.5007256 0.9522793 1.0 0.9943381
0.86740273 1.0 1.0 1.0 1.0 0.479058 0.5137127 1.1538159
0.7188584 1.0 1.0 1.131218 1.0 1.0 1.0 0.88576275
1.0 0.76613176 1.0 0.8734482 0.8444756 1.0 1.0592219 1.0
1.0 0.9448117 1.0 1.0 1.0 0.9448778 0.739686 0.80751127
00000000: b227 503f 0000 803f e801 933f ecae 693f
00000010: b92a 4a3f 4278 863f 0000 803f cb7d 8b3f
00000020: e0a8 873f 98df 783f 1183 913f 0000 803f
00000030: ad6d 813f 90f6 553f e1c0 203f 0000 803f
00000040: 670a 643f 0000 803f 0000 803f 1974 7f3f
00000050: 7f39 7c3f 0000 803f 0000 803f 0000 803f
00000060: 0000 803f 0000 803f c368 da3e 6805 3e3f
00000070: c717 c03f 94c8 733f 0000 803f f18c 7e3f
00000080: 1b0e 5e3f 0000 803f 0000 803f 0000 803f
00000090: 0000 803f 1747 f53e ad82 033f 3db0 933f
000000a0: 1b07 383f 0000 803f 0000 803f c0cb 903f
000000b0: 0000 803f 0000 803f 0000 803f 59c1 623f
000000c0: 0000 803f 3621 443f 0000 803f 4d9a 5f3f
000000d0: 8e2f 583f 0000 803f 9594 873f 0000 803f
000000e0: 0000 803f 2edf 713f 0000 803f 0000 803f
000000f0: 0000 803f 83e3 713f 105c 3d3f 0fb9 4e3f

bias f4 [64]
0.24618046 0.17055684 -0.45672148 0.33789188 0.2831026 0.043167643 -0.43666998 0.07242731
-0.45951834 -0.2439091 -0.25535274 -0.54741657 0.077920854 0.4185067 -0.38915196 -0.5308722
-0.39620882 -0.37272862 -0.4563087 0.35045108 -0.47362942 0.3627327 -0.49896592 -0.33208624
0.399654 0.40738884 0.87391335 -0.21166812 -0.5883494 0.1584142 -0.23997694 0.046057068
0.24696624 -0.18301828 0.28847116 -0.41695625 0.2858482 0.045260474 -0.6158177 -0.028345793
0.42944425 -0.39620674 -0.31257114 -0.03200926 -0.3288217 0.10792644 -0.34198558 0.26084936
0.52675426 -0.36405027 0.4147746 -0.20678939 0.52490956 -0.49432415 -0.4064258 -0.492222
-0.5330044 -0.35884175 0.13742073 -0.42390946 -0.47861275 0.52734417 0.49384773 0.75077766
00000000: bb16 7c3e 74a6 2e3e 66d7 e9be 2a00 ad3e
00000010: d3f2 903e 8ed0 303d 3593 dfbe c554 943d
00000020: fd45 ebbe 4fc3 79be 98bd 82be 7e23 0cbf
00000030: f894 9f3d 8346 d63e ed3e c7be 3ee7 07bf
00000040: e2db cabe 49d6 bebe 4ba1 e9be 536e b33e
00000050: 8e7f f2be 1ab8 b93e 7678 ffbe 3507 aabe
00000060: 739f cc3e 4595 d03e c9b8 5f3f 87bf 58be
00000070: 119e 16bf 5537 223e 84bc 75be 56a6 3c3d
00000080: b8e4 7c3e 2569 3bbe 7eb2 933e 4a7b d5be
00000090: b25a 923e 0c63 393d 3ba6 1dbf 7035 e8bc
000000a0: 1ee0 db3e 9cdb cabe 5309 a0be 241c 03bd
000000b0: 515b a8be 8a08 dd3d bc18 afbe 0c8e 853e
000000c0: 5ed9 063f cc64 babe 565d d43e 99c0 53be
000000d0: 7960 063f 0e18 fdbe 0b17 d0be 8604 fcbe
000000e0: fa72 08bf 1bba b7be 05b8 0c3e a90a d9be
000000f0: bb0c f5be 0700 073f 9cd9 fc3e f732 403f

running_mean f4 [64]
0.070313595 0.0 6e-45 0.22326589 8.0480575e-08 0.32756838 0.0 0.08880492
6e-45 1.8291502e-16 6e-45 0.0 6e-45 0.092599966 0.12641576 0.0
0.295521 0.0 0.0 6e-45 0.21816152 0.0 0.0 0.0
0.0 0.0 1.2647904e-08 0.14035888 0.0586703 6e-45 0.0 0.49016163
0.26307935 0.0 0.0 0.0 0.0 0.08281442 0.2716086 0.010374613
0.2573642 0.0 0.0 0.34647912 0.0 0.0 0.0 4.768328e-37
0.0 0.17448495 0.0 1.4935528e-31 0.5721401 0.0 6e-45 0.0
0.0 6e-45 0.0 0.0 0.0 6e-45 0.08127796 0.7072103
00000000: 9300 903d 0000 0000 0400 0000 d09f 643e
00000010: aad4 ac33 0bb7 a73e 0000 0000 5bdf b53d
00000020: 0400 0000 fce2 5225 0400 0000 0000 0000
00000030: 0400 0000 0da5 bd3d 2273 013e 0000 0000
00000040: 874e 973e 0000 0000 0000 0000 0400 0000
00000050: bc65 5f3e 0000 0000 0000 0000 0000 0000
00000060: 0000 0000 0000 0000 124a 5932 3dba 0f3e
00000070: 4550 703d 0400 0000 0000 0000 77f6 fa3e
00000080: 56b2 863e 0000 0000 0000 0000 0000 0000
00000090: 0000 0000 9b9a a93d 4810 8b3e 48fa 293c
000000a0: 3ec5 833e 0000 0000 0000 0000 b665 b13e
000000b0: 0000 0000 0000 0000 0000 0000 ff41 2203
000000c0: 0000 0000 2fac 323e 0000 0000 cedf 410c
000000d0: c677 123f 0000 0000 0400 0000 0000 0000
000000e0: 0000 0000 0400 0000 0000 0000 0000 0000
000000f0: 0000 0000 0400 0000 0f75 a63d bc0b 353f

running_var f4 [64]
0.0005110474 6e-45 6e-45 0.0014113594 6.062747e-10 0.00056208414 6e-45 0.000247181
6e-45 3.531405e-19 6e-45 6e-45 6e-45 0.00060253806 0.00027538498 6e-45
0.00082582963 6e-45 6e-45 6e-45 0.0011487304 6e-45 6e-45 6e-45
6e-45 6e-45 5.1167755e-12 0.00029812352 0.0024047329 6e-45 6e-45 0.0007148741
0.0012916756 6e-45 6e-45 6e-45 6e-45 1.7471662e-05 0.00023077469 0.0004383031
0.00014696142 6e-45 6e-45 0.0008829066 6e-45 6e-45 6e-45 8.2465e-41
6e-45 0.00026244458 6e-45 7.632231e-34 0.00020072388 6e-45 6e-45 6e-45
6e-45 6e-45 6e-45 6e-45 6e-45 6e-45 0.0008785791 0.00091066177
00000000: cff7 053a 0400 0000 0400 0000 5dfd b83a
00000010: caa6 2630 d458 133a 0400 0000 1298 8139
00000020: 0400 0000 1575 d020 0400 0000 0400 0000
00000030: 0400 0000 a5f3 1d3a 8c61 9039 0400 0000
00000040: 7d7c 583a 0400 0000 0400 0000 0400 0000
00000050: ff90 963a 0400 0000 0400 0000 0400 0000
00000060: 0400 0000 0400 0000 d107 b42c 764d 9c39
00000070: b998 1d3b 0400 0000 0400 0000 6466 3b3a
00000080: 714d a93a 0400 0000 0400 0000 0400 0000
00000090: 0400 0000 1c90 9237 1cfc 7139 0ccc e539
000000a0: a819 1a39 0400 0000 0400 0000 dc72 673a
000000b0: 0400 0000 0400 0000 0400 0000 e1e5 0000
000000c0: 0400 0000 b798 8939 0400 0000 d79f 7d08
000000d0: 6879 5239 0400 0000 0400 0000 0400 0000
000000e0: 0400 0000 0400 0000 0400 0000 0400 0000
000000f0: 0400 0000 0400 0000 7250 663a 7ab9 6e3a

weight f4 [64]
0.33880755 0.301105 0.35513535 0.16528766 0.23767735 0.39258114 0.09410616 0.18215448
0.48898602 0.022507655 0.11841913 0.3500463 0.6496801 0.043732353 0.2617274 0.24145894
0.19839327 0.46129477 0.0120495325 0.2841962 0.01029606 0.8186642 0.1572732 0.10887107
0.39254072 0.55648607 0.0909137 0.073404424 0.2983675 0.4785738 0.63660043 0.23366089
0.41505352 0.13701792 0.3606606 0.3960445 0.36030468 0.015272917 0.090028025 0.5606143
0.56616765 0.15496822 0.565471 0.117569126 0.44770104 0.27655327 0.52632916 0.44493964
0.484325 0.6176528 0.28637108 0.104440555 0.11969204 0.6199933 0.5761188 0.41860968
0.33015737 0.21292514 0.27598158 0.49198523 0.47092587 0.70122963 0.48322764 0.1895849
00000000: 2f78 ad3e 6f2a 9a3e 4dd4 b53e 2b41 293e
00000010: b161 733e 6500 c93e bbba c03d b486 3a3e
00000020: 605c fa3e f961 b83c bb85 f23d 4539 b33e
00000030: 6f51 263f b220 333d 2201 863e 0341 773e
00000040: 9b27 4b3e d42e ec3e 676b 453c 2a82 913e
00000050: ceb0 283c fa93 513f 3a0c 213e ccf7 de3d
00000060: 19fb c83e df75 0e3f f630 ba3d 0f55 963d
00000070: a0c3 983e a007 f53e 3ff8 223f cd44 6f3e
00000080: e581 d43e 6d4e 0c3e 82a8 b83e 58c6 ca3e
00000090: db79 b83e 423b 7a3c 9d60 b83d 6b84 0f3f
000000a0: 5df0 103f fdaf 1e3e b5c2 103f 15c8 f03d
000000b0: 1239 e53e 6498 8d3e 82bd 063f 21cf e33e
000000c0: 72f9 f73e 7e1e 1e3f 3b9f 923e eee4 d53d
000000d0: 1a21 f53d e2b7 1e3f 867c 133f 0254 d63e
000000e0: 630a a93e 0c09 5a3e 754d 8d3e 7de5 fb3e
000000f0: 321d f13e c983 333f 9d69 f73e 8b22 423e

bias f4 [64]
0.1035815 0.05138175 -0.0043021655 -0.011045911 0.053128522 -0.102743655 -0.009359855 -0.020948123
-0.051429212 -0.009251524 0.05111886 0.10633857 0.006543196 -0.08281818 -0.056877445 0.059968974
0.09218145 -0.08860088 0.003679918 -0.021654734 -0.0031971913 0.012199817 0.040302623 -0.026419647
-0.05134386 -0.026537567 0.060407184 0.03131587 -0.043134723 -0.044043835 0.009911204 0.08603035
-0.010283055 -0.05476603 0.0011772894 0.005681183 -0.010150793 0.0014296822 0.012291573 -0.0032789914
-0.08616448 0.14054829 -0.108870596 -0.017742744 -0.023138402 -0.02472281 0.06928947 -0.07056862
-0.027717603 0.061665867 -0.1508407 0.010315022 0.061643526 0.045443434 0.09616294 -0.06355274
0.026531694 0.013416016 0.07951119 -0.05975223 0.010885109 0.008758386 0.015188469 0.0195031
00000000: 8a22 d43d ab75 523d 2ef9 8cbb e9f9 34bc
00000010: 4b9d 593d 446b d2bd 145a 19bc 669b abbc
00000020: 70a7 52bd b493 17bc 0262 513d 09c8 d93d
00000030: 4e68 d63b 949c a9bd 53f8 68bd 07a2 753d
00000040: a1c9 bc3d 6174 b5bd c72a 713b 4565 b1bc
00000050: f887 51bb bee1 473c 5d14 253d 046e d8bc
00000060: f04d 52bd 5065 d9bc 866d 773d 1245 003d
00000070: 09ae 30bd 4f67 34bd 9a62 223c ae30 b03d
00000080: 427a 28bc 5852 60bd 474f 9a3a 3829 ba3b
00000090: 834f 26bc 2d64 bb3a 9862 493c 59e4 56bb
000000a0: 0177 b0bd e4eb 0f3e 8cf7 debd 3b59 91bc
000000b0: bf8c bdbc 7e87 cabc a3e7 8d3d 4886 90bd
000000c0: 0710 e3bc 5995 7c3d fc75 1abe 5700 293c
000000d0: ec7d 7c3d e522 3a3d 13f1 c43d f027 82bd
000000e0: ff58 d93c d9ce 5b3c c3d6 a23d c1be 74bd
000000f0: 7557 323c 557f 0f3c 0ed9 783c f7c4 9f3c

running_mean f4 [64]
0.7929257 1.0094707 0.61599034 1.2405341 1.543346 0.6234131 0.27196676 3.3210866
2.135132e-12 0.23745 0.5755407 3.8526937e-07 1.3019706e-11 0.99964476 3.383613 1.0945703
4.0146008 1.6098408 1.910739 0.5559985 1.0297723 7.1209226e-14 0.38661838 4.376686
1.8758776 1.4825749 0.66162276 0.67105234 0.84624004 5.274292 1.4721648 0.2751163
1.5173151 0.6571047 0.49308124 0.97195965 0.53136927 1.2661215 0.0015853761 2.6132796
1.5608213 0.19107097 2.191704 1.3320262 1.821317e-05 1.2349494 0.8393289 0.72754043
3.3642159 2.839206 1.9258071 0.24038307 0.39668953 2.5472486 1.8452977 0.16391416
4.631221 0.59519774 0.6438901 2.6965966 1.222003e-11 0.045950454 2.318561 3.3077338
00000000: 2efd 4a3f 5636 813f 8bb1 1d3f d2c9 9e3f
00000010: 5d8c c53f 0098 1f3f 3a3f 8b3e af8c 5440
00000020: 1e3f 162c 1826 733e a356 133f 05d7 ce34
00000030: 8b0b 652d b8e8 7f3f 1e8d 5840 e11a 8c3f
00000040: 9c77 8040 430f ce3f 1893 f43f eb55 0e3f
00000050: 94cf 833f 5359 a029 d8f2 c53e d00d 8c40
00000060: c21c f03f 04c5 bd3f 1c60 293f 16ca 2b3f
00000070: 30a3 583f 00c7 a840 e56f bc3f 0bdc 8c3e
00000080: 6237 c23f 0338 283f 2575 fc3e 59d2 783f
00000090: d107 083f 4510 a23f 65cc cf3a f93f 2740
000000a0: fec8 c73f 1ca8 433e e144 0c40 d67f aa3f
000000b0: 7cc8 9837 d212 9e3f 42de 563f 1740 3a3f
000000c0: 504f 5740 8db5 3540 d980 f63f fb26 763e
000000d0: e41a cb3e 1f06 2340 b732 ec3f 1dd9 273e
000000e0: f632 9440 e15e 183f fbd5 243f 0a95 2c40
000000f0: 1ffa 562d 8b36 3c3d 4e63 1440 e9b1 5340

running_var f4 [64]
3.020812 6.195293 0.7930635 1.2615395 1.4390262 2.7227242 0.57238525 10.195345
2.4160266e-12 0.5873575 0.4463229 3.079804e-07 2.04188e-11 1.0910406 5.855575 4.0795083
14.1375 0.7512271 4.273618 0.95701253 0.22393571 2.0835635e-13 0.93823326 3.1731472
7.3463902 2.3069508 3.2143545 0.37340719 5.7669992 4.0778966 7.548315 0.21550436
0.9043697 3.220276 2.2591863 1.3551738 2.3439379 0.6341073 0.0024929452 1.8599815
2.8094137 0.49764353 2.2331991 1.9400475 3.942095e-05 6.2790504 5.9620137 3.8704739
33.222202 8.521218 0.8254556 0.43159693 0.36746967 3.9896293 2.7769716 0.4192367
16.014757 3.9079535 2.928105 3.021016 1.5973731e-11 0.158313 0.41505978 4.396656
00000000: fc54 4140 d73f c640 3606 4b3f 207a a13f
00000010: 0332 b83f 1d41 2e40 d787 123f 2220 2341
00000020: 4403 2a2c 105d 163f 6f84 e43e 8158 a534
00000030: 0d9b b32d 38a7 8b3f df60 bb40 558b 8240
00000040: 3333 6241 6b50 403f 7bc1 8840 c6fe 743f
00000050: 674f 653e a196 6a2a 0e30 703f d814 4b40
00000060: a115 eb40 15a5 1340 fcb7 4d40 3a2f bf3e
00000070: 428b b840 217e 8240 cc8b f140 2dad 5c3e
00000080: c684 673f 0119 4e40 8296 1040 5676 ad3f
00000090: 1403 1640 db54 223f ae60 233b e013 ee3f
000000a0: 6fcd 3340 22cb fe3e bcec 0e40 7a53 f83f
000000b0: ec57 2538 fbed c840 d1c8 be40 d8b5 7740
000000c0: 89e3 0442 e956 0841 0f51 533f 46fa dc3e
000000d0: fc24 bc3e 1656 7f40 e7b9 3140 31a6 d63e
000000e0: 391e 8041 e91b 7a40 1366 3b40 5358 4140
000000f0: a581 8c2d ce1c 223e b782 d43e 68b1 8c40
