parameters_BinaryClassification_Adam_0.001_50.pth (torch, 28469 bytes, 13 tensors)

weight f4 [64, 12]
000000 c9 f2 7c 3e 91 86 3c be 62 40 bf bc 0b 0e 54 3d
       0.2470199 -0.18410708 -0.02334613 0.051771205
000010 99 32 7c 3e 0c c4 31 bc 82 94 80 3d 1b df 21 be
       0.24628676 -0.010849964 0.062783256 -0.15807764
000020 03 38 8c 3e 87 74 c1 3b 24 58 8f be 6b 81 3e 3e
       0.27386484 0.0059037837 -0.27996933 0.18604057
000030 8d 1e 06 3e 33 52 47 be 25 29 86 be 4f 5d 50 3e
       0.13097592 -0.1946495 -0.26203266 0.20348094
000040 89 e0 64 3c 83 aa a8 3d 0d 6c 8b 3e 6a 30 1f 3c
       0.013969549 0.082356475 0.27230874 0.009716133
000050 ab 39 75 be 25 54 dc bd fa 9c d8 3c 13 f7 05 bd
       -0.2394778 -0.10758237 0.02644204 -0.03270633
000060 88 a2 47 3e 36 ac 62 bd 85 d6 94 3b ff 1e 32 be
       0.19495595 -0.055340014 0.0045421743 -0.17394637
000070 70 44 86 3d 9f ea 65 bd 9e 83 62 3d fe 36 61 bd
       0.06556022 -0.056131955 0.0553013 -0.054984085
000080 6a b1 36 3b 13 78 9c 3d 54 91 06 be 1a 7c 61 be
       0.0027876743 0.0764009 -0.13141376 -0.22019997
000090 28 38 3b 3e 39 96 73 3c 61 66 1f 3e 30 95 4e 3e
       0.1828314 0.014867359 0.15566398 0.20174098
0000a0 36 e5 9a 3d 4a a5 0f be ef 25 f6 3d 4f c5 73 3e
       0.0756325 -0.14027897 0.12018954 0.23805736
0000b0 2d 3c 5c 3e 1f 5f 05 3e cb a6 81 3e 3e 93 5a 3e
       0.2150733 0.13024567 0.25322565 0.21345231
0000c0 63 bc e2 3d 64 4a 15 be b2 fd fe bd 69 0d b3 be
       0.11071088 -0.14579159 -0.12450732 -0.3497117
0000d0 18 41 fc 3d 0a 02 d9 3d 91 40 39 3e 31 37 44 3e
       0.12317103 0.10596092 0.18091036 0.19161679
0000e0 a9 20 a5 be 7b bf 69 be 77 dd 83 3e 2f 67 bc 3d
       -0.3225148 -0.2282695 0.25754902 0.09199368
0000f0 97 f3 83 3d 84 33 8c 3e 74 15 6f be da 25 21 3e
       0.064429455 0.27383053 -0.23348027 0.15737095
000100 da 05 3a be 72 f5 49 3e d2 f6 1c bd 03 97 82 3e
       -0.18166295 0.19722536 -0.038321324 0.25505838
000110 8e 4c 34 3d 22 1f 4d 3e 6d d5 13 be 60 82 ce 3c
       0.04401832 0.20031407 -0.14436884 0.025208652
000120 b2 84 a7 3d 73 c4 78 3d 62 25 25 3e cb 09 b3 be
       0.081796065 0.060734224 0.16127542 -0.3496841
000130 f1 71 1c be 47 c0 84 3e 58 09 a9 bd 4d 51 c9 3d
       -0.1527784 0.25927946 -0.08253735 0.0982996
000140 ae 4a 6f 3e 1a 44 9d be 58 57 4b 3e f2 20 34 be
       0.23368332 -0.3071602 0.19857538 -0.17590693
000150 21 ab 7e 3e f4 be 87 be 70 9f c8 bd ed 5c f2 3d
       0.24869968 -0.26512873 -0.09796035 0.118341304
000160 98 4a 44 3d fe 95 6b be e8 e9 09 3e c8 e2 4c be
       0.0479227 -0.23006436 0.13468134 -0.20008385
000170 3c de 03 be d1 f1 4a 3c d0 e2 8a be 10 7c 96 be
       -0.12877744 0.012386755 -0.2712617 -0.29391527
000180 f3 61 cd be c1 e9 54 be fb 02 e5 3d a7 68 52 3e
       -0.40113792 -0.20792295 0.11182209 0.20547734
000190 f7 af b5 3c 59 96 53 3d 90 9b 6c 3d f4 79 cc be
       0.022178633 0.051657055 0.057765543 -0.39936793
0001a0 62 c3 8e 3e b6 88 14 be 1e 36 8b 3e af 02 85 bc
       0.2788344 -0.14505276 0.27189726 -0.016236631
0001b0 8e f3 89 3e 6a 54 38 be 21 0e 20 bc 85 81 80 be
       0.2694363 -0.18000951 -0.009768994 -0.25098816
0001c0 45 cf ae 3e 50 82 73 bd c5 9b 0f 3f 19 c8 93 3e
       0.3414251 -0.059450448 0.5609706 0.288636
0001d0 e6 76 9d 3c 8f ff 80 be c0 2e d6 3d 9d cd c4 3d
       0.019221734 -0.25194976 0.104581356 0.0960953
0001e0 f1 1b 8d bd 9d 87 6f 3e ad 8f 12 3e 68 26 41 be
       -0.06890095 0.23391576 0.1431262 -0.18862307
0001f0 17 0e c9 bd 38 19 df 3c 95 eb 3a 3d 07 ce 37 be
       -0.098171405 0.027233705 0.045634825 -0.17949687
000200 3f 78 8f 3d 6d ea 84 bd de 60 e0 3c 13 d7 50 be
       0.07005357 -0.06490026 0.02738994 -0.20394544
000210 75 28 07 3c 52 f2 84 3e c3 ea 85 be b6 27 cb bc
       0.008249392 0.25966126 -0.2615567 -0.02479921
000220 f8 5e 8e 39 29 84 8d 3e 5f 66 65 3d cf b1 4e be
       0.00027155108 0.27639893 0.05600583 -0.20185016
000230 76 b5 4c be 6d 2a 3c bd 2d 67 8d bd 1f 5a fb bd
       -0.19991097 -0.045938898 -0.06904445 -0.122730486
000240 c4 09 c5 3d 28 8c 79 be 83 58 61 3c f1 46 31 bd
       0.09621003 -0.24369872 0.013754013 -0.043280546
000250 94 46 7c bd 60 c9 81 bd ff 7b cf bc f2 99 b9 3e
       -0.061590746 -0.06337237 -0.02532768 0.36250263
000260 31 27 6b be 50 46 95 be a7 93 ae bd 11 bd 95 bd
       -0.22964169 -0.29155207 -0.08524256 -0.07311452
000270 7a ce 03 3d e8 6b f5 3d e6 8f 8b be 1b 65 05 3e
       0.032179333 0.11983472 -0.27258223 0.1302685
000280 2b 93 30 bd 9e 6e 7d be ba 18 87 3e c5 cc 3d be
       -0.0431091 -0.24749228 0.26386052 -0.18535145
000290 24 74 38 3d fe 28 63 3e 0e 1c 6e 3e 46 6c 43 be
       0.045032635 0.22183606 0.2325289 -0.19084272
0002a0 7a c8 ef 3d 57 c3 df 3d fe da 91 3d 34 e4 d3 bd
       0.1170816 0.1092593 0.071218476 -0.10346261
0002b0 bc 56 d4 3d b9 b1 07 bc 29 db 65 be 58 99 d1 bd
       0.10368106 -0.0082821185 -0.22446884 -0.10234326
0002c0 f9 3f 29 3c 89 af 9a 3d 3c 07 56 be 65 b2 da bd
       0.010330194 0.07553012 -0.20901197 -0.10678557
0002d0 e5 46 5d be b1 69 90 be de 8f 13 3c 26 3f 46 3e
       -0.21609075 -0.28205636 0.009006469 0.19360027
0002e0 16 ec b6 3d db 1e 58 3e 3c 19 2b be 10 f5 cf 3d
       0.089317486 0.2110552 -0.16708845 0.10154164
0002f0 b3 99 8b be d0 00 13 be a4 36 4c be 27 d5 f0 3d
       -0.272657 -0.14355779 -0.19942719 0.117594056
000300 11 2f 68 3d 9f 6e 5d bc e8 d6 c6 3d 51 c6 53 be
       0.05668551 -0.013515144 0.09708959 -0.2068112
000310 83 7b 60 3d c9 c1 80 be 8d 40 b0 bd 3a 0b 35 be
       0.05480529 -0.25147846 -0.08606062 -0.17680064
000320 c9 04 6e be 99 58 4d 3d d2 a0 1a 3e d9 94 1f be
       -0.23244013 0.05013332 0.1510041 -0.15584125
000330 9f ac b0 bd fd c3 f8 3d 2d 95 73 3e f3 92 aa 3d
       -0.08626675 0.12146757 0.23787375 0.083288096
000340 19 1a 9b bc 17 9c 03 bd b5 fb 44 3e e6 09 07 be
       -0.018933343 -0.03213128 0.19236644 -0.1318737
000350 af 26 28 be bc 2d 6d 3d b4 7b 78 3e 1e 04 d3 bd
       -0.16421007 0.057904944 0.24265939 -0.1030352
000360 58 d9 3d be 33 0e e3 bd 85 e0 b3 3d e0 52 79 3d
       -0.18539941 -0.11086693 0.08783058 0.06087005
000370 58 b3 4e 3c f9 e6 6c bd 90 e1 c2 3d 2b 7e 61 3e
       0.012616001 -0.05783746 0.09515679 0.22020786
000380 78 24 a0 be 31 68 90 b9 5d 0b 3d be cc e1 1c 3e
       -0.31277823 -0.0002754345 -0.18461366 0.1532051
000390 a7 c3 94 bd 7c e2 a1 bb 72 77 c1 3e 8d b7 bf 3d
       -0.0726388 -0.004940329 0.37786442 0.093611814
0003a0 63 17 97 3e 7b 33 ac be 5f c5 57 3d 09 f9 ec bd
       0.2951003 -0.33633026 0.052678462 -0.11570937
0003b0 cd 6f 8c 3e bc 15 32 3d 7b 84 68 bb 19 df 43 be
       0.27429047 0.04347776 -0.0035479355 -0.19128074
0003c0 eb e7 63 bd 8d d6 16 be b6 3e 72 be 84 13 44 3d
       -0.055641096 -0.14730282 -0.23656735 0.047870174
0003d0 67 d4 a5 3d 92 30 65 be c1 b9 79 3d 0f 94 be 3d
       0.08097153 -0.2238181 0.060968164 0.09305584
0003e0 3e bb de bd 49 67 08 3c 5f 9c 91 3d 1c f7 da bd
       -0.10875557 0.008325406 0.071099035 -0.106916636
0003f0 92 c4 01 3e 67 33 33 be b9 39 69 be 70 de 50 be
       0.12672642 -0.17500077 -0.22775926 -0.20397353

bias f4 [64]
000000 24 31 40 be 19 9e f6 bd 12 a2 6b be f5 10 bd bd
       -0.18768746 -0.120418735 -0.23011044 -0.0923175
000010 c4 65 c3 3d c9 c8 26 bd 6e b0 c7 bc 8e 2f 23 3d
       0.09540895 -0.040718827 -0.02437612 0.039840274
000020 ef e6 66 3e 8e 07 f8 3d 1e 40 85 be 61 cc 91 be
       0.22549032 0.12110816 -0.2602548 -0.2847624
000030 26 df 21 3e 9a ab 8d be 08 4e f9 bc 11 59 3d 3c
       0.1580778 -0.27669984 -0.030432716 0.01155688
000040 f8 42 da bd b4 a6 f9 bd 3c ff 16 3e bc 50 70 3e
       -0.106573045 -0.12189999 0.14745802 0.23468298
000050 0b ca 06 3e f0 0c 0e 3d b0 a5 22 be 6e 17 3a 3d
       0.13163011 0.034680307 -0.15883517 0.0454325
000060 ad 21 bb bd 82 d3 96 bd a7 f1 78 bb 84 a9 3d 3e
       -0.091372825 -0.07364561 -0.0037985833 0.18521696
000070 0f 71 8c 3c d5 ba 6d 3e fa a8 27 bd b6 56 87 bd
       0.017143754 0.23215802 -0.040932633 -0.06608336
000080 b0 3b 29 be 75 b5 ba bd 89 36 0d bd 76 c6 81 be
       -0.16526675 -0.091166414 -0.034475837 -0.25346726
000090 96 68 80 3d 87 a5 7b be 74 10 63 bd 1b 43 8f 3d
       0.06269948 -0.24574862 -0.055435613 0.06995221
0000a0 37 5f 65 bd 65 ab 07 be b7 f8 f6 bd 6e 07 5c 3c
       -0.055999007 -0.13248976 -0.12059157 0.013429506
0000b0 f6 ae 86 3e 27 b2 1e bd c7 a2 bd 3d 2e 00 2c 3e
       0.2630536 -0.038744118 0.09259563 0.16796944
0000c0 87 2a 67 3e e1 f1 51 3e ec ee 55 be 05 8a 2b bd
       0.22574817 0.20502426 -0.20891923 -0.041879673
0000d0 52 dd 52 be 88 38 33 be c2 66 81 3e 83 58 e6 3d
       -0.2059224 -0.17502034 0.2527371 0.11247351
0000e0 e0 8c 92 3e 7b 35 7c 3e 6a 97 32 3e 89 a2 b7 bd
       0.28623104 0.24629776 0.17440572 -0.08966548
0000f0 82 11 8e 3d 11 59 5c 3e 98 83 73 be 70 32 83 3d
       0.06936933 0.21518351 -0.23780668 0.064061046

weight f4 [64, 64]
000000 80 3d 90 bd e7 87 6b bd c6 1a 43 3c 23 72 eb 3d
       -0.0704298 -0.057502653 0.011908239 0.11496379
000010 39 e0 7f bd 93 d5 9c bd 70 0f de bd f2 55 b8 3d
       -0.062469695 -0.076579235 -0.10842788 0.09000768
000020 76 46 61 bd 47 b7 0c be 50 3e f6 bd 63 3d 23 3d
       -0.054998837 -0.1374179 -0.12023604 0.039853465
000030 7c 69 ba bd 05 a4 70 3d df d5 c5 bd 3c 4d eb 3d
       -0.09102151 0.05875017 -0.09659933 0.11489341
000040 0b 07 03 3d e9 85 0d bc 32 5c e7 3c 0d 0e 38 3d
       0.03198914 -0.008637884 0.028242204 0.044935275
000050 ea fc ae 3d dc 30 a8 3d 1f 99 c2 3c 09 54 28 3d
       0.08544333 0.08212444 0.023754654 0.041095767
000060 f9 b2 6d bc 53 a9 95 bd 72 e2 f2 bc 04 94 09 3e
       -0.014508002 -0.07307687 -0.029648993 0.1343537
000070 03 76 13 3d 64 96 ea 3b 4f 61 db 3b 2a e0 dd 3d
       0.036001217 0.0071590412 0.0066949497 0.108337715
000080 88 a4 63 3d 3f 97 e3 bd 6a 69 10 bd 6e 55 a6 3d
       0.05557683 -0.11112832 -0.03525678 0.08121763
000090 08 ac 5e bd 35 f5 c4 bd a9 87 88 bc 7d 93 61 bb
       -0.05436328 -0.09617082 -0.01666625 -0.0034420185
0000a0 1d 0a de bd b2 41 ad bd 6d 70 97 bb 24 f4 cf 3d
       -0.10841773 -0.08459796 -0.0046215565 0.10153988
0000b0 4f 3d 96 3d ca 53 bc 3c 4f c0 14 3d ea 14 37 bc
       0.073359124 0.022989172 0.036316212 -0.01117442
0000c0 90 10 5c bc 37 a4 a1 bb f7 ab 08 3d db 5f c3 bc
       -0.013431683 -0.004932906 0.033367123 -0.023849418
0000d0 d7 41 4d 3d d6 62 b1 39 96 82 b6 bd 90 a1 3e 3d
       0.050111618 0.0003383371 -0.08911626 0.046540797
0000e0 04 6b ae bd 86 45 06 be fc 5a be 3c f4 7f 01 bd
       -0.08516505 -0.13112459 0.023236744 -0.031616166
0000f0 ef 54 b1 bd a5 af 31 3d 6a 69 9c 3c be c3 6f bd
       -0.08658778 0.0433804 0.019093234 -0.058536284
000100 e7 11 05 3e ac 3f e4 3d b8 5b 00 3d 6a f7 90 bd
       0.1299511 0.11144957 0.03133747 -0.070784405
000110 4a b5 63 bd 27 16 7e bc 10 f1 0f 3e d5 8e e6 3d
       -0.055592813 -0.015508211 0.14056802 0.11257712
000120 f9 52 01 3e 6f 20 3e 3d eb 99 af 3d 9e 93 ac 3c
       0.12629308 0.04641765 0.085742794 0.021066483
000130 cc 6e 2d 3d c2 5a b7 bd 19 1f 6d 3d 37 15 a2 3b
       0.042341992 -0.089528576 0.057890985 0.0049463767
000140 5e 54 08 3d 15 c2 82 3d 30 15 d5 3d da 35 17 bd
       0.033283584 0.063846745 0.10404432 -0.03691659
000150 7e ce c7 bd 59 d4 74 bc a8 ee 61 3c 08 6c 8b 3d
       -0.09756182 -0.014943206 0.01378981 0.06807715
000160 83 6d c6 bc 3b ee bd 3c 0f 1a d6 bc cc 09 c8 bd
       -0.024222141 0.023184886 -0.026135473 -0.097674936
000170 d8 98 69 bd e4 ec 74 bc 3b 81 2a 3d 93 07 d0 bc
       -0.05703053 -0.014949057 0.04162715 -0.025394237
000180 dd 06 bb bd 9d c9 8a bd a9 22 3b 3d 4a a1 84 3d
       -0.091321684 -0.06776736 0.04568735 0.06476076
000190 89 75 50 bd eb f5 2e 3d 91 38 bc 3c 16 16 4e ba
       -0.05089334 0.042714994 0.022976192 -0.00078615674
0001a0 01 d8 80 bd d9 91 2f 3d 54 f5 04 3d 78 6d 50 3d
       -0.062911995 0.0428637 0.032460526 0.050885648
0001b0 9a 14 a2 3d 99 ba e7 bd a0 a9 e9 bd 46 47 d6 3c
       0.07914086 -0.113148876 -0.114093065 0.026157033
0001c0 e7 f4 a9 3d 89 bc 35 bc bf 58 d1 bb 56 18 85 3d
       0.082986645 -0.011092314 -0.006388753 0.06498782
0001d0 4d a6 c6 bc 1c 85 2b bc 01 94 f6 bc 1f ba 86 3d
       -0.02424922 -0.0104687475 -0.03009987 0.065784685
0001e0 bf 44 c5 3d 81 37 33 bb e7 46 37 bd 63 c2 16 3c
       0.09632253 -0.0027346315 -0.044745352 0.009201619
0001f0 a7 97 88 bb 96 62 a9 bd 6f 6d df 3d d9 54 87 3d
       -0.004168469 -0.08270757 0.10909545 0.0660798
000200 35 9d dc 3d 55 81 d6 bd b5 13 e4 bb 59 da 57 3d
       0.10772172 -0.10473887 -0.006960357 0.052698467
000210 06 86 b0 3d 93 5f 54 3c 1b 00 af bd a9 4c 44 bd
       0.08619313 0.01296224 -0.08544942 -0.04792467
000220 85 24 9b bd 6b 4a e4 bd 82 98 a6 bd 0b f8 0b 3d
       -0.07575325 -0.111470066 -0.08134557 0.0341721
000230 9e 0a 2f bd af 71 b4 3a 19 0f fa 3c da 3b 29 3b
       -0.042734735 0.001376679 0.030524777 0.0025823028
000240 51 8e f8 bd 25 f4 d4 bd a0 03 f8 3d 1d 51 c7 bd
       -0.1213652 -0.103981294 0.121100664 -0.09732268
000250 90 c7 04 be de 56 dc 3d 7e 27 5d bd 72 5b 37 3d
       -0.12966752 0.10758756 -0.05399274 0.044764943
000260 0c bb 9e bd 73 d3 b7 3d 1b 54 f9 3d a5 be 08 3c
       -0.0775052 0.089758776 0.12174245 0.008346234
000270 32 b0 5f 3b 55 f0 d5 bd c2 6e 49 bc 1f ee b1 bd
       0.003413212 -0.1044623 -0.012294473 -0.08687996
000280 00 7d 36 3d 71 95 17 bd 06 57 e2 3d e9 88 38 3d
       0.044552803 -0.037007753 0.11051755 0.045052443
000290 97 91 62 bb 05 25 af bc 92 33 ad 3d ff 9b 17 3d
       -0.0034571642 -0.021379957 0.08457102 0.037014004
0002a0 0a dc 40 bd bb 91 d7 bc d7 05 8b 3c 34 c6 8e bd
       -0.047084846 -0.026314607 0.016970558 -0.06971398
0002b0 4b 99 23 bd c8 4f bb bd 86 80 0c be f4 bf 82 3d
       -0.039941113 -0.091460764 -0.13720903 0.063842684
0002c0 90 c8 b4 3d 04 8f ba bd fc 57 e8 3d 62 52 0f 3d
       0.08827317 -0.09109309 0.11344907 0.034990676
0002d0 32 d1 48 bd 7c e5 93 3c f6 59 f7 3d db 73 11 bd
       -0.04902763 0.018053763 0.120777056 -0.03551088
0002e0 65 14 0a 3e c4 bf 05 be 46 4e 97 3d 73 79 a3 bd
       0.13484342 -0.13061434 0.07387976 -0.07982149
0002f0 3b cd d3 3d ba be 14 3e c2 da 98 bb 1e f0 ee 3c
       0.10341879 0.14525881 -0.00466475 0.029167231
000300 06 a4 f3 3c c8 0a e2 3c 50 7c c0 bd 21 36 b5 3b
       0.029741298 0.027593032 -0.09398711 0.0055301343
000310 b0 18 b1 bd a7 80 f0 3d 74 a1 f3 3c 84 6b 46 bd
       -0.08647287 0.117432885 0.029740073 -0.04844238
000320 b0 ad c1 3d 51 13 8b bd e3 df 9b 3d 06 b7 04 be
       0.094569564 -0.06790794 0.076110624 -0.12960443
000330 44 47 00 3e 05 63 45 bd 81 72 97 bd 53 28 5c 3a
       0.12527186 -0.048190136 -0.07394887 0.0008398343
000340 4a c3 fc 3d 8a 1f b5 bd 80 da d5 bd 3a 07 8c 3d
       0.12341936 -0.08843906 -0.10442066 0.06837316
000350 85 73 c7 3c a7 4a 1a 3d a1 75 6c bd f8 36 dc bd
       0.024347076 0.03766885 -0.057729367 -0.10752672
000360 af 8f e5 3b 3b 1b c2 3d 6e e5 de bd 36 86 8b bd
       0.007005654 0.0947785 -0.10883604 -0.06812708
000370 24 29 a5 bc c7 18 08 be d2 76 c3 3d de 5d 8d 3d
       -0.020161219 -0.13290702 0.095441476 0.06902669
000380 8c 11 06 be dc ef a0 3d d5 76 d2 bd a0 46 d2 3c
       -0.13092631 0.078582495 -0.10276572 0.025668442
000390 0b 65 b9 3d 39 a9 42 3d 63 81 81 3d e5 c7 e1 3c
       0.090524755 0.047524665 0.06323507 0.027561137
0003a0 0b 7c a0 bd dd f5 7f bc 26 a5 24 bc 50 29 13 bd
       -0.07836159 -0.015622583 -0.01004914 -0.03592807
0003b0 cc ff c5 bd 49 78 ee 3c 08 0a 97 bd 1a 34 9a bd
       -0.0966793 0.02911009 -0.0737496 -0.07529469
0003c0 ba 17 48 3d b3 ab 05 bc 5a ef 34 3d b1 57 06 3e
       0.048850752 -0.008158612 0.044173576 0.13119389
0003d0 b9 1a ad bc a3 4e 64 3d 6d 57 27 bb 5e be 8c 3d
       -0.021130906 0.055739056 -0.0025534288 0.06872247
0003e0 7e 02 f3 3d 79 56 7d 3d a8 ae 79 3c 9f 20 ea bd
       0.1186571 0.061850045 0.015239395 -0.11432003
0003f0 f8 44 47 ba fa 28 ee 3d 28 51 1f 3c 4d 90 c1 3d
       -0.00076015247 0.116289094 0.009723939 0.09451351

bias f4 [64]
000000 7b ca f1 3b 7b f8 b2 3d 47 a1 c5 3d d7 14 47 3d
       0.007378874 0.087388 0.09649902 0.04860386
000010 81 3b aa 3c c7 55 4a 3d 28 34 ec 3c ab 01 e6 3d
       0.020780327 0.04939821 0.028833464 0.11230787
000020 09 66 b8 bd c5 39 d3 3b a6 7e b9 bb a6 ff bd bd
       -0.09003837 0.0064460956 -0.0056608496 -0.09277277
000030 aa ab b0 3c 62 be b4 bd 5d aa 3a 3c 1d 04 1b 3e
       0.02156623 -0.08825375 0.011393157 0.15138288
000040 b3 b2 5c 3c 66 ca 6e 3c 6b 14 84 3d b8 dd af 3c
       0.01347034 0.014574623 0.06449207 0.021468028
000050 26 26 7e bd 86 87 7d bc 5f 55 1f 3c 70 85 08 3d
       -0.0620481 -0.015474206 0.009724944 0.03333038
000060 2e 9f b3 bb b2 1c bc bc e2 a1 37 3d 5f 20 eb 3d
       -0.005481622 -0.022962902 0.044832118 0.11480784
000070 b0 93 bc 3d de c9 2c 3d 99 61 e3 3c 0c 7c 1f 3d
       0.09207857 0.042184703 0.0277565 0.03893666
000080 9a 19 a8 bb b8 07 0e be 9d fc b7 3d a2 b3 03 be
       -0.005130005 -0.13870132 0.08983729 -0.12861493
000090 cf 64 96 3d cf c3 65 3d 98 3c c6 3d 70 22 87 3d
       0.073434465 0.05609494 0.09679526 0.06598365
0000a0 9f 68 18 3b bb fc 8a bd 44 ec fc 3d 8a 2a 9a 3d
       0.0023255718 -0.06786486 0.123497516 0.07527645
0000b0 98 17 31 bd 0e 4b 55 bb 0e e8 1a bb aa 04 1d 3e
       -0.04323539 -0.0032545957 -0.002363685 0.1533381
0000c0 ec fb 2e be 45 e4 04 3e d5 b2 bf bc d9 75 2d bd
       -0.17088288 0.12977703 -0.023400703 -0.042348716
0000d0 fb 49 81 3d 49 3e b2 3c ec 5c 6c 3b db d5 9b 3d
       0.06312939 0.021758216 0.0036066128 0.07609149
0000e0 20 41 75 bd ee 1d 73 3d 95 13 29 bd ae a9 b4 bc
       -0.05987656 0.059354715 -0.04127844 -0.022053566
0000f0 f9 fd ed 3d b1 ee f6 3d 05 e1 f2 bd cd ae 44 bd
       0.11620707 0.120572455 -0.11859325 -0.048018266

weight f4 [1, 64]
000000 47 02 ae 3d 7f 3f a6 3d 67 ea 0a 3d f4 83 4e bd
       0.08496528 0.0811758 0.03391495 -0.05041881
000010 35 d1 ea bc 32 06 6e bd 1a 50 51 3d e7 38 a7 bc
       -0.02866421 -0.058111377 0.05110178 -0.020412875
000020 7b 7b ca bc 5f 2d 8e 3b dd e2 28 bd c6 5b 75 bd
       -0.024717083 0.0043389047 -0.04123198 -0.059901975
000030 69 14 6a bd 88 8e 12 3d 0d 6d d7 3c 35 04 86 bd
       -0.05714837 0.03578046 0.026297117 -0.06543771
000040 24 3f 95 bd fa 33 2e bd c1 f1 6d bd 71 7d 89 bc
       -0.07287434 -0.042530037 -0.058091883 -0.016783448
000050 9c fa 84 3d 9e 07 cc 3d 3c 47 2b bc 9d 32 72 bd
       0.064931124 0.0996239 -0.010453995 -0.0591303
000060 28 02 ba bc c4 f4 4c bd a9 05 b0 bd 1e 48 f2 3c
       -0.022706106 -0.050038114 -0.085948296 0.029575404
000070 d6 6c bc ba 79 6b e7 bc 14 74 78 bd 88 35 9f bd
       -0.0014375697 -0.02824949 -0.060657576 -0.07773882
000080 fd e8 86 3d fe 58 cc 3b 7b 47 99 3d 6d 16 43 3d
       0.06587408 0.0062361946 0.07484337 0.04762881
000090 32 9b 99 3d 4e e8 b6 3d 0c 70 05 bd a7 a0 29 3d
       0.07500304 0.08931027 -0.03257756 0.041412976
0000a0 7a 89 ee 39 d2 da 3b 3c 6a 91 50 3d 41 08 42 3c
       0.00045497325 0.011465745 0.050919928 0.011842788
0000b0 e1 c7 a5 bd 05 e6 b4 3a 16 0c 26 3c 89 39 57 bd
       -0.080947645 0.0013801461 0.010134717 -0.052545104
0000c0 db b8 91 3d ae 14 7c bd 59 2b 6b bd 1a 79 89 bd
       0.071153365 -0.06154316 -0.057414386 -0.067125514
0000d0 99 ff 47 bc 1c df 3b 3a ab ee ff bc 73 ba d4 bb
       -0.012206935 0.000716673 -0.031241735 -0.006491953
0000e0 34 78 19 3c 3a d1 6f 3d 53 e0 1b bd 95 05 e1 bb
       0.009367038 0.058549143 -0.03805573 -0.0068671205
0000f0 ff b2 98 3c 6b 39 5d bd 7b bc 00 3e 2d c9 5e bd
       0.01864004 -0.054009836 0.125719 -0.054391075

weight f4 [64]
000000 00 00 80 3f 00 00 80 3f 00 00 80 3f 6d 80 83 3f
       1.0 1.0 1.0 1.0273567
000010 8b c9 7f 3f 00 00 80 3f 58 06 80 3f e7 c5 84 3f
       0.99916905 1.0 1.0001936 1.0372895
000020 d2 17 80 3f 0b e4 7d 3f 00 00 80 3f 00 00 80 3f
       1.0007269 0.9917609 1.0 1.0
000030 87 23 7f 3f 00 00 80 3f 00 00 80 3f 5b 2d 7d 3f
       0.99663585 1.0 1.0 0.9889733
000040 9c 9d 7f 3f 97 87 7b 3f 92 b8 7f 3f ff a8 7a 3f
       0.9984987 0.9825377 0.99891007 0.9791412
000050 a1 ef 7c 3f ac f7 8b 3f 3d 33 86 3f 73 96 81 3f
       0.98803145 1.0934958 1.0484387 1.0124038
000060 a3 d1 7d 3f 00 00 80 3f 00 00 80 3f 3d 92 7a 3f
       0.99148005 1.0 1.0 0.9787939
000070 75 ef 7f 3f 42 d1 7e 3f 00 00 80 3f 9d 8d 7e 3f
       0.9997476 0.9953805 1.0 0.99434835
000080 00 00 80 3f 00 00 80 3f 00 00 80 3f 00 00 80 3f
       1.0 1.0 1.0 1.0
000090 ba 31 7e 3f 00 00 80 3f 00 00 80 3f f2 6f 82 3f
       0.99294627 1.0 1.0 1.0190413
0000a0 4c 19 82 3f 48 5b 80 3f 4e 20 80 3f cd 7e 82 3f
       1.016397 1.0027857 1.0009859 1.0194947
0000b0 75 95 80 3f 00 00 80 3f 48 8f 81 3f cf 68 7d 3f
       1.0045611 1.0 1.0121851 0.9898805
0000c0 3a cf 7d 3f 95 f0 7b 3f 00 00 80 3f 00 00 80 3f
       0.9914433 0.98413974 1.0 1.0
0000d0 00 00 80 3f f8 6d 84 3f 35 a0 79 3f 6b af 80 3f
       1.0 1.034606 0.9751008 1.0053533
0000e0 a6 2c 7d 3f 6d e6 80 3f 2c d8 82 3f aa 89 80 3f
       0.98896253 1.007032 1.022222 1.0042012
0000f0 28 c3 7b 3f 66 a6 81 3f 00 00 80 3f 9d b1 75 3f
       0.9834466 1.0128906 1.0 0.9597414

bias f4 [64]
000000 c8 25 5b 3c e8 48 1c 3b 81 80 b4 bc 78 67 73 bc
       0.013375707 0.0023847166 -0.022033932 -0.014856212
000010 d1 1c a3 bc c8 e9 d0 bb 2f 93 8f 3c 94 4f 4a 3b
       -0.019911202 -0.006375525 0.017526237 0.0030870186
000020 10 ec bb 3b 8e 8c 6d bc a8 c8 08 bd ae 58 1b 3c
       0.005734928 -0.014498843 -0.033394486 0.009481592
000030 88 9f 26 bc 1f 48 21 3b 67 3f bd bc 1e f0 a4 3c
       -0.010169871 0.0024609638 -0.023101522 0.020134028
000040 30 a4 f4 bc 95 56 ce 3a 75 23 09 3c bd 85 f9 bb
       -0.029863447 0.0015742356 0.00837027 -0.00761482
000050 1d 2e 31 bc e5 42 8f bc 71 7a af 3b c6 b3 45 3b
       -0.010814217 -0.017487952 0.0053551723 0.0030166968
000060 62 f5 8b 3c 4f 80 92 3c 86 f5 02 3c f7 6a 89 bc
       0.017084781 0.017883448 0.007993108 -0.016774638
000070 e6 7d 3d bc be 90 01 3c 5d dd 89 bc aa 2e 11 3c
       -0.011565661 0.007908044 -0.016829187 0.008861223
000080 92 f0 56 3c 54 fb 8b 3b 55 59 4f 3c 3c 20 39 3c
       0.01311888 0.004271904 0.012655576 0.011299189
000090 3a c2 0f 3c 31 49 a1 3a 18 f7 d8 3c 30 b6 cd 3c
       0.008774335 0.0012305138 0.026485011 0.025111288
0000a0 cf 08 a0 bb 2c 67 04 3d 13 65 a1 3c f9 c6 11 3c
       -0.0048838626 0.032324955 0.019701516 0.008897536
0000b0 aa eb 57 3c 52 5e 37 3b e0 09 93 bc 2e 72 35 bb
       0.013178745 0.0027979803 -0.017949045 -0.0027686465
0000c0 99 e1 8b bc 31 23 6c bc 43 59 97 ba fc fa fd bc
       -0.017075347 -0.014412687 -0.0011546988 -0.031003468
0000d0 49 84 b6 3b 58 d5 87 3b 74 1f 6d bc 0e c3 83 3c
       0.005569969 0.0041453056 -0.014472831 0.01608422
0000e0 e6 5c 60 3b 56 7f b8 bc 2f 70 11 3d 64 9d 07 3c
       0.003423506 -0.022521656 0.035507377 0.008277271
0000f0 1d d5 a3 bc 6c 18 12 3d f7 23 b1 3a c5 d5 00 bd
       -0.019999081 0.03566782 0.0013514747 -0.031453867

running_mean f4 [64]
000000 00 00 00 00 00 00 00 00 00 00 00 00 7e 18 f0 3b
       0.0 0.0 0.0 0.0073271384
000010 25 1d 3a 3e 00 00 00 00 58 5a 27 3d 73 04 a4 38
       0.1817518 0.0 0.040857643 7.820958e-05
000020 4f 12 a1 3e dc d6 1e 3e 00 00 00 00 00 00 00 00
       0.3145928 0.1551165 0.0 0.0
000030 21 22 05 3e 00 00 00 00 00 00 00 00 bb c5 06 23
       0.130013 0.0 0.0 7.306026e-18
000040 d8 d9 93 39 06 78 f0 3a 70 05 b2 3d 5f 01 6f 3e
       0.0002820033 0.0018346317 0.08692443 0.23340367
000050 69 d7 1f 3e da 6d 90 38 77 2a 8d 3a 9d 2c ac 38
       0.15609516 6.8869165e-05 0.0010770102 8.209909e-05
000060 9b 53 8e 3b 00 00 00 00 00 00 00 00 f2 34 1d 3e
       0.0043434626 0.0 0.0 0.15352228
000070 41 d1 c2 3d b7 af 74 3e 00 00 00 00 ef 0e af 3c
       0.09512568 0.23895155 0.0 0.021369426
000080 00 00 00 00 00 00 00 00 00 00 00 00 00 00 00 00
       0.0 0.0 0.0 0.0
000090 52 07 bd 3d 00 00 00 00 00 00 00 00 ae 63 2c 3c
       0.09229912 0.0 0.0 0.010521812
0000a0 7c 99 07 3d 32 09 4f 39 e4 b1 47 39 76 30 e7 37
       0.03310536 0.00019744484 0.00019044388 2.7559912e-05
0000b0 8c 49 5d 3e 00 00 00 00 bf 61 15 3e 08 ff 4c 3e
       0.21610087 0.0 0.14588068 0.20019162
0000c0 55 8d 46 3e 11 b6 4e 3e 00 00 00 00 00 00 00 00
       0.19389851 0.2018664 0.0 0.0
0000d0 00 00 00 00 a5 0e 29 39 dd 53 79 3e f6 8b 9a 3d
       0.0 0.00016122551 0.24348398 0.07546227
0000e0 ac de 87 3e bc 5b 87 3e 79 51 e2 3d ba 83 2c 3a
       0.26537073 0.26437175 0.11050696 0.0006580908
0000f0 cf c1 2b 3d d0 92 44 3e 00 00 00 00 a8 cf e3 3b
       0.041932877 0.1919663 0.0 0.006952245

running_var f4 [64]
000000 ea b8 7f 19 ea b8 7f 19 ea b8 7f 19 73 a1 b8 39
       1.3220534e-23 1.3220534e-23 1.3220534e-23 0.00035215504
000010 0d bc 53 3a ea b8 7f 19 0a 96 fc 39 fb c5 a2 35
       0.0008077033 1.3220534e-23 0.00048176973 1.212756e-06
000020 5a cb 6c 3a dc c9 09 39 ea b8 7f 19 ea b8 7f 19
       0.0009032987 0.00013140537 1.3220534e-23 1.3220534e-23
000030 87 8e b6 38 ea b8 7f 19 ea b8 7f 19 7e 21 4b 1e
       8.704984e-05 1.3220534e-23 1.3220534e-23 1.07536565e-20
000040 9a 31 21 37 b7 c1 db 38 47 07 cc 39 8a 7a 27 34
       9.607897e-06 0.00010478816 0.00038915334 1.5597666e-07
000050 39 f9 85 38 34 df 78 35 76 de 96 38 d3 e5 bb 35
       6.3883555e-05 9.2712e-07 7.193994e-05 1.3999473e-06
000060 c2 bd 57 39 ea b8 7f 19 ea b8 7f 19 f6 23 e4 38
       0.00020574688 1.3220534e-23 1.3220534e-23 0.000108785855
000070 a5 f7 33 3a b2 f9 b7 36 ea b8 7f 19 a7 cf 2d 3a
       0.000686521 5.4828934e-06 1.3220534e-23 0.0006630369
000080 ea b8 7f 19 ea b8 7f 19 ea b8 7f 19 ea b8 7f 19
       1.3220534e-23 1.3220534e-23 1.3220534e-23 1.3220534e-23
000090 8a c1 d0 38 ea b8 7f 19 ea b8 7f 19 65 6b 06 39
       9.954262e-05 1.3220534e-23 1.3220534e-23 0.00012819243
0000a0 15 72 4c 3a a8 42 fe 36 18 19 df 36 48 5b 1a 34
       0.0007798982 7.5775497e-06 6.648839e-06 1.4375576e-07
0000b0 90 78 83 39 ea b8 7f 19 42 8e ac 39 01 d7 f9 38
       0.00025076093 1.3220534e-23 0.00032912387 0.00011913293
0000c0 a5 d9 ff 38 b7 66 aa 36 ea b8 7f 19 ea b8 7f 19
       0.00012199887 5.0783524e-06 1.3220534e-23 1.3220534e-23
0000d0 ea b8 7f 19 b0 6c df 36 2e 09 fb 36 fd 17 1f 39
       1.3220534e-23 6.658571e-06 7.4814516e-06 0.00015172358
0000e0 59 c9 41 38 b1 40 20 38 6b ca f3 39 28 b7 cf 37
       4.6202305e-05 3.820722e-05 0.00046499385 2.4761612e-05
0000f0 0d e8 9f 38 0a 4c 7e 38 ea b8 7f 19 0d 82 ba 38
       7.624934e-05 6.0629136e-05 1.3220534e-23 8.893395e-05

weight f4 [64]
000000 4b 80 80 3f 89 5c 7c 3f f0 30 7d 3f 19 20 7a 3f
       1.0039152 0.985787 0.989028 0.9770523
000010 bb 28 81 3f ec c6 78 3f 54 28 7a 3f 47 cd 7d 3f
       1.0090555 0.9717853 0.97717786 0.99141353
000020 a8 82 7a 3f 22 14 78 3f b6 16 80 3f fd 8a 74 3f
       0.97855616 0.9690572 1.0006931 0.9552458
000030 a3 2b 7b 3f d9 be 7c 3f d0 b4 7f 3f d3 65 76 3f
       0.9811346 0.9872871 0.9988527 0.9624912
000040 c7 e4 78 3f 27 2c 7a 3f ca 69 7d 3f 58 7e 7b 3f
       0.97224087 0.9772362 0.98989546 0.9823966
000050 31 a9 80 3f 60 a8 7d 3f 24 81 7c 3f 9f ec 7a 3f
       1.0051633 0.99085045 0.9863455 0.98017305
000060 01 2d 79 3f 8a 78 7c 3f 9c 6a 7f 3f 20 98 7e 3f
       0.97334296 0.9862143 0.9977205 0.99450874
000070 19 86 7a 3f a6 82 80 3f 5d 03 7e 3f e5 9b 78 3f
       0.97860867 1.0039871 0.9922388 0.97112876
000080 98 48 7e 3f 18 75 78 3f a1 7f 75 3f b4 f1 77 3f
       0.9932952 0.9705367 0.9589787 0.96853185
000090 ec 10 81 3f 79 01 7e 3f 6d 12 7b 3f 8f d8 7c 3f
       1.0083289 0.99221 0.9807499 0.9876794
0000a0 bb 96 76 3f 8e ce 7c 3f e8 17 84 3f a4 35 7e 3f
       0.96323746 0.9875268 1.0319796 0.993006
0000b0 a8 36 80 3f af 4a 79 3f 1e 0b 7d 3f 83 ac 77 3f
       1.001668 0.97379583 0.9884509 0.96747607
0000c0 48 26 7d 3f 5e e4 78 3f f4 b8 79 3f d3 5b 7e 3f
       0.9888654 0.9722346 0.9754784 0.9935886
0000d0 04 ee 7d 3f c6 5e 7a 3f 0a eb 7c 3f 27 15 7b 3f
       0.9919131 0.9780086 0.9879614 0.9807915
0000e0 68 4a 7d 3f 1d a9 7f 3f fc 74 80 3f 01 95 77 3f
       0.9894166 0.9986742 1.0035701 0.96711737
0000f0 9a ab 7f 3f fe d4 7e 3f e7 3f 80 3f 5a b0 7d 3f
       0.9987122 0.9954375 1.0019501 0.99097216

bias f4 [64]
000000 64 23 17 bc b7 8e 35 bc 8e c6 0f bc 7f c0 d8 3b
       -0.009224746 -0.011081389 -0.0087753665 0.006614744
000010 14 9f 75 3c 6d 9a 88 3c e4 c8 80 bb 72 06 77 3c
       0.01499154 0.016675198 -0.003930198 0.01507722
000020 d4 f3 17 3c 49 12 06 3b 58 7c 91 3b fd 2e 3e 3b
       0.009274442 0.0020457676 0.0044398718 0.0029019706
000030 cf 10 0c 3c f3 fa 42 bc d0 64 8a bc 80 37 80 3b
       0.008548929 -0.011900651 -0.016893774 0.003912866
000040 cb e6 3b 3b b6 5e 3b 3c 62 43 5c 3c 2a f6 19 3c
       0.00286715 0.011436155 0.0134438 0.009397069
000050 ad 4b 6b 3b 8a 06 86 ba 72 51 85 3c 63 21 49 3b
       0.003590326 -0.0010225337 0.016274188 0.0030690066
000060 1e 03 93 3b fc ca 87 3c 64 bb 4c 3b 66 0c 74 bb
       0.0044864556 0.016576283 0.0031239623 -0.0037238835
000070 5b 7a db 3b 50 f2 2e 3c d9 ac 93 3c 8a fd 71 3c
       0.0066979355 0.010677889 0.018026756 0.014769921
000080 67 52 53 bc b3 2e aa 3a cc cf 38 bb 0e fd 6d bc
       -0.012898064 0.0012983888 -0.0028200028 -0.014525665
000090 8b b6 80 bc f9 fd 6b bc 73 2e 4a 3c a4 ca 8d b9
       -0.015712043 -0.0144038135 0.012340176 -0.00027044595
0000a0 f1 24 9a bb 46 cf 04 bd b9 0c 07 bc bb de 8f bc
       -0.004704111 -0.032424234 -0.008242779 -0.01756226
0000b0 f4 6c 5a 3a af 2c aa 3b 5c b7 03 3c 9d 66 59 3c
       0.00083322753 0.005193315 0.008039322 0.013269094
0000c0 cf 21 81 b9 33 ba 03 3c 92 af 07 3c 0d 8e 89 3c
       -0.00024629987 0.008039999 0.008281605 0.016791368
0000d0 5e 86 bb 3b b2 40 56 bc 1e 8a d6 3c 52 cf 92 3b
       0.005722805 -0.013076948 0.026188906 0.004480281
0000e0 b1 72 a1 38 af 5e 51 bc 5a 5a 57 3c 21 80 46 3b
       7.698441e-05 -0.012778922 0.0131441 0.0030288773
0000f0 27 46 4c b9 05 b9 be 3c 23 6e 0d bc 33 20 f0 3b
       -0.0001948109 0.023281584 -0.008632216 0.007328057

running_mean f4 [64]
000000 88 53 01 3e 2a 75 60 3e 55 29 10 3f 61 b7 49 3e
       0.12629521 0.21919695 0.5631307 0.1969886
000010 45 11 a6 3d f1 35 29 3e 70 fa bd 3d 21 af 66 3e
       0.08108763 0.16524483 0.09276283 0.22527744
000020 1d 79 04 3e b2 0b e9 3d 41 01 ac 3d 72 9b d8 3d
       0.12936826 0.11379184 0.08398677 0.10576524
000030 3d e5 ac 3d d8 99 5e 3e 3a e0 47 3e 14 c0 8b 3e
       0.08442161 0.21738374 0.1951913 0.2729498
000040 f6 b0 16 3e d2 5b d3 3e 5c ce 25 3e 5e 9a 63 3e
       0.14715943 0.4128099 0.16192001 0.22226855
000050 dc 57 bf 3d dc aa b8 3d f0 07 5c 3e 13 28 2e 3e
       0.0934293 0.09016964 0.21487403 0.17007475
000060 81 a7 a8 3e 91 69 99 3d 3e 0b af 3d 56 c1 92 3e
       0.32940295 0.07490838 0.08547066 0.2866313
000070 d2 e4 a4 3e 6a 6b 45 3e b5 64 f4 3c 3f 22 0e 3e
       0.32205826 0.19279256 0.029833177 0.13880251
000080 26 6d 49 3d 96 cd 2f 3d 22 28 03 3e 13 8d 58 3d
       0.049176358 0.04292067 0.12808278 0.052868914
000090 95 5c dd 3d 08 78 d9 3d 4e 07 05 3e be f1 7c 3e
       0.10808674 0.10618597 0.12991068 0.24701592
0000a0 ba cf 06 3e 33 af e8 3e eb 51 54 3e 49 e6 e8 3e
       0.13165179 0.45446166 0.20734374 0.45488194
0000b0 31 39 e0 3c fd de a0 3d 9e c6 2f 3e a9 fe a6 3e
       0.027371021 0.07855032 0.1716561 0.32616165
0000c0 c0 61 2a 3d ce 0c 2a 3e 97 13 90 3e 35 ed 1b 3e
       0.041597128 0.16606447 0.28139946 0.15227206
0000d0 df 20 b8 3d 36 ba f4 3e 2f ad ad 3d 69 8d 09 3e
       0.08990645 0.47798318 0.08480298 0.1343285
0000e0 70 fa 29 3d 5f 97 0e 3e 1d 46 ec 3d a3 75 83 3e
       0.0414986 0.13924931 0.115368105 0.25675687
0000f0 d5 74 4b 3e c9 68 7d 3e a6 71 42 3e 17 12 fa 3e
       0.19868787 0.24747004 0.18988666 0.48841926

running_var f4 [64]
000000 3b 0c 12 3d ca 0c 8e 3d 7b a9 e3 3e 32 15 8c 3d
       0.035656195 0.06936033 0.4446524 0.0683998
000010 7f d9 54 3c 07 74 03 3e 0c 3d 69 3d d0 ee c9 3c
       0.012991308 0.1283723 0.056942984 0.024650007
000020 d1 2b 0b 3d 2c 72 15 3d d0 82 44 3c d2 7b fc 3c
       0.033977333 0.036485836 0.011994079 0.03082076
000030 64 66 b8 3c 3b 05 9d 3d a0 f5 1e 3e 86 cd ce 3c
       0.022509761 0.07667013 0.15523386 0.025244486
000040 0e d5 29 3c 24 34 0b 3f be 76 02 3d 6c 2d f0 3d
       0.010365738 0.54376435 0.031851523 0.117274135
000050 0b 10 1a 3d a6 c1 f7 3c e3 b3 95 3d 88 3b 51 3d
       0.037612956 0.030243706 0.07309701 0.051082164
000060 15 5f 1a 3e b9 9b 3e 3c f3 95 2e 3c 4f 14 c1 3d
       0.15075333 0.011633807 0.010655868 0.09427702
000070 db 97 96 3e 4d f0 5f 3d f1 2a 0e 3b 1c 49 6b 3d
       0.29412732 0.054672528 0.0021693076 0.05744277
000080 af aa d6 3c aa 2a 36 3d 7c 4e cc 3b 8c 26 24 3c
       0.026204435 0.04447428 0.006234942 0.010018956
000090 8c 0c ba 3d ed 1c ab 3c bb ce 6a 3d 00 e9 01 3e
       0.090844244 0.020887816 0.05732606 0.12686539
0000a0 2e eb 09 3d d6 70 b6 3e 82 2a 8d 3d 90 73 a4 3e
       0.03367155 0.35632962 0.06892873 0.32119417
0000b0 cd 6c ff 3a 59 e8 d9 3c 44 f9 8b 3d cf bb 34 3d
       0.0019487381 0.02660005 0.06834653 0.04412442
0000c0 47 c3 0a 3d 95 04 b3 3b ad f3 ce 3e 4f 8d 7f 3d
       0.033877637 0.0054631927 0.40420285 0.06239062
0000d0 d3 60 e2 3c 66 fa c4 3e 1d 99 47 3c 80 17 d3 3b
       0.02763406 0.3847229 0.012182501 0.0064420104
0000e0 16 33 8c 3d 73 65 6b 3d 4d 1b d4 3c 0a 4e 2f 3e
       0.06845681 0.057469796 0.025891924 0.17119613
0000f0 5b 13 5f 3d 95 6e 13 3d 2f c8 3b 3e 59 09 db 3e
       0.05446182 0.03599413 0.18338083 0.4278057
