parameters_BinaryClassification_Adam_0.001_100.pth (torch, 28469 bytes, 13 tensors)

weight f4 [64, 12]
000000 9c 84 8e 3c 68 d9 47 be 40 f0 70 3e 26 22 86 3e
       0.017397217 -0.19516528 0.23529148 0.26197928
000010 ad 30 05 3e c1 83 4d 3e 8a 5b 29 be 76 57 80 be
       0.1300685 0.20069791 -0.16538826 -0.25066727
000020 d1 91 f2 3d 2f c3 0c 3e c6 8f 88 3e 3a 93 85 3c
       0.118442185 0.13746332 0.2667219 0.016305555
000030 b4 04 11 bd 06 79 05 be 00 12 02 be 67 1f f1 3b
       -0.035404876 -0.13034448 -0.12702179 0.00735848
000040 e9 81 89 be 53 bd 81 be ae d3 56 3e 4b ad 90 3e
       -0.26856926 -0.25339755 0.20979187 0.28257212
000050 bb 81 2e be 27 b5 a6 bd 88 0e 6c be 49 c7 70 3d
       -0.17041676 -0.08140021 -0.23052418 0.058783803
000060 29 ee 66 3e fd 07 8f be 5e 12 57 3e 99 3b 48 be
       0.22551788 -0.27935782 0.210031 -0.19553985
000070 98 8a 2f 3e f1 e2 83 3e c1 08 2d be 41 a7 0f 3e
       0.17142713 0.2575908 -0.1689787 0.14028646
000080 3e 64 88 be 88 37 9a bc 98 82 89 3e f6 eb cf 3c
       -0.2663898 -0.018825307 0.26857448 0.02538107
000090 74 2b 8e 3e 76 4b d5 3d 63 9d 6a 3d f8 11 48 be
       0.27767527 0.10414784 0.057279002 -0.19538105
0000a0 83 33 ff 3d f1 0f 88 3e 1a db 44 3d 7e 38 81 3d
       0.12460997 0.26574662 0.048060514 0.06309603
0000b0 85 47 71 be 35 7d a8 bd 8c 32 a6 3d 95 12 ca 37
       -0.23562439 -0.08227006 0.0811511 2.408893e-05
0000c0 fe 63 2e 3c a0 34 d4 bc ee 62 a2 be 35 f8 16 bf
       0.010643957 -0.025904 -0.31716102 -0.58972484
0000d0 97 d0 91 3e cf 71 03 3d 3d 3d df 3e 0f 05 07 bd
       0.28479454 0.03209096 0.4360141 -0.03296381
0000e0 d7 e1 53 be c9 c2 d3 be 2d 89 6b be b7 3c 25 be
       -0.2069162 -0.41359547 -0.23001547 -0.16136442
0000f0 9f 79 96 be 04 5b 09 3e ee 8e 51 3e 83 d6 9e 3d
       -0.29389665 0.13413626 0.2046468 0.077557586
000100 16 bd 13 be 08 59 19 3e 82 14 86 3d 68 49 8d 3e
       -0.144276 0.14975369 0.0654688 0.27595067
000110 c4 d9 d8 bd fa ed 49 bd 88 4d 60 be 6c 95 81 3e
       -0.105884105 -0.049299218 -0.21904576 0.25309312
000120 cd 14 57 be e2 78 40 be 3a 45 64 3e 78 7f 19 be
       -0.21004029 -0.18796113 0.22292033 -0.14990032
000130 f6 61 d9 3d 0f bc 3a bd 7e 06 78 bd da 27 2b 3e
       0.10614388 -0.045589503 -0.060553066 0.16714421
000140 27 53 42 be 92 f4 48 3e ea 3b aa bc 14 c7 70 be
       -0.18977033 0.19624546 -0.020780522 -0.23513442
000150 0a 09 96 3a 9a 6c 8b be ca 7c 6c be 3d 00 1f bf
       0.0011446786 -0.27231294 -0.23094478 -0.6210974
000160 d3 a2 54 3e a0 87 a8 3e da 18 c0 3e 5f 14 25 3d
       0.20765238 0.32915974 0.3751896 0.04030263
000170 e4 d6 14 3e 2b 8d 46 bd 01 20 26 3b ae c0 16 be
       0.145351 -0.048474472 0.0025348666 -0.14721939
000180 ea 18 ee 3c b8 5d 6a 3e 4d aa 02 3d 93 d5 c4 3e
       0.029064614 0.22887313 0.031900693 0.38444194
000190 c8 07 04 3e 5e 2b b4 be c6 3b 22 bd 97 df 94 3d
       0.12893593 -0.35189337 -0.039607786 0.07269209
0001a0 77 45 fe bd ed 7b 8d 3d 9f e8 f5 bd 26 05 4f bd
       -0.12415593 0.069084026 -0.120072596 -0.05054202
0001b0 a9 51 75 be 90 33 c2 3d 2d d0 13 be aa 2e d2 be
       -0.23956932 0.09482491 -0.14434882 -0.41051227
0001c0 4b 6f 1c 3e 25 1b 5b 3d 52 a0 4e 3e 62 9d e0 3c
       0.1527683 0.053492684 0.20178345 0.027418796
0001d0 28 dc a1 be 0c 49 c7 be e3 cc 13 3e 25 6c 93 be
       -0.31613278 -0.38922918 0.14433627 -0.28793445
0001e0 f7 b3 92 bd 7c f3 08 be 14 22 15 3d 81 da 5b 3e
       -0.07163232 -0.13374132 0.036409453 0.21470071
0001f0 1e f1 5a be c7 b4 67 3e 07 55 aa 3c ca 83 90 be
       -0.21381041 0.22627555 0.020792497 -0.28225547
000200 39 5f 6a be 55 ff fa 3d 83 6e 9f bd f9 67 77 3e
       -0.22887887 0.12255732 -0.0778475 0.24160756
000210 58 8e 97 3e 4a c3 61 bd 9f ab 16 bf 6f 0e 0a bf
       0.29600787 -0.055117883 -0.58855623 -0.53928274
000220 c6 29 0d 3f bf 2f f4 3d 61 9f 2b 3f f0 39 08 3f
       0.55141866 0.11923169 0.6704007 0.53213406
000230 29 ce 95 be c4 c8 d5 be e7 e8 ce 3c 67 ea b3 be
       -0.2925885 -0.41754735 0.02525754 -0.35139772
000240 eb cd b6 3d e5 0c 5e 3d 68 5b d1 bd 55 a3 54 be
       0.089259945 0.054211516 -0.102225125 -0.20765431
000250 8a b5 e0 bd 3a e8 b7 bd 6e 7a 4f be 0c 62 2f 3e
       -0.10972126 -0.089798406 -0.20261547 0.17127246
000260 3d 01 90 bd 0c 69 43 3e 9c ab f3 bd dd 11 9b bd
       -0.07031486 0.19083041 -0.11897966 -0.075717665
000270 a7 2a 40 3e 02 9b 8b 3e 22 42 1d 3e 92 34 46 3f
       0.1876627 0.272667 0.15357259 0.77423966
000280 2f 20 ea bd 59 a0 fd 3d df e9 1d bf bc 5a 0a be
       -0.1143192 0.123840995 -0.61684984 -0.13511175
000290 53 87 22 be d0 9c d8 3e eb 40 41 3e 48 3c b5 3d
       -0.15871935 0.42307138 0.1887242 0.08849388
0002a0 85 ee 6c 3e 3b 5a 77 3e 8d 87 4c 3e 4b fb f8 3d
       0.23137863 0.24155514 0.19973584 0.12157305
0002b0 9c 96 0b 3e df 74 84 3e 21 d3 15 bc fb 58 64 bc
       0.13631672 0.25870416 -0.009144575 -0.01393723
0002c0 1f 7c 3e 3e 98 15 a2 bd 3b ed 89 3e d7 2a f8 bd
       0.18602036 -0.07914275 0.26938805 -0.12117546
0002d0 b7 ad 9a be d8 9b 59 3e 95 08 7f 3e d2 86 fd 3e
       -0.3021066 0.21250856 0.24905618 0.49516922
0002e0 a0 a4 d3 be 94 34 81 be 62 b8 ac be bf c3 9f 3b
       -0.41336536 -0.25235426 -0.33734423 0.0048756297
0002f0 51 6b 03 3c f3 08 b3 3e 6a a5 fd 3c 1f c4 09 3e
       0.008021192 0.34967765 0.030962665 0.1345372
000300 c0 25 77 be fb 5c 90 3e a1 c6 0c 3e 61 6a 9a bc
       -0.24135494 0.28195938 0.13747646 -0.018849554
000310 da 9f 13 be d1 6c 82 bd 03 97 09 3e b1 3b a2 bb
       -0.14416447 -0.06368411 0.13436513 -0.0049509634
000320 b1 b2 1a bd 33 2d 88 3e df fe 86 be 27 08 89 be
       -0.03776807 0.26596984 -0.26366326 -0.26764032
000330 b8 4e 56 3e 6e 32 90 be 5d fe ea bd 94 9e 92 be
       0.20928466 -0.28163475 -0.11474297 -0.2863661
000340 b9 2a 82 be 08 16 ce bd 96 3a 34 3e df 00 ed bb
       -0.2542322 -0.10062796 0.17600474 -0.00723277
000350 f5 9c d3 3d 10 29 83 be 94 ac 35 3e c4 91 8e 3e
       0.103326716 -0.25617266 0.17741615 0.27845585
000360 64 41 72 3e 3b 44 eb bd 87 0e 50 bd cc fc 01 be
       0.23657757 -0.11487623 -0.050795104 -0.1269409
000370 11 25 22 3c fd 70 3c bd be 64 cc 3e 6d f2 ec bd
       0.009896533 -0.04600619 0.3992061 -0.115696765
000380 80 e5 76 3e 05 b3 e7 be da e1 3b be a6 1b 05 3d
       0.24110985 -0.4525377 -0.18347874 0.03249707
000390 96 f1 41 3e 4d 03 4b 3e ab 3d 86 3e ae fc ca bd
       0.18939814 0.19825478 0.26218924 -0.09911476
0003a0 0a fa 81 3e cc 91 47 be cd ca 45 be cc aa 55 3e
       0.25386077 -0.19489211 -0.19315644 0.20865935
0003b0 38 95 a7 3d da 87 f3 3d 10 7a bc bd 9e 91 95 bd
       0.08182758 0.11891146 -0.09202969 -0.07303165
0003c0 4f 46 47 3e c8 d8 da be da 69 a2 3c a7 0d dd bd
       0.19460414 -0.42743516 0.019825865 -0.107936196
0003d0 5c b5 53 3e ae 3e 87 3c 36 ea 36 3f f5 65 87 bd
       0.20674652 0.01650938 0.7145113 -0.06611244
0003e0 23 a3 1f be 36 93 c0 be df 01 85 3e 62 4f 7d bd
       -0.15589575 -0.37612313 0.2597799 -0.061843283
0003f0 8c 4f 27 be d5 54 6e 3e 83 40 e6 3e 44 38 ef 3e
       -0.16338938 0.23274548 0.44971094 0.46722615

bias f4 [64]
000000 c7 bd 05 be 34 7f 37 be 5b 87 4d be c1 a8 ea bd
       -0.13060676 -0.17919618 -0.20071165 -0.114579685
000010 5f cc 82 3e f3 99 0c 3d 68 a7 0b bd 57 e0 1d 3e
       0.25546548 0.034326505 -0.034095198 0.1541761
000020 9e dc 18 3e ac 4c ed bc ea 77 05 be 4f 7e b3 3d
       0.14927909 -0.028967224 -0.13034025 0.08764326
000030 9f 49 4c be 7c cd 2f 3e 72 32 66 be 4e e6 25 3e
       -0.19949959 0.1716823 -0.22480181 0.16201136
000040 e1 03 e2 bc 12 58 6c be 2b 7d 16 3e 06 f7 79 be
       -0.02758974 -0.23080471 0.14696185 -0.24410638
000050 e5 c0 37 3e 28 0e dc 3d 61 f2 9d bd fe 36 95 3d
       0.17944677 0.107448876 -0.07712246 0.072858796
000060 93 94 e1 bd c6 d3 68 be 86 36 7c be 2d 92 df bc
       -0.110146664 -0.22737035 -0.24630174 -0.027291382
000070 b4 83 d4 bd 02 69 e8 bd a9 81 63 3a bf 36 97 3e
       -0.10376683 -0.11348154 0.00086786837 0.29533955
000080 96 5c f5 bd 4b 64 20 be 2b d2 9b 3d 06 74 21 bc
       -0.1198055 -0.15663259 0.07608446 -0.009854322
000090 6a 9d 09 3e f0 83 f6 bd 85 bc ad bd 7f 92 8a 3d
       0.13438955 -0.12036884 -0.08483223 0.06766223
0000a0 09 de 30 3e 6d 8e e6 3d 43 80 6b 3e 38 c3 59 be
       0.172722 0.11257634 0.22998147 -0.21265876
0000b0 e5 42 3b 3e 59 6c a3 3d 6b ce 65 3d 49 2a ab 3c
       0.18287237 0.0797965 0.05610506 0.020894187
0000c0 fe 6f 93 be a7 62 53 be 5f 06 87 be f7 c2 dd bb
       -0.2879638 -0.20643102 -0.26372048 -0.0067676264
0000d0 2d 9d db bd 02 f2 89 bd fc dd f2 bc 18 f0 4c 3e
       -0.10723338 -0.067356125 -0.029646866 0.20013463
0000e0 fa 59 d1 3d 8c cf 22 3e b2 bb 8d bb 39 ce 86 be
       0.1022224 0.15899485 -0.0043253535 -0.2632921
0000f0 7a 33 a9 3d 85 45 9e 3e ef c7 8c bb 95 83 83 3e
       0.082617715 0.30912414 -0.004296295 0.25686327

weight f4 [64, 64]
000000 b3 db d6 bd 17 85 9f bd 5c 58 20 3d ff 1c 6a 3b
       -0.10491123 -0.07789057 0.039146766 0.003572285
000010 d4 e0 58 bd 12 93 c6 3d e5 ea 20 be 57 d9 a8 3d
       -0.052948788 0.0969602 -0.15714605 0.08244579
000020 b8 48 27 bd d3 89 8e 3c ca cf 8a 3d 63 2b 07 bd
       -0.040840834 0.017399704 0.06777914 -0.03300036
000030 cf 4f 7e bd 62 87 00 bd 4a b9 55 bd 82 bc ed 3d
       -0.06208783 -0.03137911 -0.05217866 0.11608221
000040 19 51 b9 bd ec 90 fe bd 98 56 b7 bd f8 f0 3e 3c
       -0.09048671 -0.124299854 -0.08952063 0.011654131
000050 93 8e 21 3b 93 50 6c bd 20 e5 8a bd ba 54 a4 bd
       0.0024651631 -0.05769403 -0.067819834 -0.08023973
000060 41 e3 f0 3c 32 1e a6 bc 8a 61 d2 3b cc b1 8d bb
       0.029405238 -0.02027807 0.006420319 -0.0043241736
000070 51 da ce 3d 00 32 1c 3e 22 1f ed 3c 4b 59 6c 3c
       0.10100234 0.15253448 0.02894551 0.014425586
000080 4a c9 d1 bd 40 c1 08 be 1f a4 73 bc 9e 13 47 bd
       -0.10243471 -0.13354969 -0.0148706725 -0.048602693
000090 79 54 fd 3d 09 1b 93 3d b1 1a 95 3c 09 63 2e 3c
       0.123696275 0.07182891 0.018201204 0.010643729
0000a0 26 b7 68 3c 0e 97 88 3c 76 cb ed 3d dd db 83 3d
       0.014203822 0.016673591 0.11611073 0.0643842
0000b0 fc 48 e2 3d d1 23 ca bd 0e ad 4e 3d 83 86 b8 bd
       0.11049077 -0.09870113 0.050458007 -0.09010031
0000c0 ec 60 1a 3e 9d 52 2c 3e bc ec a0 bd aa 10 82 3d
       0.15076035 0.1682839 -0.078576535 0.06350835
0000d0 86 1b 59 3d 90 27 c2 ba 96 e6 9f 3c e9 c7 f6 3d
       0.053004764 -0.0014812816 0.019519132 0.120498486
0000e0 b8 0f 42 bd 01 9c b2 3d ce 44 2c 3d e1 5f a3 3d
       -0.04737827 0.08721162 0.042057805 0.07977272
0000f0 de ea 1d 3d fb cf a1 3d 88 38 2b 3d d6 e4 df bd
       0.038554065 0.07900997 0.04180196 -0.10932319
000100 d0 b0 3d bd cc 47 8a 3d f9 88 ee 3c fe 3a cf 3b
       -0.0463112 0.067519754 0.029118048 0.006324171
000110 ae ec be bd 0c 35 8e 3c d7 cc 10 3d c2 d5 ff bd
       -0.09322487 0.01735928 0.0353516 -0.12491943
000120 47 00 99 3c 9f d7 13 3d 4f d6 8c 3d 42 d0 e6 bd
       0.01867689 0.036094304 0.068768136 -0.11270191
000130 48 60 2c 3c 7b 14 b3 bd 94 36 3e be 65 b7 fa 3b
       0.010521002 -0.08744141 -0.18575507 0.007651257
000140 43 15 39 be 8a 06 07 bb 2d 18 b1 b9 21 07 d1 bd
       -0.18074517 -0.0020603263 -0.00033778083 -0.10206438
000150 cc 96 06 3d 74 97 d6 bd 55 b5 7d 3d 10 ea e9 3c
       0.032858655 -0.10478106 0.06194051 0.028553993
000160 fe 2a c4 3c 13 0a 23 bd ef 11 13 bd 93 1e 8d 3d
       0.023946282 -0.03980453 -0.035905775 0.06890597
000170 ad ad ae bc 8b 3b 12 3e 26 23 a5 bc 05 88 c7 3d
       -0.02132305 0.14280526 -0.020158362 0.097427405
000180 c0 1d f2 3c ea f5 0e 3e 9b 2b cf bd 0b 34 c4 3c
       0.029555202 0.13960996 -0.10115739 0.023950597
000190 d5 76 e8 3c bd e8 6c 3c 57 31 ba 3d f4 f5 9e bc
       0.028376976 0.014459786 0.09091442 -0.019404389
0001a0 8b 4c ae 3d 79 95 eb bd 00 26 9d bd 2a 20 52 bd
       0.08510693 -0.11503119 -0.076732635 -0.051300205
0001b0 1f 49 dd bd 12 45 a5 3d 94 2c db bd 22 26 0b 3c
       -0.10804962 0.08069815 -0.10701862 0.008492978
0001c0 a6 08 00 3e 7b be 97 3d 0c c8 97 bd b3 e4 91 3d
       0.12503299 0.07409378 -0.07411203 0.07123699
0001d0 e5 fa 0a bd 10 af fa 3d 1e 57 04 be 9c 33 5c 3d
       -0.033930678 0.12240422 -0.12923858 0.053760156
0001e0 e2 b9 36 3d da ba ef 3a f5 8c 9e 3d 7e a3 e8 3d
       0.044610865 0.0018289939 0.07741729 0.11359309
0001f0 37 2c 4b bd 67 c3 ab 3b f0 df 10 3e a9 93 3c bd
       -0.049602713 0.0052417996 0.14147925 -0.046039257
000200 ba ba 08 3d 4a c2 67 bd 89 ec 77 3d 9f da ec bc
       0.0333812 -0.056581773 0.060528312 -0.02891284
000210 c6 1a a0 bd 9f 87 e8 3c 7e 40 16 be 5b 20 f3 bb
       -0.07817607 0.028384982 -0.1467304 -0.0074196286
000220 34 54 17 bd 8e 3f 64 3d 83 67 5b 3b 38 dc 16 be
       -0.036945537 0.055724673 0.0033478446 -0.14732444
000230 e5 08 33 3c 3e 3c 17 bd 47 cb c2 3d 70 b0 c8 3d
       0.010927414 -0.036922686 0.09511428 0.09799278
000240 24 3e 05 be 16 b7 41 3d a8 54 8d bd 98 57 41 3d
       -0.13011986 0.047293745 -0.069009125 0.047202677
000250 14 29 9e bc 62 ac d8 bc 32 b8 c4 3d fa b2 a6 bd
       -0.019306697 -0.026449386 0.09605445 -0.08139606
000260 3e d8 04 3e 79 9b 07 3d 68 0c ab 3d d0 b6 2c bd
       0.12973115 0.033107255 0.08351976 -0.04216653
000270 6b 52 22 3d 5f 19 c7 b9 3d 81 07 3e 59 5d 8d 3d
       0.03962938 -0.0003797514 0.13232894 0.0690257
000280 56 4a e0 bd 19 1f 14 3e 46 6e d7 bd bc c3 66 3d
       -0.109516785 0.14464988 -0.1051908 0.05633901
000290 a3 24 be bd 6b 4f 01 be d8 df 0b 3e 47 65 8e 3d
       -0.09284332 -0.12627952 0.13659608 0.06952911
0002a0 f7 53 05 be d3 e1 f0 3d be d2 8c 3d f9 cf 4a b8
       -0.13020311 0.117618226 0.068761334 -4.8354243e-05
0002b0 f8 07 30 3d 1b 54 80 3c 11 d9 1a 3b be 78 8b bd
       0.04297635 0.015665105 0.0023627917 -0.06810139
0002c0 50 09 a4 bd 44 3f 3a bd dd dc 10 3b 55 86 5d 3d
       -0.08009589 -0.04547049 0.00221043 0.054083187
0002d0 bf 95 06 be bd 8b 5c 3d d9 d8 fd 3c 94 bc c4 3d
       -0.13143061 0.053844202 0.03098719 0.09606281
0002e0 92 36 63 bd e2 51 9e 3d 45 79 77 bc eb 55 20 bd
       -0.055471964 0.07730462 -0.0151045965 -0.039144438
0002f0 e1 78 8b bd d9 e7 a2 3c 0f f8 b1 3d ff a4 3f bd
       -0.06810165 0.019885944 0.086898915 -0.046788212
000300 15 24 35 bd 28 4b ed bd 9f a4 18 3e 6e 24 e6 bd
       -0.044223864 -0.115866005 0.14906548 -0.11237417
000310 57 5b 2b be 9a 2a 26 3e 9c cf d4 3d 85 53 67 3d
       -0.16734062 0.16227189 0.10391161 0.056476135
000320 34 6b bf bd c3 78 36 3d cf 7f e7 bb b0 fe 9c 3c
       -0.09346619 0.04454876 -0.0070647965 0.019164413
000330 16 c9 ba 3b 6c f1 d7 3a ca d8 98 3d bc fa 87 bd
       0.005700241 0.0016475148 0.07463224 -0.06639621
000340 4a 46 ac bd 0a 04 7d bd 50 0a 28 bc ce cc bd 3d
       -0.08411844 -0.06177143 -0.010256365 0.09267579
000350 93 bd 0f 3e d8 7a 3b 3d d4 55 23 be 06 58 4a bd
       0.1403716 0.04577145 -0.1595071 -0.049400352
000360 6b 3c 2f bb e6 c3 6e 3d 99 be d1 3d 9d 51 d4 3d
       -0.0026738893 0.058292292 0.10241432 0.10367129
000370 f1 55 46 bd 9e 84 32 bd eb f5 27 3c e7 3c bd bc
       -0.048421804 -0.043583505 0.0102515025 -0.02310033
000380 1e ef db 3d d8 30 73 bd 11 ac 6a 3d bb 49 82 3c
       0.10738967 -0.059372753 0.057293 0.015904298
000390 91 a8 24 3d a1 9c 0c 3d f3 45 ad 3b 37 77 6a 3d
       0.04019982 0.03432906 0.0052878796 0.0572426
0003a0 db 69 9d bc 65 fe b3 bb 61 80 91 bc 04 a0 f3 bb
       -0.019215515 -0.0054929727 -0.017761411 -0.007434847
0003b0 a3 47 f4 bd 36 1a 7c 3d c4 63 44 bd 38 5a 0e 3c
       -0.11927726 0.061548434 -0.047946706 0.008688502
0003c0 42 f2 e2 3d e6 f1 b3 3d 90 07 a9 3d a0 29 93 3c
       0.11081363 0.08786373 0.082533956 0.017964184
0003d0 b3 99 ce 3c 6f d8 c6 3d 2d 57 15 bd 22 00 72 bd
       0.025219774 0.0970925 -0.03646009 -0.059082158
0003e0 34 31 1c 3e d5 38 22 bc 90 d7 5c 3d b7 7e 42 bc
       0.15253145 -0.009901245 0.053916514 -0.0118710315
0003f0 78 80 48 3d 13 b0 fa 3d 85 cd 9b bd 8d 89 45 3d
       0.048950642 0.12240615 -0.07607559 0.04822688

bias f4 [64]
000000 38 3b fd 3d ac eb 22 bc 41 96 d7 3b 34 ae e3 3d
       0.12364811 -0.009943884 0.006579191 0.11117211
000010 90 76 dd 3c b1 a6 9e bd 3a df 51 3d f6 28 03 be
       0.027034074 -0.077466376 0.051238276 -0.12808594
000020 de f9 08 be 02 8b 19 3d 08 6d 45 bd 74 b8 01 be
       -0.13376567 0.037486084 -0.048199683 -0.1266802
000030 0e 95 e5 3b 35 6c ed bd f7 fd 40 3d c2 ff 72 3b
       0.007006294 -0.115929045 0.0471172 0.0037078713
000040 47 aa f8 bc ac 63 34 3d 06 33 e9 bd 8b 3c 07 bd
       -0.030354632 0.044040367 -0.11386685 -0.033016723
000050 b3 60 d0 3d d6 3f 22 3e 3c 55 0e bd 79 28 b0 bd
       0.10174694 0.15844664 -0.034749255 -0.086014695
000060 ba 8c 89 bd 2a cb 3f bd a2 73 2e 3e 5c 46 63 3d
       -0.067162946 -0.04682461 0.17036298 0.05548702
000070 60 24 30 bc 3d d4 95 ba 09 5f 10 3d a8 c7 97 3d
       -0.01075086 -0.001143105 0.035246883 0.07411128
000080 cb 53 b2 bd c8 5a ed bc 17 04 1a be 3f 8c 53 3c
       -0.087073885 -0.028973952 -0.15040623 0.012911855
000090 55 a0 a4 3d 83 97 f2 bd 90 49 ac bd 7c 23 85 bd
       0.080383934 -0.11845305 -0.084124684 -0.06500909
0000a0 e2 f3 92 3d d6 c8 52 bc 9e 0e 8d 3d 18 06 de bd
       0.07175423 -0.012865266 0.06887554 -0.10841006
0000b0 58 07 b8 3b 9d 92 66 3c 11 ea be bd 5c 8a a6 bd
       0.00561611 0.014073041 -0.093219884 -0.08131859
0000c0 bb 82 04 3c 78 8f 1e 3e 7d d5 ed bd d2 97 bd bd
       0.008087809 0.15484416 -0.11612985 -0.09257473
0000d0 c2 07 0a 3d 7e dd ac bd 00 7a 9a 3d 8c 57 81 3d
       0.033698805 -0.08440684 0.07542801 0.06315526
0000e0 3b 7b 94 bd 1d 29 64 3d 9e f4 d5 bd bd dd 8e bd
       -0.07250067 0.05570327 -0.10447048 -0.06975887
0000f0 c3 6a 8a bd e7 de ea 3d c4 63 cf 3d 19 92 5f bd
       -0.067586444 0.114682965 0.10126451 -0.05458269

weight f4 [1, 64]
000000 e8 bf 01 3d 55 1c a8 bd ee 3b 1c bc 7a e7 c4 3d
       0.031677157 -0.08208529 -0.009535773 0.09614463
000010 87 96 31 bc d7 35 58 bd 15 79 dd bc 5c db 8b 3d
       -0.010839111 -0.05278572 -0.027035275 0.06828949
000020 99 e4 b9 3d 30 a3 9e 3d c6 89 c5 3d d2 f9 0c bd
       0.09076805 0.07745969 0.09645419 -0.034417935
000030 e4 fa 3d 3d 9b 98 6a 3c a7 2e 89 3c c8 d4 8c 3c
       0.046381846 0.014318611 0.016745878 0.017191306
000040 7b e3 2a bd 78 73 c7 3c 59 37 5c 3c e6 b0 b5 3d
       -0.04172085 0.024347052 0.01344093 0.08871631
000050 91 32 a2 3d 62 b0 bf bd ab 11 bf bd ab 4f 46 3c
       0.07919801 -0.09359814 -0.09329542 0.012103955
000060 9c 5e 10 bd 36 37 94 bd 56 89 51 bd ae ca 56 3d
       -0.035246477 -0.07237093 -0.051156364 0.052439384
000070 2e 70 36 3d 24 06 55 3d 8b 7e b6 bd 3d ac a7 3c
       0.044540577 0.05200781 -0.08910855 0.020467872
000080 33 85 c0 bc 48 e2 cf 3d a3 2c 94 3d b4 b0 95 bb
       -0.023501014 0.101505816 0.07235076 -0.004568184
000090 ad 79 09 bd 68 25 e6 bc 05 58 2b 3d bb 77 bb bd
       -0.033563305 -0.028094009 0.04183199 -0.09153696
0000a0 e9 00 9c bd 1c f5 b2 bc a3 6d 78 bd 6b b4 1f 3d
       -0.07617361 -0.021845393 -0.060651433 0.03899042
0000b0 73 b8 ba 3c f8 e1 63 bd f6 8a 80 bd 97 a6 9f bd
       0.02279303 -0.055635422 -0.06276505 -0.07795446
0000c0 b9 58 8b 3d 15 36 63 bc b4 dd 91 bd a7 66 7b 3d
       0.06804032 -0.013867875 -0.07122365 0.061377194
0000d0 9f b8 d7 bc 5a c2 4d 3d 0c 0b 4d 3d ad 74 af bb
       -0.026333151 0.050234176 0.050059363 -0.005354485
0000e0 b9 fb 3e 3d ef b2 df bc f2 38 98 3d dd c2 49 3c
       0.04662678 -0.027307002 0.074327365 0.012314525
0000f0 5c fb 5e bd 76 72 a1 bd 6a e8 f0 3c 5e 64 22 bd
       -0.054438934 -0.0788316 0.029407699 -0.0396465

weight f4 [64]
000000 c2 57 84 3f 00 00 80 3f 9b a3 89 3f 00 00 80 3f
       1.0339282 1.0 1.0753053 1.0
000010 bf b9 81 3f 3b b6 8b 3f 00 00 80 3f ee 96 7b 3f
       1.013481 1.0914987 1.0 0.98277175
000020 48 89 7b 3f a9 dd 80 3f 00 00 80 3f ec b5 83 3f
       0.9825635 1.0067645 1.0 1.0289893
000030 00 00 80 3f b0 c7 7f 3f cf 8f 90 3f c3 bc 7e 3f
       1.0 0.99914074 1.1293887 0.9950678
000040 00 00 80 3f 00 00 80 3f 56 aa 77 3f 00 00 80 3f
       1.0 1.0 0.96744287 1.0
000050 a3 22 7f 3f 62 af 7f 3f c8 96 78 3f c7 38 78 3f
       0.99662226 0.9987699 0.97105074 0.96961635
000060 00 00 80 3f 00 00 80 3f 00 00 80 3f 00 00 80 3f
       1.0 1.0 1.0 1.0
000070 55 48 7e 3f 00 00 80 3f b0 42 80 3f e0 18 80 3f
       0.9932912 1.0 1.0020351 1.0007591
000080 00 00 80 3f 00 00 80 3f f0 02 7a 3f 15 eb 7d 3f
       1.0 1.0 0.9766073 0.9918683
000090 d5 cd 7e 3f 00 00 80 3f 00 00 80 3f db 79 81 3f
       0.99532825 1.0 1.0 1.0115312
0000a0 76 45 7b 3f b3 a2 77 3f ca 9f 7d 3f 00 00 80 3f
       0.98152864 0.96732634 0.99071944 1.0
0000b0 4c 05 79 3f 4d 63 7f 3f f9 9d 79 3f 88 b5 82 3f
       0.9727371 0.99760896 0.9750667 1.0211649
0000c0 00 00 80 3f 00 00 80 3f 00 00 80 3f 2e af 80 3f
       1.0 1.0 1.0 1.0053461
0000d0 00 00 80 3f 00 00 80 3f 45 cb 80 3f de e4 80 3f
       1.0 1.0 1.0062033 1.0069845
0000e0 a5 70 82 3f 92 0d 7e 3f e2 e8 7f 3f 00 00 80 3f
       1.0190626 0.99239457 0.99964726 1.0
0000f0 92 62 7d 3f 85 5c 7f 3f 00 00 80 3f 51 be 7e 3f
       0.9897853 0.9975055 1.0 0.9950915

bias f4 [64]
000000 56 77 b1 3c 96 87 01 bc 60 8d d2 bc 67 31 bc bb
       0.02166335 -0.007905861 -0.025702178 -0.005743194
000010 d9 51 a9 3c 6a 98 5d 3c d3 f7 55 bd 77 33 47 3c
       0.02066891 0.013525108 -0.052238297 0.012158266
000020 74 e7 b5 bc 7f 1e 72 bc ba bb 32 bc 3a 46 8b 3d
       -0.022205092 -0.014777779 -0.010909015 0.06800504
000030 e0 37 98 bc 4d 1d ed 3c 5c d6 bb bb 28 b9 12 bc
       -0.01858133 0.028944636 -0.0057323407 -0.0089552775
000040 c5 d9 89 3c 80 b8 27 bd d1 75 e1 bb 80 ab 8e 3c
       0.016827473 -0.040947437 -0.0068805 0.017415762
000050 53 75 86 bc aa e1 31 3c 15 50 92 bc 0a 17 00 3c
       -0.016413366 0.010857025 -0.017860452 0.007817993
000060 a3 7d 77 3b 03 2c 93 3b 02 07 27 3d d9 db 57 bd
       0.0037764094 0.0044913306 0.040778168 -0.052699897
000070 18 95 43 3c fb e6 9d 3c 46 98 85 bb 22 af 95 bc
       0.011937402 0.01927518 -0.0040769903 -0.018271986
000080 87 16 50 3c a9 84 a4 bb 7d 07 ad 3b 41 87 41 3d
       0.012700683 -0.005020697 0.0052804337 0.04724813
000090 02 f5 76 bc 31 03 44 bc 1b de fe bc 89 c4 e1 3c
       -0.015073063 -0.0119636515 -0.031111768 0.027559536
0000a0 b5 63 31 3c fe 88 0c 3c 29 2e 4f bd 00 2d 35 3d
       0.010826995 0.008577583 -0.05058113 0.04423237
0000b0 02 98 6a 3d 02 ec e4 bb a1 d6 92 bc 97 1d 34 3c
       0.057273872 -0.006986142 -0.017924609 0.010993383
0000c0 6c 02 fa 3c 94 c3 e6 3c dc 0f 00 3b e4 63 c1 bc
       0.030518733 0.02816943 0.0019540703 -0.023607202
0000d0 da c6 74 3b 04 76 8f 3d f5 ba ea 3a 43 26 ef 3c
       0.003734997 0.070049316 0.0017908501 0.02919305
0000e0 e1 8f 00 3d 8f e7 f7 3a d0 2f 4c 3d 22 5d 13 3d
       0.031387214 0.0018913614 0.049850285 0.03597749
0000f0 8d a7 06 3b 63 ae 8f 3c f1 68 25 3d 6a 22 48 bc
       0.0020546645 0.017539209 0.040383283 -0.012215236

running_mean f4 [64]
000000 b8 c9 06 3b 00 00 00 00 b3 6c a5 39 00 00 00 00
       0.002056701 0.0 0.0003155224 0.0
000010 ab a8 37 3e ea cc da 38 00 00 00 00 f3 3f 1f 3e
       0.17935435 0.00010433218 0.0 0.15551738
000020 66 29 e6 3d 6c eb b0 3c 00 00 00 00 dc da c2 3d
       0.11238365 0.021596633 0.0 0.095144
000030 00 00 00 00 a4 18 72 3e 61 d7 47 39 64 12 2f 3e
       0.0 0.23642212 0.00019058354 0.17096859
000040 00 00 00 00 00 00 00 00 1b 43 b3 3d 00 00 00 00
       0.0 0.0 0.08753034 0.0
000050 13 1e 87 3e fc 8f 72 3d b3 1b 15 3c ff 30 ec 3d
       0.26390132 0.059219345 0.009100842 0.11532783
000060 00 00 00 00 00 00 00 00 00 00 00 00 00 00 00 00
       0.0 0.0 0.0 0.0
000070 f0 3c 07 3c 00 00 00 00 e9 21 74 3d 18 55 8c 3e
       0.008254275 0.0 0.05960265 0.2740867
000080 00 00 00 00 00 00 00 00 6e a1 4f 3c 83 69 9f 3d
       0.0 0.0 0.012672765 0.07783797
000090 91 c3 4f 3e 00 00 00 00 00 00 00 00 ef 5d 22 3e
       0.20289446 0.0 0.0 0.15856145
0000a0 ac 00 f2 3d e1 7e f0 3d b5 79 a3 3e 00 00 00 00
       0.118165344 0.1174295 0.31928793 0.0
0000b0 2a 07 cd 3d 12 e1 2f 3e 60 57 d9 3c ce 53 69 39
       0.10011132 0.17175701 0.026530921 0.00022251831
0000c0 00 00 00 00 00 00 00 00 00 00 00 00 f2 4a 36 3d
       0.0 0.0 0.0 0.044505067
0000d0 00 00 00 00 00 00 00 00 45 ff 05 3c b8 6d 95 3e
       0.0 0.0 0.008178537 0.2918527
0000e0 00 17 e7 3d 94 94 ae 3d e4 25 62 3d 00 00 00 00
       0.11283684 0.08524433 0.055211917 0.0
0000f0 e3 34 9f 3d e3 eb ad 3e 00 00 00 00 83 80 3a 3e
       0.07773759 0.3396903 0.0 0.18213086

running_var f4 [64]
000000 5e 6e 14 39 04 00 00 00 7a 57 9c 37 04 00 00 00
       0.00014155495 6e-45 1.8637384e-05 6e-45
000010 08 65 28 3a b6 7b a7 35 04 00 00 00 b9 04 77 34
       0.0006423746 1.2478474e-06 6e-45 2.3005386e-07
000020 04 e1 38 39 5d ef 82 39 04 00 00 00 b3 10 07 37
       0.00017631432 0.00024973872 6e-45 8.050515e-06
000030 04 00 00 00 75 c4 e3 39 93 c4 02 37 b3 8e 41 37
       6e-45 0.00043443186 7.794372e-06 1.1536921e-05
000040 04 00 00 00 04 00 00 00 cf a7 c3 39 04 00 00 00
       6e-45 6e-45 0.00037318325 6e-45
000050 8d 75 56 3a a0 09 70 39 ca 33 bd 39 a0 d2 4e 39
       0.00081809686 0.00022891769 0.00036087475 0.00019724155
000060 04 00 00 00 04 00 00 00 04 00 00 00 04 00 00 00
       6e-45 6e-45 6e-45 6e-45
000070 ed 88 ec 39 04 00 00 00 a6 1a ca 39 1c ca 37 38
       0.00045115445 6e-45 0.00038548297 4.381883e-05
000080 04 00 00 00 04 00 00 00 8b 51 29 39 9b 78 54 3a
       6e-45 6e-45 0.00016147473 0.000810513
000090 00 a1 04 3a 04 00 00 00 04 00 00 00 62 2c 6f 3a
       0.0005059391 6e-45 6e-45 0.000912374
0000a0 6c b4 ad 39 de 0c 0b 36 1d 34 6f 3a 04 00 00 00
       0.00033131556 2.0720104e-06 0.0009124892 6e-45
0000b0 3e 93 2e 3a fa 91 7b 3a e4 78 a8 38 f1 d6 a4 35
       0.0006659514 0.00095966423 8.033382e-05 1.2281508e-06
0000c0 04 00 00 00 04 00 00 00 04 00 00 00 39 d6 99 39
       6e-45 6e-45 6e-45 0.00029342042
0000d0 04 00 00 00 04 00 00 00 40 04 f0 38 78 9d 74 3a
       6e-45 6e-45 0.000114448834 0.0009331326
0000e0 60 06 8e 37 9c ed 05 3a d2 58 cf 39 04 00 00 00
       1.6930688e-05 0.0005108954 0.00039548293 6e-45
0000f0 18 23 1d 36 9e 12 e9 38 04 00 00 00 64 01 23 3a
       2.341525e-06 0.000111137735 6e-45 0.0006218164

weight f4 [64]
000000 c4 64 7c 3f ba 96 79 3f b4 e0 71 3f 76 43 7c 3f
       0.98591256 0.97495615 0.94483495 0.9854044
000010 a7 50 6b 3f d2 7f 78 3f da 79 7c 3f ad 4e 7c 3f
       0.9191994 0.9707004 0.9862343 0.9855755
000020 93 ea 7f 3f be 2d 7a 3f f2 1d 7d 3f e3 5b 7b 3f
       0.99967307 0.9772605 0.9887382 0.98187083
000030 68 e8 7f 3f fb b4 7c 3f dc 03 80 3f 31 7c 78 3f
       0.99964 0.98713654 1.0001178 0.970645
000040 3a 26 77 3f 31 8b 7f 3f 62 9a 79 3f bf 98 79 3f
       0.96542704 0.99821764 0.97501194 0.974987
000050 11 cf 79 3f b0 56 81 3f 15 fb 7c 3f 44 ec 7a 3f
       0.97581583 1.010458 0.9882062 0.9801676
000060 35 07 7c 3f 02 b9 74 3f 76 a7 74 3f af 17 74 3f
       0.984485 0.955948 0.95568025 0.9534864
000070 c2 0b 82 3f 77 ef 7b 3f ae 1c 78 3f ca 22 7b 3f
       1.0159838 0.9841227 0.9691876 0.9809996
000080 27 32 71 3f 30 74 7a 3f 14 f6 7b 3f 24 e6 77 3f
       0.9421715 0.9783354 0.9842236 0.9683554
000090 b4 24 7b 3f 73 86 80 3f 89 13 7f 3f 72 c5 78 3f
       0.9810288 1.0041031 0.99639183 0.9717628
0000a0 84 8e 78 3f cb e5 79 3f cd 12 7c 3f e2 22 7c 3f
       0.9709246 0.9761626 0.9846619 0.98490727
0000b0 2b 22 80 3f f1 66 76 3f f5 34 73 3f be 83 79 3f
       1.0010427 0.96250826 0.9500268 0.9746665
0000c0 5c 30 75 3f 8e 66 7c 3f ce 3e 77 3f 35 54 7d 3f
       0.95776916 0.98593986 0.9658021 0.98956615
0000d0 25 1f 80 3f c5 cb 6f 3f 50 69 81 3f 03 b0 6b 3f
       1.0009505 0.936703 1.0110264 0.9206545
0000e0 e4 0e 78 3f 71 6e 76 3f a0 aa 78 3f e3 45 7b 3f
       0.9689772 0.9626227 0.97135353 0.98153514
0000f0 2d 98 79 3f 06 fb 77 3f 03 90 7a 3f 5d 08 75 3f
       0.97497827 0.96867406 0.97875994 0.95715886

bias f4 [64]
000000 b3 3c c9 3b 5d 91 2a bc 12 3b 55 bc 39 b4 71 3b
       0.006141269 -0.010410634 -0.013014572 0.0036881103
000010 f4 bd 88 bb bd ba e4 bc 8a c1 f7 bc 4c f7 a1 3c
       -0.004173035 -0.027921075 -0.030243654 0.01977124
000020 dc bb df 3c 99 5d 1f 3d 20 05 11 3c 70 ce fc bb
       0.027311258 0.03890762 0.00885132 -0.007715039
000030 79 08 49 3c 0c 5f fa 3c 0f dc 2f 3c 18 57 1b bb
       0.012270086 0.0305629 0.010733618 -0.0023703035
000040 00 96 a3 3b 24 1e 31 3c 2b 94 0a 3d 43 91 76 3c
       0.0049922466 0.010810409 0.03383271 0.0150492815
000050 0d 53 a7 bb bb 1e b1 bc 43 6f 1a bc df f3 2f 3d
       -0.005106336 -0.021621099 -0.009425941 0.042957183
000060 ae 99 de bc 1e 62 80 bc d6 7e 9e bb 55 93 2f 3c
       -0.02717289 -0.015671786 -0.0048368974 0.010716279
000070 25 f0 96 3c 25 45 a6 3c ae f8 76 bb e6 9d ee 3c
       0.018425057 0.020296643 -0.0037684846 0.029128026
000080 00 c0 df bb 9f 50 11 3d f2 fc 5c 3c 0c 70 9e bb
       -0.006828308 0.035477277 0.013488041 -0.0048351344
000090 cd a6 f9 bc c1 9f 04 bd 21 70 89 3c 2d 0f ad bc
       -0.030475045 -0.032378916 0.0167771 -0.0211254
0000a0 35 6b 5b bb 05 83 d5 bc a7 d3 fe bc f1 bf 81 3c
       -0.0033480648 -0.026063452 -0.031106783 0.015838595
0000b0 22 1f cc ba 7d 56 84 37 95 6f c0 bc c6 8b 32 bc
       -0.0015573243 1.57759e-05 -0.023490706 -0.010897582
0000c0 e1 7d c3 3c 21 9f 11 b9 91 11 da bc d3 bf a2 3c
       0.023863735 -0.00013887558 -0.026619704 0.01986686
0000d0 2d 01 3a bc 72 8e 28 3c a7 9a af 3b bb a8 9d 3b
       -0.011352819 0.010287868 0.005359012 0.004811374
0000e0 80 05 f2 3c 10 69 93 bc fd 56 2e 3c 25 a9 b0 3c
       0.029543638 -0.017994434 0.010640857 0.02156503
0000f0 ea 40 58 bb 65 4c ce bc 96 f5 c7 3c 5b 76 ce ba
       -0.0032997676 -0.025182912 0.024409097 -0.0015751825

running_mean f4 [64]
000000 b8 b2 79 3e 81 75 0d 3e 78 a2 97 3e c6 02 98 3e
       0.24384582 0.13814355 0.2961614 0.29689616
000010 91 7e 03 3f 74 1b 00 3e 5d c6 38 3e 02 70 1e 3d
       0.51365 0.12510473 0.1804442 0.038681038
000020 b8 ed ff 3d 1a fa d8 3e c4 bc a0 3d cb 77 5c 3d
       0.12496513 0.42378312 0.07848504 0.05382518
000030 53 48 d7 3d 20 15 34 3e 98 20 5d 3e 85 d6 53 3e
       0.105118416 0.17586184 0.21594465 0.20687301
000040 63 2e 05 3f 27 75 8b 3e 91 5d 61 3e 21 4c 86 3e
       0.52023906 0.27237818 0.22008349 0.26229957
000050 54 4c 33 3e 16 2f 6b 3e b6 50 08 3e 17 9c 03 3e
       0.17509586 0.2296718 0.13312039 0.12852512
000060 36 1d 03 3e dd fe 90 3e 8f 54 af 3e 55 eb 55 3e
       0.12804112 0.28319445 0.342442 0.20890553
000070 87 f4 02 3e 0b ca 08 3e e6 2c 05 3f 7f 72 27 3e
       0.12788592 0.13358323 0.52021635 0.1635227
000080 9b ef 07 3d c1 0a 05 3e 60 65 f4 3d 04 91 53 3e
       0.03318749 0.12992384 0.11933398 0.20660788
000090 40 bb 4c 3e 6a 1b 1f 3e 45 b2 92 3d 7e 7c 0c 3e
       0.19993305 0.15537801 0.071629085 0.13719365
0000a0 16 dd 45 3e 97 9a a6 3e 33 87 0a 3f 80 b1 d9 3d
       0.19322619 0.32539818 0.5411255 0.106295586
0000b0 94 a0 7b 3e dd 90 db 3e e2 3b 99 3e 09 f5 8a 3d
       0.24572974 0.4288396 0.299285 0.06785018
0000c0 6a 50 8f 3d b9 17 76 3e 28 d1 1c 3e 6b b5 3b 3e
       0.0699776 0.24032487 0.15314162 0.18330924
0000d0 f2 41 0f 3e 4e 0c 13 3e 88 42 2b 3e 53 b9 83 3e
       0.1399 0.14360163 0.16724598 0.2572733
0000e0 fd 88 22 3e 7e 95 ea 3e 70 9c 0c 3e b5 35 90 3e
       0.1587257 0.45817178 0.13731551 0.28165975
0000f0 1d 00 a7 3e 9d 47 5e 3e 55 18 64 3e 79 56 6f 3e
       0.32617274 0.21707006 0.22274907 0.2337283

running_var f4 [64]
000000 9c d2 fb 3d d9 fd 2c 3d 14 be cc 3e 03 4d 6f 3e
       0.1229603 0.042234275 0.39988768 0.23369221
000010 09 cf 85 3f 1d 68 b1 3d da 27 be 3d 0f 63 95 3c
       1.0453807 0.08662436 0.09284945 0.018235711
000020 4b 7f 93 3d 52 be 0c 3f 14 96 e1 3c 5b 4a 2c 3c
       0.072020136 0.54977906 0.027537383 0.010515775
000030 c9 39 73 3d 0c ee 1a 3e be b5 ab 3d 24 f8 59 3e
       0.05938128 0.1512987 0.08384274 0.21286064
000040 39 7a 7a 3f f0 f3 ac 3d 86 57 fe 3d d1 68 b9 3d
       0.97842747 0.08444965 0.124190375 0.09053195
000050 44 e4 25 3d 94 a3 c2 3b 42 3b f6 3c cc 79 0d 3d
       0.040500894 0.00593991 0.030057553 0.034539983
000060 17 e8 cb 3c 91 c9 31 3e 75 16 1f 3d 97 f9 82 3d
       0.024890942 0.17362048 0.038839776 0.06395262
000070 c1 eb 10 3d 5b ec 66 3c 0f bb 0e 3f c9 4c 13 3d
       0.035381082 0.0140944375 0.5575418 0.0359619
000080 0e f1 5f 3b ee 93 e9 3d 32 d1 29 3e 8d 48 8f 3d
       0.003417078 0.114051685 0.16583708 0.0699626
000090 61 dd c6 3d a2 02 64 3d 35 ea f0 3c 99 9f a6 3d
       0.097101934 0.055666573 0.029408554 0.081359096
0000a0 77 c4 77 3e da 9d 5f 3e 96 10 0c 3f e7 19 76 3d
       0.24196039 0.2183756 0.5471281 0.060083296
0000b0 bb b7 9d 3d 77 0b a3 3e 5b bc 47 3e 70 64 88 3c
       0.077010594 0.31844684 0.19505446 0.016649455
0000c0 9a 96 ab 3c 4f bf 0f 3d 02 c7 57 3d 6f e2 44 3e
       0.020945836 0.035094555 0.052680023 0.19227003
0000d0 e1 75 a7 3d 28 2f e9 3c 52 69 3c 3d f1 f8 6a 3e
       0.081767805 0.028464869 0.04599888 0.22946526
0000e0 73 94 0e 3e 86 84 20 3f 2b 98 14 3d 29 2d 1b 3e
       0.13923816 0.62702215 0.03627793 0.15153946
0000f0 29 94 6f 3e 4d ea 98 3c 57 f5 7e 3e 73 ae 80 3e
       0.23396362 0.01866641 0.24898277 0.25133094
