parameters_DffNetwork_Adam_0.001_350.pth (torch, 10519 bytes, 5 tensors)

weight f4 [36, 12]
000000 6a 8b 5a be 08 c4 b4 3d 7b e2 b0 be 11 6d e7 be
       -0.21342245 0.088264525 -0.3454779 -0.452004
000010 b2 20 69 be 14 39 8c 3d 1b ca 70 bb 40 7d 2f 3e
       -0.22766379 0.06846824 -0.0036741558 0.17137623
000020 38 07 0e 3e fe 11 02 bf 19 c3 02 3e 40 df c1 3d
       0.13869941 -0.50808704 0.12769736 0.0946641
000030 b9 cc 1f 3e ba cb 22 3d 82 44 cb 3d e1 3b 39 bf
       0.15605439 0.03974507 0.09925176 -0.7235699
000040 d7 d2 48 3e 24 03 5a 3d 15 92 72 bd f9 45 41 3c
       0.19611679 0.05322565 -0.059221346 0.011796468
000050 e5 d8 5c 3e d8 2c e9 be e9 4f d0 3d 9c ce 87 be
       0.21567114 -0.45542026 0.10171492 -0.26524818
000060 c1 2f 82 be c0 7a 09 3e a7 f1 8c 3e e7 d0 f1 3d
       -0.25427058 0.13425732 0.27528116 0.11807423
000070 2f 00 cf bd ed 33 6f be b1 8f 50 be 82 7a 4e be
       -0.10107457 -0.23359652 -0.20367314 -0.2016392
000080 20 50 87 be 5d e6 67 3d 6c da 05 be dc 5d 8e be
       -0.26428318 0.056616176 -0.13071603 -0.27805984
000090 f5 e2 d7 3c 93 6c 2f 3e 73 ca 51 3e b8 61 43 bf
       0.026353339 0.17131262 0.20487384 -0.7632098
0000a0 fc 8e 0d be ac 99 22 3e e1 40 8b 3d ba 0b b7 bb
       -0.13824075 0.15878934 0.06799484 -0.0055861147
0000b0 cc be ad bd 62 68 8a be 5b 04 03 3e 23 50 0c 3e
       -0.08483657 -0.27032763 0.1279463 0.13702445
0000c0 6d 6e 92 3e 8a 57 fb 3d fc 7e 40 be 4c 16 7b 3e
       0.28599873 0.12272556 -0.1879844 0.24520224
0000d0 2e b1 61 3e 97 6d ca 3d 62 b4 12 3d 09 2c a7 bd
       0.22040245 0.09884184 0.035816558 -0.08162696
0000e0 cf 81 43 bd 14 ba 24 be 08 bd 1d bd 58 a3 64 be
       -0.047731217 -0.16086608 -0.038510352 -0.22327936
0000f0 39 e2 7a 3e 09 f4 86 be 1f f0 2d be c6 c9 5d bf
       0.2450036 -0.2635806 -0.1698613 -0.86636007
000100 11 9a 0a be cf f9 08 be 51 25 53 be 24 1f bf bd
       -0.13535334 -0.13376544 -0.20619704 -0.093321115
000110 bb c6 ab bc 1e 01 10 bf 83 91 91 3e e5 da 71 be
       -0.020968786 -0.56251705 0.2843133 -0.23618658
000120 64 e4 40 3e 41 a6 88 3e cd 0b e8 3d f0 05 00 bd
       0.18837124 0.26689342 0.11330376 -0.031255662
000130 95 ef 95 3d 4c 6b 30 3d a4 56 58 be e0 97 36 be
       0.07321087 0.043071076 -0.21126801 -0.17831373
000140 af 0a 10 3e f6 c3 5c 3e ad 7a 06 bc 98 47 e9 3c
       0.14066575 0.21559128 -0.008207959 0.028476521
000150 31 4e 8f be 9a 7b 8c be e9 14 19 bd aa 50 78 be
       -0.27989343 -0.2743805 -0.037373457 -0.24249521
000160 39 38 10 be d9 f7 cb 3c f7 ce 89 3e bf 53 89 be
       -0.14083947 0.024898456 0.26915714 -0.26821706
000170 68 fe 8a be fc a8 25 3e 4a 10 09 be 83 e5 07 be
       -0.27147222 0.16177744 -0.1338512 -0.13271146
000180 0c f9 93 bd 3c 07 38 3e b1 de 1d 3e 7c 0b 99 3e
       -0.07225236 0.1797151 0.15416981 0.29891574
000190 20 6b 38 bd 6a 08 0b 3e e7 21 1c 3d 4f 46 5c be
       -0.045024037 0.13577428 0.03811827 -0.21511196
0001a0 ff 45 8e bd 9a 0e e9 3e dd e0 8a be 83 f0 14 3e
       -0.069469444 0.45518953 -0.27124682 0.14544873
0001b0 c2 e7 80 3e 87 46 1a be cb 1c a3 3e d3 4b 8b 3f
       0.25176817 -0.15065967 0.31857905 1.0882515
0001c0 34 50 0b 3e eb b0 19 bd 72 8d 62 bd b8 f2 c5 3d
       0.13604814 -0.037522238 -0.055310674 0.096654356
0001d0 9e be 8e 3e 99 e6 11 3f 46 c9 ed be b7 01 fd 3c
       0.27879804 0.5699249 -0.46442622 0.030884607
0001e0 dc 9d 55 3d ba dd e4 bd b1 ca 37 3d 55 4d f7 be
       0.0521525 -0.111751035 0.044871036 -0.48301187
0001f0 fc 88 27 3e c2 bb 58 be c3 d0 09 3e 17 ef 11 3e
       0.16360849 -0.21165374 0.13458543 0.14251362
000200 fe d0 ea 3b d5 f8 b1 be 2c 72 e5 bc a9 a4 b2 bd
       0.007166027 -0.34760156 -0.028008543 -0.08722813
000210 2f eb 0f be fd 9e 24 3e 1e 91 b0 3d ed 00 5f be
       -0.14054559 0.16076274 0.08621429 -0.21777697
000220 ef 63 6f 3e ac ad 84 be 6e c1 69 3c 11 32 8e be
       0.23377965 -0.2591375 0.014267309 -0.27772573
000230 c8 6c 1d be 24 1f 85 be 3e 7c f4 3d 27 ec 7a 3e
       -0.15373528 -0.2600032 0.1193776 0.24504147
000240 9d 26 f4 3d b1 6d 75 3e fd ca 83 3e 93 ba 9e be
       0.119214274 0.23967625 0.25740805 -0.3100172
000250 1b d8 50 be 97 71 15 3e 6f 17 95 3e 8e b1 bc 3c
       -0.20394938 0.14594112 0.2911944 0.023033883
000260 43 24 74 3e e6 9c a3 be 01 86 81 3d 08 7a 5b 3e
       0.23841958 -0.31955642 0.06324387 0.2143327
000270 84 7c ff 3c 35 e3 99 3e 9f 17 97 bd 68 0e 85 3f
       0.031187303 0.30056158 -0.07377552 1.0395021
000280 21 42 5d 3d 56 14 e3 bd d0 1c 82 3d 7f f2 6b 3e
       0.054018144 -0.11087863 0.06353152 0.23041724
000290 00 87 21 be 9a 26 56 3f 51 81 1a bf f6 e2 5a be
       -0.15774155 0.8365265 -0.6035357 -0.21375641
0002a0 8e bc d0 3d d6 1c d1 3c db 01 24 3e d5 ec 20 bf
       0.10192214 0.025526445 0.16016333 -0.62861377
0002b0 97 ae b3 bd 1d b7 ce 3c 2e de d5 bd ea ed 12 bd
       -0.08773535 0.0252338 -0.10442768 -0.035871424
0002c0 8d 9b 06 be 14 85 25 bf 1a 3a 81 3e 71 e3 f7 bd
       -0.13145275 -0.64656186 0.2523964 -0.12103928
0002d0 2e 4d 1f bd 3a 5d a6 3e c4 02 34 be 1d 02 21 3f
       -0.038891964 0.32493 -0.1757918 0.6289385
0002e0 bf 48 5f be bf 8d 8d 3e e9 32 60 3e 0f b9 9c be
       -0.21805094 0.27647206 0.2189442 -0.30609939
0002f0 29 bd 87 3e e9 97 c2 3e 6e 33 f9 be e9 1d 04 be
       0.26511505 0.38006523 -0.4867205 -0.12902035
000300 31 0a 47 be 48 ef 13 3d 74 be 29 3e 1d c2 af bd
       -0.19437481 0.03611687 0.16576558 -0.08581946
000310 bd 4f 83 be 76 a3 0e 3d 17 0b d1 3d 11 43 a3 be
       -0.25646773 0.034823857 0.10207193 -0.31887105
000320 be e9 b2 bd 5d da 1e be 16 80 dc 3d 6e c1 00 be
       -0.08735989 -0.15512986 0.10766618 -0.12573788
000330 9a 4b 3f be 24 30 4c 3e 2e c6 e7 3d d1 57 6b be
       -0.18681183 0.19940239 0.11317097 -0.22982718
000340 82 fa 08 3e 4d 7e ce bd 29 ad d8 3d 9f 3d e5 3c
       0.13376811 -0.10082684 0.10579903 0.027983485
000350 05 06 bc 3c f4 aa fe be d3 2b 7f 3d ba 1d 9b 3d
       0.02295209 -0.49739802 0.062297653 0.07574029
000360 34 c8 87 3d 04 65 de 3d aa c2 22 3e 0e 01 8b 3e
       0.066299826 0.10859111 0.15894571 0.27149242
000370 4d be bf 3d 76 02 a0 3d 99 09 6e be eb f7 e4 3c
       0.09362469 0.078129694 -0.23245849 0.027950248
000380 b1 cd 8f bd 8f bf 12 3e 5a d6 58 3e c6 b7 12 3e
       -0.070216544 0.14330886 0.21175519 0.14327917
000390 87 d3 7f 3e 0f ee 70 be 67 65 44 3e fb 4e 57 3e
       0.24983035 -0.23528312 0.19179307 0.21026222
0003a0 00 c6 b9 bd 91 5d 84 3e a6 d0 ee 3d 57 d7 5f be
       -0.09070969 0.25852636 0.1166089 -0.2185949
0003b0 80 06 46 be 76 91 e8 bd 18 17 ff bd fd 20 3b 3e
       -0.19338417 -0.113558695 -0.12455577 0.18274303
0003c0 08 c7 3c 3e 6a 74 80 3e 36 fc 8c be a6 7e a4 3d
       0.184353 0.25088817 -0.27536172 0.08031969
0003d0 19 43 fb bd 79 a6 23 3e be 68 8d 3e b9 54 7a 3e
       -0.12268657 0.15981473 0.27618974 0.24446382
0003e0 db a4 1f 3d 72 96 3f 3e fb ce e3 bd 93 1d ff 3c
       0.038975578 0.18709734 -0.11123463 0.031142032
0003f0 50 b2 9e 3e 7e c9 40 3e 88 d0 55 bd 6b fb 6a bf
       0.30995417 0.18826863 -0.052200824 -0.91789883

bias f4 [36]
000000 c1 db 19 3b 32 31 86 3e c3 0d 91 bd c4 7c db 3d
       0.002347693 0.26209408 -0.07082703 0.107171565
000010 78 81 0a be 99 ab 8f 3e 67 a4 28 be 61 a0 b2 bd
       -0.13525951 0.28060606 -0.16468965 -0.08721996
000020 6a b7 08 3e ac 59 6d 3e 40 be f0 3d 84 e7 6e bc
       0.13351217 0.23178738 0.11755037 -0.014581565
000030 b7 92 7d 3e 19 7a 9a 3e 5a da 90 bd 70 e5 78 3e
       0.24762999 0.30171278 -0.07072897 0.24306273
000040 ce fd 00 bb 7b 1e e8 bb 1c 32 8b be 58 ec 3c 3c
       -0.001968253 -0.0070837117 -0.27186668 0.011530958
000050 ee bd 86 be 68 44 4e 3d 4f 1f 81 3e a4 70 59 be
       -0.2631678 0.050358206 0.252192 -0.21234375
000060 d9 36 56 bc 6e 66 9e bd 47 b7 85 be 54 5a c6 bc
       -0.0130746 -0.07734381 -0.26116392 -0.024212994
000070 df 88 77 3e b5 4b 68 be 12 dd 8e be 69 96 32 be
       0.24173306 -0.2268513 -0.27903038 -0.1744019
000080 4f 25 8b be 55 45 47 be 85 70 a2 bd bc 57 8b be
       -0.27176902 -0.19460042 -0.07931618 -0.27215374

weight f4 [36, 36]
000000 c9 94 4a 3d db 2a 20 bb ef f3 13 3e 60 b6 15 be
       0.0494583 -0.0024439606 0.14448522 -0.14620352
000010 88 22 1c 3e 24 00 96 bd b8 90 ba 3d 4b b5 3b 3d
       0.15247548 -0.073242456 0.09109634 0.04582719
000020 60 c0 25 3e 53 52 8e 3e d1 75 fb 3d 0f 18 55 3d
       0.16186666 0.27797183 0.12278331 0.052024897
000030 3a 1e f1 bd f4 7d c6 3e a5 6d 62 3d df 80 92 3d
       -0.117733434 0.3876797 0.055280346 0.071534865
000040 a7 f4 e1 bd b4 93 85 bd be fb 9b 3d 88 37 a5 3d
       -0.11032992 -0.06522313 0.076163754 0.08067232
000050 58 16 c5 3d e3 1f cc bd 6b 93 62 bd 96 88 f6 bc
       0.09623402 -0.099670194 -0.05531637 -0.030094426
000060 b6 c4 ca bd c4 e5 21 be d6 2e 8c 3d af 9d 21 3d
       -0.09900801 -0.15810305 0.06844871 0.03945702
000070 a3 06 c5 3e 26 10 db 3d 56 69 f4 3c 4b 3b d9 bc
       0.38481626 0.106964394 0.029835384 -0.02651753
000080 1e 70 07 3e e0 5e e6 bd 33 15 97 3d bb c4 06 40
       0.13226363 -0.11248565 0.0737709 2.1057575
000090 58 29 bc 3d 58 ae 13 be 93 6a d1 3d 5b 90 82 bd
       0.09187573 -0.14421976 0.102254055 -0.0637519
0000a0 4b 67 fd 3d d8 7f fd bd 9b 96 fa bd 70 cc 8e bd
       0.12373217 -0.123779 -0.12235757 -0.06972587
0000b0 28 f5 2d 3e 67 5f dc 3e ab 92 d0 3d ab b5 ab 3c
       0.16988051 0.43041536 0.10184225 0.02096065
0000c0 88 ee ab bd 1a 2b 1b 3f 83 ef 91 bd f5 70 a3 3e
       -0.083951056 0.6061264 -0.07125761 0.31922117
0000d0 f2 f1 4d 3d dd 03 0d 3e 76 4d b1 bd ae 68 02 be
       0.050279565 0.13771005 -0.086573526 -0.12735245
0000e0 60 5f d4 3c 76 19 ce bd 6c 15 98 bc 76 aa 1c be
       0.025924385 -0.1006345 -0.018564902 -0.152994
0000f0 d4 37 57 3d 32 97 26 3e e8 99 0c be 56 a1 49 3d
       0.052543476 0.16268614 -0.13730586 0.049226128
000100 a6 4d 0f 3f cb f2 e3 bd db a0 f4 3d 80 9b fa bb
       0.5597786 -0.111302935 0.11944743 -0.0076479316
000110 b6 c1 dd 3d 96 49 15 bc b6 24 e1 3d 90 30 fb 3f
       0.10827963 -0.009111783 0.1099333 1.9624195
000120 9c 5b d2 3c 3d 3f 91 3d 56 64 72 3b 12 ac 4d be
       0.025678448 0.0709214 0.0036986074 -0.20085171
000130 36 d6 3c 3d 60 99 24 be 06 88 d2 3d eb c6 b9 3c
       0.046102725 -0.16074133 0.10279851 0.02267786
000140 ac 29 dc 3d c3 cd b4 3e 62 8a 83 bd f9 ef fa 3c
       0.10750136 0.35313234 -0.06422879 0.030632006
000150 f2 9d 0d be d4 1e 0c 3f ac 56 ea bb 68 a5 a6 3e
       -0.13829783 0.5473454 -0.0071514454 0.3254807
000160 33 72 cd bd 0c 66 77 3d 2b b3 ab 3b 7e d9 23 be
       -0.100315474 0.060400054 0.0052398643 -0.16000935
000170 ee 28 d2 3d 30 e5 05 bd e3 bd 82 bd 1b 87 6a bd
       0.10261713 -0.032689273 -0.06383874 -0.057257753
000180 ce 8b d8 bd 9c 58 25 3e 3c 7c 20 be 47 6f 40 be
       -0.10573541 0.16147083 -0.15672392 -0.18792449
000190 40 e8 eb 3e 16 ec ee bc 0e b2 9a 3d f3 54 86 3d
       0.4607563 -0.029165309 0.075534925 0.065591715
0001a0 80 7b 9e 3c 5b c6 6a 3d f3 69 15 be 1f 3b fd 3f
       0.019345999 0.057318073 -0.14591198 1.9783667
0001b0 23 37 84 bd 0b 47 90 bc 4b 89 33 bd fd 36 e3 3b
       -0.06455829 -0.017612 -0.043832105 0.0069340453
0001c0 80 01 31 bc 14 e7 25 bd 13 56 f4 3d a0 08 50 bd
       -0.01080358 -0.040503576 0.1193048 -0.050789475
0001d0 c7 6f 48 bc ed ab 90 3e f8 f5 15 be 33 1e e0 bc
       -0.012233681 0.2825617 -0.14644611 -0.02735815
0001e0 3b 3e 9f 3d 9f 7d da 3e 3f a0 d7 3c 90 d1 7d 3e
       0.077755414 0.42673966 0.026321528 0.24786973
0001f0 b8 93 cb 3d 5e 1c 2e be 06 da a4 3d d6 7c 6e 3d
       0.099402845 -0.17003009 0.08049397 0.05822452
000200 da ca 24 3e 81 03 c7 bd c1 53 83 3d 5e 0b 81 3d
       0.16093007 -0.09717465 0.06412459 0.06300996
000210 f4 bb b2 3c 52 e5 09 3e cb e9 bf bc 90 ce 1f bd
       0.021818139 0.13466385 -0.02342691 -0.039015353
000220 dd f6 16 3f 92 80 1f be 1e db 8e bd 00 3c 88 ba
       0.58970433 -0.1557639 -0.06975387 -0.0010393858
000230 b6 92 ef 3c c6 24 5d 3d 9e 19 84 bd a1 30 07 40
       0.029244762 0.053990148 -0.064501986 2.112343
000240 76 3d 04 be 9d e0 fe 3d 93 de 89 bd 9d 07 5f 3d
       -0.1291407 0.12445185 -0.06731906 0.05445062
000250 74 44 0b 3e 9d b8 27 3e 56 96 02 bc 00 86 11 be
       0.13600332 0.16379018 -0.007970413 -0.14211273
000260 68 94 ff 3c 81 36 8e be 00 cf 40 ba 70 bd f7 bd
       0.031198695 -0.27775958 -0.0007355064 -0.12096679
000270 bd 4b dc bd 56 1d ed be d3 56 39 3c cb 21 95 be
       -0.107566334 -0.46311444 0.011312204 -0.29127344
000280 83 b4 da 3d 0e d7 9d 3d 54 8d 1a 3e f8 72 0c be
       0.10678961 0.07707034 0.15092975 -0.13715732
000290 f0 ab f4 bd aa 52 3d 3e 55 d1 2f be be 05 a8 bd
       -0.11946857 0.18488565 -0.17169698 -0.0820422
0002a0 f2 17 82 bd bb 93 dc bd 36 da a4 bd 04 ba e3 3d
       -0.063522235 -0.10770365 -0.08049433 0.11119464
0002b0 53 8c 16 bf 22 c2 27 3e f8 3b 8a bd 16 c4 81 bc
       -0.5880787 0.1638265 -0.067497194 -0.015840571
0002c0 c3 20 db 3d c0 85 6b 3c 70 2e 76 bd 52 94 0a c0
       0.10699608 0.01437515 -0.06010288 -2.1653028
0002d0 ec 6d 0c be ef 62 d5 bd 1e 28 92 3d 25 e9 44 bc
       -0.13713807 -0.10419261 0.07136558 -0.012018477
0002e0 40 25 1b 3d fd 5d 0b be 0b 55 e7 3d 76 e8 d0 bd
       0.03787732 -0.13610072 0.112955175 -0.102005884
0002f0 0e 2a e1 be 90 9a 0a bf 12 eb f2 bd b6 38 37 be
       -0.43977398 -0.54142094 -0.11861242 -0.17892727
000300 54 69 69 bd da 75 59 bf 3a b4 68 bc 61 3e a1 be
       -0.056985214 -0.8494545 -0.014203126 -0.31492904
000310 5a 7a f0 bd 1e 74 0d be b8 36 f6 3d 1e 45 f1 3d
       -0.11742087 -0.13813826 0.120221555 0.11780761
000320 ab 7c 05 be 12 6f b5 bd 5f b4 4e be c0 34 ea 3c
       -0.13035838 -0.088590756 -0.20185994 0.028589606
000330 84 b6 26 3d 2f 8c 27 3e 48 2e b4 bd e5 88 b6 3d
       0.040701404 0.1636207 -0.0879789 0.08912829
000340 94 a7 6c bf 40 7e fc bd b6 7d 01 3d 00 8d 7c 3c
       -0.92443204 -0.12328768 0.031614028 0.015414476
000350 14 25 0a be 36 76 92 3c 9b fe 95 3d b4 e6 1f c0
       -0.13490707 0.017878633 0.07323953 -2.498456
000360 0e 3d 42 bd 1b d4 f2 bd 56 d2 3b bd 11 3d c1 3c
       -0.047421508 -0.11856862 -0.04585489 0.023588689
000370 20 0a 08 bd 72 a2 19 bd 16 b2 7d 3c 86 56 04 bd
       -0.03321278 -0.037508436 0.0154843535 -0.032309078
000380 ef 99 16 be ea 08 bc be a0 85 e5 bc 90 12 0c 3e
       -0.14707159 -0.3672555 -0.028017819 0.13678956
000390 9b 71 12 3e 54 6c e6 be c7 34 4d 3e b3 44 54 bd
       0.1430115 -0.45004523 0.20039664 -0.05182333
0003a0 9c b1 01 bc 18 bd 5b 3c 2c 4a 29 3e a0 9a 26 3e
       -0.0079158805 0.013411783 0.165322 0.16269922
0003b0 73 13 04 be aa fb a6 3d 28 0e 86 3c eb 85 28 3e
       -0.12898044 0.0815347 0.016364172 0.16457336
0003c0 d0 eb 2d 3e 00 00 96 39 eb dc 76 bc 16 31 d5 bd
       0.16984487 0.0002861023 -0.015067319 -0.10409753
0003d0 e6 a6 11 bf 1b 0a 07 be 13 6b 9c 3d c8 25 8a 3d
       -0.5689529 -0.13187449 0.0763761 0.067454875
0003e0 10 03 3f 3d ab fd 36 3b 8f f9 0d be 9a 2e 03 c0
       0.04663378 0.0027922194 -0.1386473 -2.0497193
0003f0 5e 66 df 3d 15 44 2c 3a 60 9a 60 3d aa 80 52 3d
       0.10908197 0.00065714243 0.054834723 0.051392235

bias f4 [36]
000000 fd df d6 bd 6c a2 00 3c 79 8c 06 3e 5d a8 10 be
       -0.10491941 0.007851224 0.13139524 -0.14126725
000010 b6 21 ff 3d 89 01 3c bd 4d 2b 12 3c 85 33 a8 bd
       0.12457602 -0.0458999 0.0089214565 -0.082129516
000020 e4 ef 16 be a2 57 1a be 48 94 0b 3d 96 1b 01 be
       -0.14739949 -0.15072492 0.03407696 -0.1260818
000030 02 f3 ae 3d ad 10 02 be c9 d6 e8 3d f5 f0 b4 bd
       0.08542444 -0.12701674 0.11369092 -0.088350214
000040 d2 2d db 3d 40 bd 8b bd c0 e2 e4 bb 7f d6 f2 3c
       0.10702099 -0.06823206 -0.0069850385 0.029643295
000050 b7 5c 11 3e 1e dc 2e 3e 0b 61 e7 3d 62 bf 04 be
       0.14195524 0.17076156 0.11297806 -0.12963632
000060 18 2f 05 be 78 c3 9e bd f3 4c 7d bc bc 2b fe bd
       -0.13006246 -0.077521265 -0.015460241 -0.124106854
000070 e6 54 f3 3d b8 66 c6 3d f4 54 26 3e a1 08 b6 3d
       0.118814275 0.09687561 0.16243345 0.088883646
000080 1e ab 2a be 6b 29 b9 bd 3a b9 97 bc 95 bd 0e 3e
       -0.16666839 -0.09041103 -0.01852094 0.13939507

weight f4 [1, 36]
000000 ca 4a 27 3e fd 11 fb 3d 2a e6 f3 3d d6 67 cb 3d
       0.16337124 0.1225929 0.11909135 0.099319145
000010 cb 8b 40 be 36 ba 4c bd d6 15 27 be a7 eb b0 bd
       -0.18803327 -0.049982272 -0.16316923 -0.08638697
000020 8b ba 88 bd ca 53 7e 3d bb ed 0e be 5b fd 5c bd
       -0.06676205 0.062091626 -0.13957874 -0.053952556
000030 c2 09 c5 3d 3a 64 88 bd 17 b5 c0 3d 25 1a 02 3d
       0.09621002 -0.06659742 0.0940954 0.031763215
000040 b7 b5 23 3e 68 9c bc bd 86 32 b6 bd 47 4c 25 bd
       0.15987287 -0.092095196 -0.08896355 -0.040355947
000050 db 44 47 bd 49 61 27 be 2f 0e 2c bd 1c ce 2f 3d
       -0.04864965 -0.16345705 -0.042005714 0.04292117
000060 fc 33 01 3e 78 1f b1 bd 0a 0b e0 3d 04 e6 f6 3d
       0.12617487 -0.0864858 0.109396055 0.12055591
000070 eb 6c f9 bd 23 89 52 bd d3 73 35 be 52 85 a2 bd
       -0.121789776 -0.051400315 -0.17719965 -0.07935585
000080 f5 ac fd 3d 66 41 6b 3d 12 ef 08 3e 1e 51 3a bd
       0.123865046 0.057435416 0.13372448 -0.045487516
