parameters_DffNetwork_Adam_0.001_30.pth (torch, 22223 bytes, 7 tensors)

weight f4 [32, 12]
00000000: e46c 5f3d 7e5c 56be 2783 ec3c 7ea2 663e
00000010: 9f1c 7f3e 9ba1 2ebe 7399 823a 08ad 86be
00000020: b6c3 34be 4394 a33d b17b be3e cba2 373e
00000030: 52e1 583c 4ea4 873e 27c4 95bd 259e cf3d
00000040: 552e e1bd 3e7c b73d 503e 113e 06db 30be
00000050: e579 643e 6945 02bd 1ac3 a8bd b3ee 883e
00000060: 2320 01be 9c85 b93d 959e 66be f9d8 6c3e
00000070: b669 0e3c c2e4 24be 089f b3bb d37b f3bd
00000080: e20a 623e ebbd e7bd f066 5bbe 5841 993c
00000090: 0143 753e b264 403e b79f 303e f98a bb3e
000000a0: ed61 5d3d c906 433d 9c61 773d f909 163e
000000b0: a5c3 3bbe 936a 4c3e 970f 5dbe 9daf 1d3e
000000c0: d8a3 7fbe a77e 9f3d 0896 57be edea 693e
000000d0: 1094 8a3e 5e06 233e 7969 ee3c 447c 2a3e
000000e0: 73e0 033e f4ee f03d 19b1 5e3e b1e9 82be
000000f0: 7cd1 883e a0ab 48be e818 893d 9628 0cbb
00000100: 6f7f 833e f60e d23d 830f 2bbd 9c1a c7bd
00000110: aea4 d53d b9cf 7f3d ed91 cabd 2d3d 13bc
00000120: 92ca 533e 595d 03be 1393 a4bd 98f8 783d
00000130: eacf 013e b364 763e 9c63 32be 0210 543d
00000140: 6b92 cdbd f8c4 b5bd 3ff7 dfbd 7860 973e
00000150: 9ad9 5e3c ccc9 0f3e 0bd7 fd3d 923d 5d3e
00000160: b633 4f3e 7974 fb3d bbd3 7abd cf78 27be
00000170: 55cb 91bd 7d29 5d3e b3dd b7bd 08d6 e8bd
00000180: fd42 77bd 2f42 05bc e8e1 263e 8a30 52bd
00000190: b544 1c3e bdcd 023b b1e5 81be 2557 01bd
000001a0: afae 14bc da90 3e3e d9fd 67be 9518 a6bd
000001b0: 4434 fa3d 7ed0 c43b fa0a 6b3d 5567 d03d
000001c0: 7128 17be 3a77 503d d9e4 92be 8d9d 083e
000001d0: 4024 81bd 4e73 2e3e de8a 47be 6a7c 523e
000001e0: de36 993c 1cac 38be 2afb 793d 18b7 8f3e
000001f0: 80df f2bd a776 893c ba16 663e 095a ec3d
00000200: 0ef2 4a3d 27ac 91be 2fbd 423c 6ff1 a6bd
00000210: d821 2f3e 733d 2b3e 38cf 6cbd 7077 c73d
00000220: 38f8 37be 83bf da3c 9a0c 7b3e 3533 8fbe
00000230: e0e9 8dbe b8ea 923e f159 87be 57de 8f3e
00000240: 7665 5cbe fe3b d1bc 5363 50be cfcb 69be
00000250: 6377 aa3d 75b4 3e3e 7528 4cbe 4e8a 4c3c
00000260: ae8e 60be ecdf a2bd 7ccc 5c3e a229 2c3e
00000270: 368f 3e3e 7edc 9dbd 6ffb 5fbe 3461 373e
00000280: 877a 973e 3142 76be 1748 2c3e 0c6f 9abd
00000290: dca2 a33e 60dc fe3d 2768 14be 6757 69be
000002a0: eb9f 8a3e 1acc 083e 7629 31bc 04b0 d6bc
000002b0: d747 6b3e 6778 833e 1102 d53d 6149 a23e
000002c0: bc77 b6bc 851e cbbd e121 38be 0608 a23e
000002d0: 50da 173e 9dbc 303e 6da5 113e c53d 4d3d
000002e0: e972 3bbd f640 1d3d e26f 493e 299e 89be
000002f0: a0a4 fe3d c4b4 e73d d5bc 5a3e 98a7 753e
00000300: 8d10 21be 85dc 39be 506a d0bd d4f4 1fbe
00000310: d57b e13c 1209 e3bd 6b10 78be 4112 183d
00000320: 9e5e 2abe 4586 6d3e e6ec 75be 7ba1 8f3e
00000330: b089 6cbe 47ac edbd ef39 dc3b 8f88 81be
00000340: 48e4 cb3d ac24 71bd ec01 743e 6205 893e
00000350: 61f5 b4bc 70b1 5e3e 1363 323e 7509 5bbd
00000360: ca5b 6b3e 3a72 243e fadf 3d3e 6dab 9bbe
00000370: 2817 2bbe 1eec 973e 19f8 9b3e 8fc3 ef3c
00000380: e615 973c c6b2 8d3e 2526 033e 41ce 4fbc
00000390: d31e 87be 8fad 7fbd c69c 80be b17c 4c3e
000003a0: 647d 59be 2006 783d dbe8 113e eef3 6bbc
000003b0: 35b4 663e 85f4 93be 1b33 b93e 25a5 a5bd
000003c0: 0366 4a3c 94e3 8f3d 15f0 923e a2c3 cdbd
000003d0: f411 0dbe c307 03be 9640 5ebe 4604 f83d
000003e0: f7e1 d0bd dfcf 703c 1147 f9bd 3b5b a2bd
000003f0: f2da 34bd c51d 18be b997 043e cdda 9cbd
0.054547206 -0.2093372 0.028871132 0.22522923 0.24913262 -0.17053835 0.0009963944 -0.26303887
-0.17652783 0.07987263 0.37203744 0.17933194 0.013237314 0.26492542 -0.07312804 0.101375856
-0.10995165 0.08959244 0.14183927 -0.17271051 0.22312124 -0.031804476 -0.08240338 0.26744613
-0.12609915 0.09058687 -0.22521432 0.23129643 0.008692196 -0.16102889 -0.0054816045 -0.11888852
0.22074464 -0.11315521 -0.21425986 0.018707916 0.23951341 0.18788412 0.17248426 0.36629465
0.054048467 0.047613893 0.060395822 0.14652242 -0.18336351 0.1996253 -0.21587978 0.15399022
-0.24964845 0.07787829 -0.21053326 0.22843523 0.27066088 0.15920398 0.029103028 0.16648966
0.1287859 0.11764327 0.21747245 -0.25568917 0.26722324 -0.1959672 0.066942036 -0.0021386496
0.25683162 0.1025676 -0.04176284 -0.09721872 0.10431801 0.06245396 -0.098911144 -0.008986753
0.20682743 -0.12828578 -0.08035865 0.060783952 0.12676969 0.24061851 -0.1742081 0.05177308
-0.10037693 -0.088754594 -0.1093583 0.29565787 0.013601685 0.14041823 0.12394532 0.21605518
0.2023457 0.12278075 -0.06123708 -0.16354679 -0.07118861 0.21597858 -0.08977833 -0.11368948
-0.06036662 -0.008133455 0.16297114 -0.05131582 0.15260585 0.0019959055 -0.25370553 -0.031577248
-0.009074851 0.18609944 -0.22655429 -0.081101574 0.12217 0.0060062995 0.057383515 0.10175959
-0.14761521 0.050894953 -0.28690222 0.13341351 -0.06305742 0.17036173 -0.19486567 0.20555273
0.01870292 -0.18034405 0.061030544 0.28069377 -0.118590355 0.01678021 0.22469607 0.1154061
0.049547248 -0.28451654 0.011885925 -0.081515186 0.17102754 0.1672266 -0.057814807 0.09739578
-0.17965782 0.026702648 0.24516526 -0.27968755 -0.27717495 0.286947 -0.26435807 0.2809932
-0.2152308 -0.025541302 -0.20350389 -0.22831653 0.083235525 0.18623526 -0.19937308 0.012484146
-0.21929428 -0.07952866 0.2156238 0.16812757 0.18609318 -0.07708071 -0.21873258 0.17908174
0.29585668 -0.24048688 0.16824375 -0.07540712 0.3196019 0.12444377 -0.14492856 -0.22787248
0.27075133 0.13359109 -0.010813108 -0.026206978 0.22976623 0.25677797 0.10400785 0.3169661
-0.02227389 -0.099179305 -0.17981674 0.31646746 0.14829373 0.1725945 0.14223261 0.050107736
-0.045763884 0.03839203 0.19671586 -0.2687848 0.124337435 0.11313775 0.21361096 0.23989713
-0.1572897 -0.18150528 -0.101765275 -0.15620738 0.027524868 -0.110857144 -0.24225013 0.037126783
-0.16637656 0.23195751 -0.24016151 0.28052887 -0.23099399 -0.11605125 0.0067207734 -0.25299498
0.099556506 -0.058872864 0.23828858 0.2676192 -0.022089662 0.21747375 0.17420606 -0.053475816
0.22984233 0.16059199 0.18542472 -0.30404225 -0.16708052 0.2967233 0.3046272 0.029268054
0.01844306 0.27675456 0.1280752 -0.012683452 -0.26390705 -0.062421378 -0.2511961 0.19969441
-0.21239239 0.060552716 0.14248984 -0.014401419 0.22529681 -0.2889749 0.36171803 -0.080881394
0.012353423 0.07025829 0.28698793 -0.100470796 -0.1377638 -0.1279593 -0.21704325 0.1211019
-0.101993494 0.014697998 -0.12171758 -0.07927557 -0.044154115 -0.14855106 0.12948503 -0.076589204

bias f4 [32]
00000000: 42ae 85bd cb62 8fbd 82ac 7e3e bbbc f23d
00000010: fc86 21bd 5249 84be 18e0 9e3d f4b6 923e
00000020: cc97 30be f027 dbbc 8050 69be 7e22 51be
00000030: 55b2 843e d82d a83d ec43 cc3d dc03 f23d
00000040: 6897 2a3d a880 fdbc befa 903e f879 79bd
00000050: 5d2a 86be 2370 5dbe ac5e d1bd a3c1 093e
00000060: a4dd 943d 8843 58be 5520 65bd c78f 643e
00000070: 8b25 503e 3a2d 333e c6b2 0e3e 9ca0 143e
-0.06527378 -0.07001265 0.24870494 0.11852404 -0.03943537 -0.2583719 0.07757586 0.28655207
-0.17245406 -0.026752442 -0.22784615 -0.20423314 0.25917307 0.08211869 0.099738926 0.11817142
0.0416483 -0.030945137 0.283163 -0.060907334 -0.26204196 -0.21624808 -0.10223135 0.13452773
0.07268837 -0.21119511 -0.055939037 0.22320472 0.20326822 0.17497721 0.13935384 0.14514393

weight f4 [64, 32]
00000000: 8dc1 1dbe 4b00 6fbd fc00 84bc a594 1f3e
00000010: dc68 2fbe 0a17 7a3c 476d 513d fbe0 0d3d
00000020: 3f29 e33d 3847 1fbe 94f6 7d3b ca9a dbbd
00000030: 51e0 8dbd 8e1d fa3d ac4a 7b3d 9192 283e
00000040: 5a3c 1bbd 20c1 2d3e cbb5 16be 8ddd bcbd
00000050: 53d0 dc3c 1114 323e e44c 47bd 5d13 293e
00000060: d395 0ebe 4db5 313e bba0 873d bc40 00bb
00000070: 6186 d13c 13ed 75bc 54a3 1e3d f39e b6bd
00000080: 8e88 79bd 270d 1f3c ee78 213c f38f ca3d
00000090: 8fac 63bd 2acb 41bd 7719 ff3d 44d7 ba3d
000000a0: b5fa b03d a5a7 9f3d 6c70 1a3e 1474 8f3c
000000b0: 248b 83bd bd9e 47bd e367 063e 4496 77bd
000000c0: f820 cebd 13d5 033e 52fd ec3c 81fa cebd
000000d0: 466c 18bd e478 c03d c319 d93d 22b1 273e
000000e0: 96fd 34be b8e3 af3c 6e60 18be 0688 10bd
000000f0: bf36 8f3d 4d88 6f3c 0c11 203e be89 eebd
00000100: af8b 013d 8bc6 74bd e6c2 f83d 6b8c aa3d
00000110: a456 c83d b45f 93bd 81b3 163d 51f4 dbbd
00000120: d225 153e 58d7 513c 4903 4bbb 81a2 e5bd
00000130: 313c ccbd 871f ab3d 3a67 76bd 8d7f b8bd
00000140: 7f5c 023e 0255 953d eda0 ebbd 3e1a a83d
00000150: ffd5 db3d 4d09 013e 93f1 dd3c ee3a 293e
00000160: fc5a 34be 819e b7bd 979e 05be d7be 8bbd
00000170: a6a1 28be ddbd 38bc 623b 30be ceea a03d
00000180: 5465 aabc a02c 333e 190b 11be e9dc a9bd
00000190: 640f 29be c0b7 aabd 0c64 08be 1324 ca3d
000001a0: d4a3 bdbc c2a7 003e 27c0 6c3d c1d8 153e
000001b0: fd83 1bbd 7d5a 02be f9b3 dcbd dd90 13be
000001c0: df99 afbc f82c 0cbe c082 2abe ac4e 4dbd
000001d0: f9fc 0e3c 59bd 213e 0a4c c53d fe0c 33be
000001e0: 99ef f23d efa5 23be 76a9 53bd 589d 0ebe
000001f0: f419 153d f30a 48bd 03e1 643d 922f 4bbc
00000200: b723 bbbd 1065 953c a198 afbd 481c d3bd
00000210: 8157 993d a64c b6bc 20f8 df3d a77c bc3d
00000220: e320 383c f14c b1bd c416 1ebe fed1 82bd
00000230: 1457 063e 0071 033c 753f 9b3d 2513 68bd
00000240: bcba 3bbd b2dd 16bd ac1a 13bd 00fe 263e
00000250: 6fef 113e 1ada 21be 1e38 0fbe 6533 ab3d
00000260: 1e98 153e 1403 7fbd dd7a c4bd 039e 12be
00000270: 64ee 3d3d f5df 44bc f931 ddbd ebbb 93bd
00000280: e2a4 f2bd 08cd 883d a372 293e d5d1 8a3e
00000290: 5c30 78be 1384 743d a89c 093e 04c0 183d
000002a0: 4f75 f13d 9731 efbc 912b 3fbb 0c79 a43d
000002b0: 9289 d3bd 0cd0 a23c e762 773e 8df0 673c
000002c0: 4702 98bc a9e4 d9bd 65e5 173e 1851 6bbe
000002d0: f1e5 0bbe 951c afbc 1b16 483d d495 fb3d
000002e0: 376a e7bd 7490 34bd 04fb a8bb 5560 d13c
000002f0: d1f7 c6bd 0635 5d3b 36eb 963d f1e6 7d3d
00000300: 9012 0bbc 2f79 c53d dfb1 a83d bbf7 0e3e
00000310: 071e 463d 134f 23be 9ee1 94bd ec03 a83d
00000320: 1e45 14bd bd92 e53d 94b4 f63d e5c0 fb3c
00000330: d7fc 0fbe 3788 b3bc 0446 8f3d d944 dc3d
00000340: a01c af3d b2f8 de3d 640f 093d 86fa 8bbd
00000350: 473b 2abd 298c 6c3d 93b8 07bd 46aa 21be
00000360: 05dc c0bd 1d22 babc 6132 1c3d 14f0 a53d
00000370: c51d e23d 1dc7 e4bd 198a 80bd a34a 0ebe
00000380: fb49 29be ea06 5bbc 8887 fc3d eb51 52bd
00000390: 3816 08bc 9f50 0cbe b82a df3c 5ec2 253d
000003a0: b437 943c 6e79 013e 3aec 5d3c bf03 143e
000003b0: 60b3 07bd 9575 a53c 61ad 763e 77b2 09be
000003c0: d2a3 83be 739a 8dbe 2ed2 34bc e40b 8dbe
000003d0: a624 3bbd c64e 143d 54eb ba3a 5971 4c3e
000003e0: 9134 b2bd 8a49 b73d 5cba dabd 2414 82bd
000003f0: 2ef9 0f3e 7ac3 d7bd de53 573e 2aa8 aebd
-0.15405865 -0.05834989 -0.01611375 0.15584047 -0.17129844 0.015264282 0.051129606 0.034638386
0.110918514 -0.15554512 0.0038751708 -0.10722883 -0.069275506 0.12212668 0.06135051 0.1646216
-0.037899353 0.16968203 -0.14717786 -0.09221945 0.026954805 0.17390467 -0.048657313 0.16511293
-0.13924341 0.17354317 0.06622454 -0.0019569835 0.025576772 -0.015010136 0.03872998 -0.08917036
-0.060921244 0.009707726 0.009855492 0.098907374 -0.055584487 -0.047312893 0.12456029 0.0912309
0.086415686 0.077956475 0.15081948 0.017511405 -0.06423023 -0.04873537 0.13125567 -0.06044604
-0.10064882 0.1287425 0.028929386 -0.101063736 -0.037212633 0.09398058 0.10600617 0.16376165
-0.1767486 0.02147089 -0.14880535 -0.035285972 0.06992864 0.014619899 0.15631503 -0.11647366
0.031627353 -0.059759658 0.12146549 0.08327564 0.097821504 -0.07195988 0.036792282 -0.10739959
0.14565209 0.01280769 -0.00309773 -0.11212636 -0.09972418 0.08355623 -0.06015704 -0.090087034
0.12730597 0.072916046 -0.115053035 0.0820813 0.10734176 0.12601204 0.02709273 0.16526386
-0.17612833 -0.08965779 -0.13048778 -0.06823509 -0.16467914 -0.011275736 -0.17210153 0.078572854
-0.02080027 0.17497492 -0.1416439 -0.082940884 -0.16509777 -0.08335829 -0.13319415 0.09870162
-0.023149408 0.12563995 0.05780044 0.14633466 -0.03796767 -0.12729831 -0.107765146 -0.1441073
-0.021435676 -0.13689029 -0.1665144 -0.050123855 0.008727306 0.15794887 0.09633644 -0.17485425
0.11862106 -0.15981267 -0.051675282 -0.1392721 0.036401704 -0.048838567 0.05587865 -0.012401478
-0.091376714 0.018236667 -0.085740335 -0.103081286 0.07487393 -0.022253346 0.10935998 0.09203463
0.01123831 -0.086572535 -0.15438372 -0.06387709 0.13119155 0.008022547 0.07580463 -0.056658883
-0.04583238 -0.03683252 -0.03591411 0.16307831 0.14251493 -0.15805855 -0.13986251 0.08359412
0.1460881 -0.062258795 -0.09593747 -0.14318089 0.046369925 -0.012016286 -0.10800547 -0.07213577
-0.11847855 0.066797316 0.16547637 0.27113214 -0.24237198 0.05969627 0.13438666 0.037292495
0.11789953 -0.029198451 -0.0029170255 0.080309 -0.10328974 0.019874595 0.24158822 0.014156473
-0.018555773 -0.106393166 0.14833601 -0.22980154 -0.13661934 -0.021375934 0.048849206 0.12284437
-0.11299556 -0.044083074 -0.0051568765 0.02555863 -0.09715236 0.0033753528 0.07369082 0.06198782
-0.008488312 0.096422546 0.08237051 0.13961689 0.04836848 -0.15948133 -0.072695956 0.08203873
-0.036198728 0.11209629 0.12046161 0.030731628 -0.14061294 -0.021915538 0.06995776 0.10755319
0.08550382 0.108872786 0.033461943 -0.06834893 -0.041560438 0.057750855 -0.033135008 -0.1578761
-0.094169654 -0.022721345 0.038133983 0.08102432 0.11040834 -0.1117079 -0.0627634 -0.13895659
-0.16532128 -0.013368348 0.12330538 -0.051347654 -0.008306079 -0.1370263 0.02724205 0.040468566
0.018092968 0.12643978 0.01354509 0.14454554 -0.03313005 0.020197669 0.24089576 -0.13446985
-0.25710922 -0.27656898 -0.011036439 -0.27548134 -0.045689248 0.036207937 0.0014260807 0.19965114
-0.087014325 0.08949573 -0.106800765 -0.06351498 0.14059898 -0.10535331 0.21028087 -0.085281685

bias f4 [64]
00000000: 083b e1bd e4a3 ecbd bba3 24be 014c 223d
00000010: ecb4 efbd 11a9 823d c3a7 a8bd aa9d 103e
00000020: 73ba 9dbd c987 a43d 7b04 a83d 2233 0fbc
00000030: 358a c7bd 5da8 033e 684a 3cbd 6fd3 d83c
00000040: 6960 913d 1368 033e 9b30 df3d 6896 5d3d
00000050: 0674 c53d 72f3 b73b ed50 25be bf5d 6ebd
00000060: 5f00 273d c603 fbbd ff6c 01bd a845 19be
00000070: 2f56 f73d 89dc b8bb 44f1 a83c f159 afbc
00000080: 2b9f 1ebd 66b0 383e 38ec 63bd 6480 90bd
00000090: 5fbf 1abe e2bf 5c3c 7451 063e ce0f 45bd
000000a0: 7bf6 ccbd cd09 923d 9dce ea3d eeb4 513d
000000b0: faa2 1fbe 5611 3f3d 1f64 2d3e 4be2 163d
000000c0: 1f2f 223e 112f d03d 64bf 9a3d 5fbb 483d
000000d0: 91b1 613d c949 093e 1d85 1b3e 87c5 97bc
000000e0: 3bc8 123e 174b f1bd 57fb 383e c90f bc3d
000000f0: 6817 05bc 88f5 07be 380e 1a3d 3825 d63d
-0.109975874 -0.11554697 -0.16078083 0.039623264 -0.1170443 0.06379903 -0.08235123 0.14122644
-0.07701578 0.080337115 0.082039796 -0.008740218 -0.09743158 0.12857194 -0.045969397 0.026468007
0.07098467 0.1283267 0.10897943 0.054098517 0.0964127 0.0056137377 -0.16144152 -0.058194872
0.04077184 -0.12256579 -0.031598087 -0.14967978 0.12076985 -0.005641524 0.020622857 -0.021405192
-0.038726013 0.1803604 -0.055645198 -0.070557386 -0.15112065 0.013473483 0.1311701 -0.048110776
-0.1000795 0.071307756 0.114651896 0.05119794 -0.15589514 0.046647392 0.16932724 0.036836904
0.15838288 0.10165227 0.07556036 0.049006816 0.05510098 0.13407053 0.15187497 -0.018526806
0.14334194 -0.117819004 0.18064629 0.09182698 -0.008123256 -0.13277256 0.037611216 0.10456318

weight f4 [32, 64]
00000000: 0853 9dbc 24a2 e73d 9eb9 debd ce9a 953d
00000010: 2cec e03d b389 153e 3e00 b2bd a758 ffbc
00000020: 2212 1abe 35e1 9cbd d67a e6bb f80c 3bbd
00000030: 8830 853c 4709 763d d8cd 9a3c b85a fabd
00000040: eb38 533c 55e9 fcbd 8024 163e a2c2 e53d
00000050: fba3 a63d a3f8 abba 9489 c9bd d07d 42bd
00000060: abdc 993d 2a78 f0bd ccfd b93d e937 99bd
00000070: e1cd da3d acc8 c1bd e904 21bd fc5c 4ebe
00000080: 666e a7bd 24ba 103e 613b 93bd 043a eb3d
00000090: b098 84bc b76d 4f3e 683e f03c 80ad 673c
000000a0: 34e0 843d 9521 933c c69d 993c 505a 60bd
000000b0: b849 dd3d 8839 d53c f2c2 143d 202c 153e
000000c0: c255 febd cd84 f03d 3849 183d daa6 873d
000000d0: 23ae dcbc f3eb 103e b569 5fbd fa6b e6bd
000000e0: 1c79 8e3b faec 8f3d a8bc a23d 07ab 363d
000000f0: ae42 d53d bad0 b13d 7042 c83c fd11 b3bd
00000100: 6017 da3b 7018 633d cc7e 21bd 4089 d0bc
00000110: 6a8a 01be 2de6 593e 72de febd 2d9a 163e
00000120: a18d 0dbe d430 563d 35ec 87bd 829d 83bd
00000130: 454c 2d3a e2a4 53bd 50aa 9e3c c054 3a3d
00000140: d7e8 de3d 4cdc 64bc 3029 2dbd 9b8a 84bb
00000150: 4ae3 8f3d a36c 2ebe 8003 9fbc 30e5 babc
00000160: f3b8 35bd 6055 2a3c 7054 95bc b785 f23c
00000170: fa1e 033e 5886 73bd 6c7d 9a3c 5e1b 76bc
00000180: e577 05bd 5cab 0a3e 47a4 ca3d ceef a73d
00000190: 68db 83bd dd90 b43c 9005 033d ee1c 9a3d
000001a0: 7c7d 503d b836 16bd 65ab a03d f48c 843d
000001b0: 2461 4abd bbe0 05be 255c 99bd 199e d43d
000001c0: 67ec a53d 8f52 46bd 2f92 a63d e0d7 04bd
000001d0: 5406 0d3d f87b 133e fc79 023e 48e0 d13c
000001e0: 8e65 a03d a468 9e3d 9bf6 ecbc 8537 fcbc
000001f0: 388e 9dbd 58f9 b53d a089 a7bd ecd0 d53c
00000200: 60aa 313d ec99 cc3d 885b b5bc 4c01 073d
00000210: 34df 09bd 5c86 1e3d 005f 14bb 1c8f 923d
00000220: 98cc bbbd a410 333d 767e d9bd 1429 783d
00000230: eab7 cabd b0f2 a2bd 9052 9e3d 0812 be3c
00000240: 00f8 64b9 aeb5 c43d f45c f8bd 18fe 2bbd
00000250: 949b 7cbd c69e b9bd 2482 dabd 7cc1 693d
00000260: 1a79 fbbd 4068 913d e481 043d e062 3b3c
00000270: 80ea 8cbc bc2a 82bd b026 23bd 9478 a33d
00000280: a041 973b 80db d43b 5cdd 1abd f0a0 74bd
00000290: 2839 c8bd d2fa a9bd 1882 9ebd 6086 62bd
000002a0: b090 87bd fe3c cdbd 58a2 53bd 301b 6b3c
000002b0: 4cc7 97bd 58c8 47bd d07e efbd 20ee c13d
000002c0: 1e19 c2bd 9a5c d0bd b489 49bd 0040 f838
000002d0: a0d6 fb3b e2fd bebd 6627 96bd e0ac 9b3d
000002e0: 1460 64bd e09f b13d 7c21 86bd 2804 f73d
000002f0: 168d 97bd 0480 f93d b8f5 63bd 2edf 9a3d
00000300: fe74 d43d e06a cfbd c83a ff3d d4e1 df3d
00000310: 28e5 9f3d cc65 6dbd a09b 9c3b 8822 bc3d
00000320: 34e5 33bd fc64 efbd de48 9c3d 8023 00bd
00000330: 0461 bdbd 8a19 b33d c0eb d13c fcc4 e53d
00000340: 663c d8bd c299 a83d d846 92bd 30ff 1dbd
00000350: 2819 37bd 4eb6 a6bd c838 453d b0b8 10bd
00000360: a0fb 62bc bc24 3c3d 067d 903d 369c 9dbd
00000370: 4a44 d1bd ac4a 703d 006a 473b 1429 e1bd
00000380: b455 b83d b81e a33d 64a0 d6bd 7ee4 93bd
00000390: e092 92bc 6a37 83bd c025 89bc bed0 a63d
000003a0: 609b 0f3d 6852 bfbd fc7d 35bd 5006 cf3d
000003b0: f4f4 6ebd 821b e7bd 4ca8 733d 00d4 873a
000003c0: 34cd fd3d a220 9cbd 8c45 753d 2083 21bc
000003d0: fe3e cb3d 48c6 8cbd 64f2 eebd 4057 b2bc
000003e0: 0052 46bb b06b f1bc 4845 4a3d 4c8d bbbd
000003f0: 52aa d53d 7683 8e3d d07a 303c b075 75bd
-0.019204631 0.11310223 -0.108752474 0.07304917 0.10982546 0.1460331 -0.086914524 -0.031170202
-0.1504598 -0.07660142 -0.007033686 -0.045666665 0.016258493 0.06006744 0.018896982 -0.122243345
0.012891988 -0.12349192 0.14662361 0.11218764 0.081367455 -0.0013120364 -0.09840694 -0.047483265
0.07512792 -0.117416695 0.09081611 -0.07481367 0.106837995 -0.09462103 -0.039311323 -0.20152658
-0.08175354 0.14133507 -0.0718906 0.11485675 -0.016186088 0.20256697 0.029326633 0.014140487
0.06488076 0.01796035 0.01875199 -0.05477363 0.10805076 0.02602841 0.036318727 0.14567614
-0.12418701 0.1174408 0.0371792 0.06623621 -0.026938504 0.14152507 -0.05454417 -0.11251064
0.0043479335 0.070276216 0.079461396 0.044596698 0.10413109 0.086823896 0.024445742 -0.08743665
0.0066556185 0.055443227 -0.039427564 -0.02545607 -0.12650457 0.21279211 -0.12444772 0.14707251
-0.13823558 0.05229266 -0.0663685 -0.064265266 0.00066107913 -0.051670916 0.01936832 0.04549098
0.108842544 -0.0139685385 -0.042275608 -0.0040448434 0.07025774 -0.17033629 -0.019410849 -0.022814363
-0.044365834 0.010396332 -0.01822874 0.029604776 0.12804785 -0.059454292 0.018858634 -0.015021173
-0.032585043 0.13541931 0.09894615 0.08200036 -0.06438333 0.022041732 0.031987727 0.07525049
0.05090092 -0.036673278 0.07845191 0.06472197 -0.049409047 -0.13074009 -0.07488278 0.10381717
0.08101731 -0.048418578 0.08133351 -0.032432437 0.034429863 0.14402759 0.12741846 0.025619641
0.0783187 0.07734802 -0.028926184 -0.030788193 -0.07693142 0.08885449 -0.08180547 0.026100598
0.043375373 0.09990296 -0.022138372 0.03296022 -0.03366013 0.038702354 -0.0022639632 0.07156202
-0.091698825 0.04371704 -0.10619824 0.06058605 -0.0989836 -0.07956445 0.07730591 0.023201957
-0.00021836162 0.09604965 -0.121271044 -0.04199037 -0.06167181 -0.09063487 -0.106693536 0.057069287
-0.12278958 0.07099962 0.032350436 0.011437148 -0.017201662 -0.06355807 -0.039831817 0.07981983
0.0046159774 0.006495893 -0.03780876 -0.059723794 -0.09776527 -0.08299793 -0.07739657 -0.05530393
-0.06619394 -0.10021399 -0.051668495 0.014349744 -0.0741106 -0.048775047 -0.116941094 0.09469247
-0.09477447 -0.10173912 -0.04920359 0.000118374825 0.0076854974 -0.09325768 -0.073317334 0.07601333
-0.05575569 0.08673072 -0.065493554 0.120613396 -0.07399957 0.1218262 -0.055654258 0.075620994
0.10373877 -0.10127807 0.124623835 0.10931745 0.0780738 -0.05795841 0.004779294 0.09186274
-0.043919757 -0.11689183 0.07631086 -0.031283855 -0.0924702 0.087451056 0.02562511 0.112192124
-0.10558395 0.08232452 -0.071424186 -0.038573444 -0.044701725 -0.081402406 0.048149854 -0.03533238
-0.013853937 0.04593347 0.07055096 -0.076958105 -0.10218103 0.058664963 0.003042817 -0.10994163
0.090007216 0.079648435 -0.10479811 -0.07221316 -0.017892301 -0.06407054 -0.016741633 0.08145283
0.035060287 -0.093418896 -0.0443096 0.10108626 -0.058339074 -0.112845436 0.059486672 0.0010362864
0.12392655 -0.07623412 0.05988078 -0.009857923 0.09924124 -0.06873757 -0.11667326 -0.02177012
-0.0030261278 -0.029470295 0.049382478 -0.091578096 0.10432877 0.06958668 0.010771468 -0.05992669

bias f4 [32]
00000000: 9346 c83c 10a4 0fbd 883c f7bc 1c36 2fbd
00000010: 2017 0ebd 90e4 3fbd dca6 dd3d 9ec1 9b3d
00000020: eab4 25bc 5ed9 c23d ce33 533d a476 d93d
00000030: 0f4a ddbd 1a0a c4bd 48c5 f7bc 13b2 d13d
00000040: 8012 aa3b 2a06 b7bd 267f 923c a6c3 96bd
00000050: a5ea 0b3e c88d fbbc 3917 e93d e6df 94bd
00000060: ce79 ce3d c843 273d 3f3c 083e 9a79 dcbd
00000070: f7ff 873d a56d 953d 8923 c83d e971 4a3d
0.024447715 -0.03506857 -0.03018023 -0.042776212 -0.034690022 -0.046848834 0.108228415 0.07605289
-0.010113934 0.09514116 0.051563077 0.10618332 -0.10805141 -0.09572239 -0.030245438 0.10239043
0.0051901937 -0.089367226 0.017882895 -0.07361536 0.13663729 -0.030707255 0.113813825 -0.07269268
0.10081826 0.040836126 0.13304232 -0.10765381 0.06640618 0.07296304 0.09772403 0.04942504

weight f4 [1, 32]
00000000: 75f2 55be bdd8 b2bd c4f5 913d 239a 21be
00000010: 23ae bb3d cbbe 8e3c af6a 45bd 93f9 4cbd
00000020: cf79 1abd 7416 943e c429 673e 678e 03be
00000030: a417 cd3d 23f4 553b 0ba4 103e 7f07 52be
00000040: 9175 f6bd d171 21be e8f6 813e f89b 1abe
00000050: 47e1 72be bce7 823e 2915 c33d 87c5 08bd
00000060: 85d1 64be 382b a73d 4948 2e3e 0bf6 993d
00000070: cd59 563e 07e3 e13d 16f2 2f3e 6ea5 13be
-0.20893271 -0.08732746 0.07126954 -0.15781455 0.09164073 0.017424962 -0.048197445 -0.0500427
-0.037713822 0.2892338 0.22574526 -0.12847291 0.10014275 0.0032646738 0.14125077 -0.20510672
-0.12034143 -0.15766074 0.25383687 -0.1509856 -0.23718749 0.25567424 0.0952552 -0.0333915
-0.2234555 0.0816254 0.17019762 0.07517632 0.20932694 0.1102963 0.17182192 -0.14418575
