parameters_BinaryClassification_Adam_0.001_150.pth (torch, 28469 bytes, 13 tensors)

weight f4 [64, 12]
0	0x3d4274f3	0.047474813
1	0xbe28e124	-0.16492134
2	0xbeb9901b	-0.36242756
3	0xbeb66bf6	-0.35629243
4	0x3e8689d1	0.2627702
5	0x3d400b68	0.046885878
6	0xbe018eb2	-0.1265209
7	0x3e5d618a	0.2161924
8	0xbc5be3c7	-0.013421006
9	0xbf00ec03	-0.50360125
10	0x3e0b0a01	0.13578035
11	0xbd92be38	-0.071651876
12	0xbd040ac6	-0.032236837
13	0xbe4b8efc	-0.19878763
14	0xbdb42d8a	-0.087977484
15	0x3db46a3c	0.08809325
16	0xbe267951	-0.16257216
17	0xbe105a45	-0.14096935
18	0xbe1a722a	-0.15082613
19	0x3e35c974	0.1775263
20	0xbdb56a8b	-0.08858212
21	0xbe79fc07	-0.24412547
22	0x3e848aa2	0.25887018
23	0xbe556c20	-0.20842028
24	0x3dd2122b	0.102573715
25	0xbeaece54	-0.3414179
26	0x3dd50301	0.104009636
27	0xbe892bea	-0.26791316
28	0xbd22d743	-0.03975607
29	0xbe1e83de	-0.15479991
30	0x3e8c7196	0.2743041
31	0x3e816acc	0.25276792
32	0x3e585170	0.21124816
33	0x3d6a948d	0.057270575
34	0x3e1c4883	0.15262036
35	0xbe8c892b	-0.274484
36	0xbe3a3392	-0.18183735
37	0xbd756662	-0.059912093
38	0x3e1486d8	0.14504564
39	0x3dc48ca5	0.09597138
40	0xbca4b339	-0.020104991
41	0x3e1ea779	0.15493573
42	0x3dc7b7fd	0.0975189
43	0xbe3c55ce	-0.18392107
44	0x3e01d787	0.12679873
45	0x3e61ec03	0.22062688
46	0xbc776d30	-0.015101716
47	0x3e8444c7	0.25833723
48	0x3d99fddb	0.07519122
49	0xbd83469f	-0.06409954
50	0x3e3e7943	0.18600945
51	0x3e471852	0.19442871
52	0xbe80067e	-0.25004953
53	0x3e4bd65c	0.1990599
54	0x3b3d95cb	0.0028928395
55	0xbe7c16fc	-0.24618143
56	0xbd694017	-0.056945886
57	0x3e37af9c	0.17938083
58	0x3dad217c	0.08453652
59	0x3ced01f5	0.028931597
60	0xbc283b96	-0.010268113
61	0x3da47037	0.08029216
62	0x3e1881b5	0.1489323
63	0x3e504e5c	0.20342392
64	0xbe927575	-0.28605238
65	0x3c057547	0.008145637
66	0xbd21abd3	-0.039470505
67	0xbe8b8da7	-0.2725651
68	0xbe816e8c	-0.25279653
69	0xbd6ef38f	-0.058337744
70	0x3e2a812b	0.16650836
71	0xbd82a7fa	-0.06379695
72	0x3e42130c	0.18952578
73	0xbe56c09c	-0.20971912
74	0xbb577b33	-0.003287983
75	0xbe152288	-0.14563954
76	0x3e88cc49	0.26718357
77	0x3ebd238e	0.3694119
78	0xbe71a2cc	-0.23597258
79	0xbe384ca2	-0.17997983
80	0x3e37a6cc	0.17934722
81	0xbcfe57c9	-0.031047719
82	0xbe1879e7	-0.14890252
83	0xbe245b17	-0.16050373
84	0x3e50c969	0.20389332
85	0x3de1de78	0.11028761
86	0x3e518862	0.20462182
87	0xbe7b34ca	-0.24531856
88	0xbe6d6073	-0.23181324
89	0x3e0856bc	0.13314337
90	0x3e35b0c5	0.17743213
91	0xbe0ba555	-0.13637288
92	0xbe9f088d	-0.3106121
93	0xbe1d11df	-0.15338849
94	0x3df1fdfd	0.118160225
95	0xbecbaffb	-0.397827
96	0xbde277b9	-0.110579915
97	0x3e095b22	0.1341367
98	0x3ec5659e	0.3855409
99	0x3e8715fa	0.26383954
100	0xbeceb469	-0.40372017
101	0xbe7100a8	-0.23535407
102	0xbf4133ad	-0.75469476
103	0xbdad36ff	-0.08457755
104	0x3da278cf	0.07933199
105	0x3d7f25dd	0.06229197
106	0xbe17611d	-0.1478314
107	0x3de199a9	0.110156365
108	0x3e1245ad	0.14284392
109	0x3e628dc6	0.22124395
110	0x3e5e0c21	0.21684314
111	0xbcf199f2	-0.029492352
112	0x3e919162	0.2843123
113	0xbde47759	-0.11155576
114	0xbd1b47d4	-0.037910298
115	0xbd619510	-0.055073798
116	0x3e1df005	0.15423591
117	0xbe0131f8	-0.12616718
118	0x3da5d5e6	0.080974385
119	0x3e56ea55	0.20987828
120	0x3e4698a9	0.19394173
121	0xbd8f7bb6	-0.07006018
122	0x3e499054	0.19683963
123	0xbe8de9e6	-0.27717513
124	0x3e26f069	0.16302647
125	0x3e741c3d	0.23838897
126	0x3d7af4bf	0.061268564
127	0xbe2259d0	-0.15854573
128	0x3e61ba1f	0.22043656
129	0xbe874c47	-0.26425382
130	0x3e2f747b	0.17134278
131	0xbdd8751e	-0.10569213
132	0x3e7edfb2	0.2489002
133	0xbe183be0	-0.1486659
134	0xbe24892d	-0.16067953
135	0xbe71f761	-0.23629524
136	0x3e8840df	0.26611993
137	0xbc194c90	-0.009356633
138	0x3c613fd8	0.013748132
139	0x3f4d4cff	0.8019561
140	0x3da499ad	0.08037124
141	0x3def404b	0.11682185
142	0x3d7e64dc	0.062107906
143	0x3d8d7d79	0.06908698
144	0x3e80813d	0.250986
145	0xbe1308a6	-0.14358768
146	0x3e923db4	0.285627
147	0xbd540681	-0.051764015
148	0x3b2b21ea	0.0026112744
149	0x3bea070f	0.0071419547
150	0x3c964003	0.01834107
151	0xbe1e4bef	-0.15458654
152	0xbc8d54aa	-0.017252285
153	0xbbe33698	-0.0069339983
154	0x3e31d0ab	0.17364757
155	0xbdb20d71	-0.0869397
156	0x3f2457a7	0.64196247
157	0xbdf8d334	-0.12149659
158	0xbf3d8ce6	-0.7404312
159	0xbf57bb69	-0.8427034
160	0x3eb1b54c	0.3470863
161	0x3f09b08a	0.53785
162	0x3ef3aeec	0.47594392
163	0x3f241171	0.64089113
164	0xbeeab423	-0.45840558
165	0xbe4972cf	-0.19672702
166	0x3e045234	0.12921983
167	0xbea52dab	-0.32261404
168	0x3c29799d	0.010343936
169	0xbcf19078	-0.029487833
170	0x3d9838f1	0.07432736
171	0x3e03e976	0.12882027
172	0x3e0ce8c2	0.13760665
173	0xbe0e19fb	-0.13877098
174	0x3cc4befc	0.02401685
175	0xbe5fe792	-0.21865681
176	0xbe870ada	-0.26375467
177	0xbe09d644	-0.13460642
178	0x3e611fe3	0.2198482
179	0xbe91fe82	-0.28514487
180	0xbe0d0339	-0.1377076
181	0x3e21f2a8	0.15815222
182	0x3f1475f7	0.579925
183	0x3f84a155	1.0361735
184	0xbe0cee57	-0.13762794
185	0x3c48b94f	0.012251212
186	0x3df11efb	0.11773487
187	0x3cc40ddb	0.023932388
188	0x3e18fdc0	0.14940548
189	0x3e7e2b84	0.24821287
190	0xbe39a6a7	-0.18129979
191	0x3e44259c	0.19154972
192	0x3e22ed8d	0.15910931
193	0xbe8989a8	-0.26862836
194	0x3d909fb0	0.07061708
195	0xbddd62e2	-0.10809876
196	0xbe91e36e	-0.28493828
197	0x3e3bb41d	0.18330427
198	0x3dff306d	0.12460408
199	0x3d10011d	0.03515731
200	0xbe037658	-0.12838113
201	0x3cc56f1e	0.024100836
202	0xbe29ad4a	-0.16570011
203	0xbe8bafdb	-0.27282605
204	0xbe8b8b9b	-0.27254948
205	0xbd5463d4	-0.051853016
206	0xbe17c89f	-0.14822625
207	0x3e0f5b14	0.13999587
208	0xbe487bc7	-0.19578467
209	0xbdea9ed2	-0.11456074
210	0xbda2485c	-0.07923958
211	0xbe6836c2	-0.22677138
212	0x3e515cee	0.20445606
213	0xbea56f1e	-0.32311338
214	0xbea51ae1	-0.3224707
215	0x3def3334	0.11679688
216	0x3dbfa9a0	0.09358525
217	0x3da2c785	0.079482116
218	0xbe932e07	-0.28746054
219	0xbe577cf6	-0.21043763
220	0xbe5febbf	-0.21867274
221	0x3db217da	0.086959556
222	0x3d957c7d	0.07299135
223	0xbe810ef7	-0.2520673
224	0x3deef7c3	0.116683505
225	0x3dde0bda	0.10842104
226	0xbe3c9076	-0.18414482
227	0x3e2c262c	0.16811436
228	0xbb5b3f14	-0.0033454346
229	0x3e81913f	0.25306126
230	0x3e4b35b0	0.19844699
231	0xbe5a2125	-0.21301706
232	0x3e31dd36	0.17369542
233	0xbd01c085	-0.03167774
234	0xbe3e7841	-0.1860056
235	0x3e84abda	0.25912362
236	0xbd3f61d9	-0.046724174
237	0xbd67bbdd	-0.056575645
238	0xbe922f3c	-0.28551662
239	0x3e11ae85	0.1422673
240	0x3e572f41	0.2101412
241	0x3e27f473	0.16401844
242	0x3d4ed989	0.050500426
243	0x3eb040e8	0.3442452
244	0xbc89db9d	-0.016828353
245	0x3e79682a	0.24356142
246	0xbe44eeb1	-0.19231679
247	0x3ebde35b	0.3708752
248	0x3d21a372	0.039462514
249	0x3ea0d04f	0.31408927
250	0x3e53819c	0.20654911
251	0x3eac1a92	0.33614022
252	0xbe243ccd	-0.16038819
253	0x3e91e0b9	0.28491762
254	0xbe6359cc	-0.22202224
255	0x3de4b1f3	0.111667536

bias f4 [64]
0	0xbcac7e7f	-0.021056412
1	0xbe8a7908	-0.27045465
2	0x3ce30c96	0.027715962
3	0x3e7cf1ab	0.24701564
4	0xbe046837	-0.1293038
5	0xbe854519	-0.2602928
6	0x3e30de58	0.17272317
7	0x3e2deb6f	0.16984342
8	0x3e5c6062	0.21521142
9	0xbe845aea	-0.25850612
10	0xbe029749	-0.12753023
11	0x3e5ed48c	0.21760768
12	0xbe4d32e4	-0.20038944
13	0x3dff3a12	0.12462248
14	0xbe252e93	-0.16131048
15	0x3dfa2642	0.12214328
16	0xbe023345	-0.1271487
17	0x3d592c42	0.053020723
18	0xbda3285e	-0.07966684
19	0x3da9cfa5	0.08291558
20	0xbccb18ce	-0.024792101
21	0xbb7be3ac	-0.0038435264
22	0xbdf0a05e	-0.117493376
23	0xbe3c451a	-0.18385735
24	0xbd146b75	-0.03623529
25	0x3e5676de	0.20943782
26	0x3e516b42	0.20451072
27	0xbe90a4bc	-0.28250682
28	0xbcf7bc44	-0.03024114
29	0x3e92acaf	0.28647372
30	0xbe6dccd7	-0.23222671
31	0xbdc8c541	-0.09803248
32	0xbd67d686	-0.05660107
33	0xbe8df4cc	-0.27725828
34	0x3e54e7e7	0.20791589
35	0x3ba3743a	0.0049882205
36	0xbcf209e1	-0.029545726
37	0x3e84b1b8	0.2591684
38	0x3e4a7454	0.19770938
39	0xbe315388	-0.17317021
40	0xbd8a3ef3	-0.06750288
41	0x3e4fedf2	0.20305613
42	0x3dc86fe7	0.09786969
43	0xbe624179	-0.22095288
44	0xbe6d87b1	-0.23196293
45	0x3e196d06	0.14982995
46	0x3e8afe59	0.27147177
47	0x3dad1501	0.08451272
48	0x3d17b42a	0.037037052
49	0xbd532572	-0.051549383
50	0x3e837e94	0.2568251
51	0x3c2dce19	0.01060822
52	0xbcd1c426	-0.025606226
53	0x3e7a7eb2	0.24462393
54	0xbc689fce	-0.014198257
55	0xbdd89efb	-0.10577198
56	0xbe58ee0f	-0.21184562
57	0xbe8f7157	-0.2801616
58	0x3c28a96a	0.010294298
59	0xbe60f244	-0.21967417
60	0x3e1016ba	0.1407117
61	0x3c89c9b9	0.016819822
62	0x3e9b4e6d	0.30333272
63	0xbe7395b7	-0.2378758

weight f4 [64, 64]
0	0xbc596248	-0.013268061
1	0xbdb86788	-0.09004122
2	0x3c12bdb8	0.008956365
3	0x3dd7c5d0	0.105357766
4	0xbcd195a3	-0.025584048
5	0x3cd1260a	0.025530834
6	0x3ddf1e00	0.10894394
7	0x3c609cef	0.013709291
8	0x3a9046fa	0.0011007481
9	0xbc05a2e8	-0.008156516
10	0xbd4c4f10	-0.049880087
11	0xbdeaec45	-0.11470846
12	0xbdeafc7d	-0.114739396
13	0x3d6bd549	0.05757645
14	0x3cbae943	0.022816306
15	0xbc6e6549	-0.014550515
16	0xbda1763b	-0.07883879
17	0xbbd1d2a5	-0.0064032846
18	0xbd756a86	-0.05991604
19	0x3d15e298	0.03659305
20	0xbd7e0625	-0.06201758
21	0xbbe06b8d	-0.0068487586
22	0x3d3a7a0f	0.04552656
23	0x3ddae950	0.10689032
24	0x3dac91a5	0.08426217
25	0x3c8925c5	0.016741643
26	0xbbf883f3	-0.007584089
27	0xbd95771c	-0.07298109
28	0x3d1ef6e9	0.03880969
29	0x3da51528	0.08060676
30	0x3da7dba5	0.08196191
31	0x3df81434	0.121132284
32	0xbd164d36	-0.036694728
33	0x3dbeeb82	0.09322263
34	0x3d0099fa	0.031396843
35	0x3d0226c2	0.031775244
36	0x3d932633	0.0718502
37	0x3dbb3785	0.09141449
38	0xbd9b0b8b	-0.07570561
39	0x3e030f9c	0.12798923
40	0x3d1f53a2	0.038898118
41	0x3d80d317	0.06290262
42	0x3c997f74	0.018737532
43	0xbe16812c	-0.14697713
44	0x3d8288da	0.063737586
45	0x3d280af9	0.04102609
46	0xbd69e329	-0.057101402
47	0x3da9521d	0.08267615
48	0x3d7d27f8	0.061805695
49	0x3dfc0513	0.12305655
50	0xbd015698	-0.031576723
51	0x3dd73959	0.10508985
52	0xbc682ad3	-0.014170366
53	0x3db3ffd7	0.08789032
54	0xbdce4bb5	-0.10073034
55	0xbde5b2e6	-0.11215763
56	0xbe05b1f6	-0.13056168
57	0xbdb27c65	-0.087151326
58	0xbdd26e1a	-0.102749065
59	0x3b0ffe9b	0.0021971825
60	0xbd97cb7b	-0.07411858
61	0x3d0b2838	0.033973902
62	0x3c8870d5	0.016655365
63	0x3dbf28c0	0.09333944
64	0xbd57fe57	-0.05273279
65	0xbdcf5bbb	-0.10124918
66	0xbc51cb90	-0.012804881
67	0x3ce63414	0.028101005
68	0x3c5c77cf	0.013456299
69	0x3c263609	0.010144719
70	0xbda6d8a6	-0.08146791
71	0xbce0793b	-0.027401557
72	0xbd01b3f3	-0.031665754
73	0xbc1b92bc	-0.009495433
74	0x3cea358c	0.028589986
75	0x3d95c62f	0.07313191
76	0xbe09b6a1	-0.13448574
77	0x3d9a7aba	0.075429395
78	0xbd8069e3	-0.06270196
79	0x3d9f0b67	0.07765847
80	0xbe183d43	-0.1486712
81	0x3cd74dca	0.02628221
82	0x3d54fc26	0.05199828
83	0x3c9a1ca0	0.018812478
84	0x3d979c4a	0.07402857
85	0x3da921d4	0.08258405
86	0x3d8a6e71	0.06759346
87	0x3d9e1144	0.07718137
88	0x3e065934	0.13119966
89	0xbdeb8b4b	-0.115011774
90	0xbd15d04b	-0.036575597
91	0xbd3c711a	-0.0460063
92	0x3e130d15	0.14360459
93	0xbd2d15e9	-0.042257223
94	0x3da44083	0.08020117
95	0x3dab355b	0.08359786
96	0x3d59dfee	0.05319207
97	0x3d092bcf	0.033489045
98	0x3db56130	0.08856428
99	0x3cdc4a85	0.026891002
100	0xbdb610b9	-0.08889908
101	0xbdcba04a	-0.09942682
102	0xbdc16a9a	-0.09444161
103	0x3d995071	0.07486046
104	0xbd3aa72c	-0.045569584
105	0xbc974d50	-0.018469483
106	0xbe0991ab	-0.13434474
107	0x3c9ddf46	0.019271504
108	0xbe2c17f4	-0.16806012
109	0xbd9a4b5e	-0.075339064
110	0x3d183bf5	0.037166554
111	0x3ddd9adb	0.10820552
112	0xbba957fc	-0.0051679593
113	0x3a40002e	0.00073242455
114	0xbcbc843d	-0.023012275
115	0x3d9aeb86	0.07564454
116	0x3daac05f	0.08337473
117	0xbcec9bca	-0.02888288
118	0xbe236c65	-0.15959318
119	0xbde395b2	-0.111125365
120	0x3d57f0e5	0.05271997
121	0xbe02b57c	-0.12764543
122	0xbddaacd7	-0.10677498
123	0x3dfbdb43	0.1229768
124	0xbcb8a426	-0.02253921
125	0xbd9aad32	-0.07552566
126	0x3d55ad77	0.052167382
127	0x3dd74b37	0.10512393
128	0x3da5efc3	0.081023715
129	0x3983074b	0.000249917
130	0xbbe232f4	-0.0069030467
131	0x3d46a136	0.048493586
132	0xbddc823c	-0.10767028
133	0x3dfd3189	0.12362964
134	0x3d1846fc	0.03717707
135	0xbc1558b5	-0.009115388
136	0x3d83507a	0.06411834
137	0x3d00b39a	0.03142128
138	0x3c1972fc	0.009365793
139	0x3c260e44	0.010135237
140	0x3d101bd7	0.0351828
141	0x3c7556be	0.014974294
142	0x3da87f27	0.082273774
143	0xbdb3495d	-0.08754227
144	0x3d659117	0.05604657
145	0x3e6aafe1	0.22918655
146	0x3c2d77af	0.010587617
147	0xbdc0083c	-0.093765706
148	0xbdb0ea67	-0.08638459
149	0x3d56d56e	0.052449636
150	0x3d0e09df	0.034677383
151	0x3e09424c	0.13404197
152	0x3d8454bd	0.06461475
153	0x3db788eb	0.08961662
154	0xbcd85c32	-0.02641115
155	0xbc2c1143	-0.010502162
156	0x3dda5192	0.106600896
157	0xbd7295a5	-0.059224743
158	0x3d165d50	0.036710083
159	0xbd4d6a0c	-0.050149962
160	0x3d0034f7	0.03130051
161	0x3c881a46	0.01661409
162	0xbd499394	-0.049213007
163	0xbdd0364e	-0.10166608
164	0x3e02d4ab	0.12776439
165	0xbd9556f8	-0.072919786
166	0xbdb6d5ac	-0.089274734
167	0x3d921455	0.07132784
168	0xbd28deed	-0.041228224
169	0x3d0b120f	0.03395277
170	0x3c6b17e1	0.014348955
171	0x3a94ff98	0.0011367677
172	0xbd04787c	-0.032341465
173	0xbd84d005	-0.06484989
174	0x3c5cfd71	0.0134881595
175	0xbe12024e	-0.14258692
176	0x3dcc6989	0.09981067
177	0x3d51896d	0.05115645
178	0xbd8ab7a4	-0.06773308
179	0xbc64b1d4	-0.013958413
180	0x3e06e414	0.13172942
181	0x3c8076e2	0.015681688
182	0x3d21432d	0.039370704
183	0xbdb2c157	-0.08728283
184	0xbe26b951	-0.1628163
185	0xbcedc00b	-0.029022237
186	0xbd11ca4c	-0.035593316
187	0x3e368fbc	0.17828268
188	0x3d7aa5da	0.061193325
189	0x3da37b0b	0.07982453
190	0xbd9cc4f8	-0.07654756
191	0x3c9de05e	0.019272026
192	0xbda477eb	-0.08030685
193	0xbe338e2d	-0.17534705
194	0x3d627799	0.05528984
195	0x3d82f0bc	0.06393573
196	0xbe086ccc	-0.13322753
197	0xbcbb3e4d	-0.022856856
198	0xbd7474d3	-0.059681725
199	0x3d1cc154	0.03827031
200	0xbd33cbec	-0.043895647
201	0xbe59a24a	-0.21253315
202	0xbe2dfb6f	-0.16990446
203	0x3b0a055f	0.002106033
204	0xbe2be397	-0.16786037
205	0x3db7cdcc	0.089747995
206	0xbdafd3e9	-0.085853405
207	0xbd7b5375	-0.061358888
208	0xbccf8887	-0.025333656
209	0x3e580cb6	0.21098599
210	0x3d26b209	0.04069713
211	0x3e039aa7	0.12851964
212	0x3c404e03	0.011737349
213	0xbda65e72	-0.08123483
214	0xbd1b03cc	-0.037845418
215	0x3c6eccc7	0.01457519
216	0x3babc9f6	0.0052425815
217	0xbd98c23e	-0.07458924
218	0xbd6fd5a3	-0.05855335
219	0xbe13419b	-0.14380495
220	0x3e4fca88	0.20292103
221	0x3dfe3fb5	0.12414495
222	0xbd5cb7c0	-0.053886175
223	0xbd710b08	-0.05884841
224	0xbe38e45a	-0.18055859
225	0xbd940be3	-0.0722883
226	0x3c2c293f	0.010507881
227	0x3cfd803d	0.030944938
228	0xbd68c797	-0.05683097
229	0x3dbdddde	0.092708334
230	0x3cf5f96b	0.030026158
231	0x3d50ff10	0.051024497
232	0x3dd0156b	0.10160335
233	0x3d0746cc	0.0330265
234	0xbc85800a	-0.016296405
235	0xbe095045	-0.13409527
236	0xbd429164	-0.047501937
237	0xbd13e3bc	-0.036105856
238	0xbb36bc38	-0.0027883183
239	0xbdb48e0a	-0.08816154
240	0x3cb8f3d0	0.022577196
241	0x3c57f415	0.013180752
242	0x3d89dd2f	0.067316405
243	0x3d286022	0.041107304
244	0xbc40a90f	-0.011759057
245	0xbdcc8e82	-0.09988119
246	0x3ce77e77	0.028258545
247	0xbe029d18	-0.12755239
248	0xbe0f19d3	-0.13974695
249	0xbd2a5a2d	-0.041589905
250	0x3d9374f4	0.072000414
251	0x3d835835	0.064133085
252	0x3dc2c9ab	0.09511121
253	0x3d006771	0.03134865
254	0xbd8a9d21	-0.06768251
255	0xbd389659	-0.045065258

bias f4 [64]
0	0xbdeb06b8	-0.11475891
1	0x3da5deb4	0.08099118
2	0xbd1a6d51	-0.03770191
3	0xbe04dc36	-0.12974629
4	0xbcb4e5ad	-0.022082174
5	0x3df9091f	0.12159943
6	0xbda1c350	-0.07898581
7	0xbd9cb71f	-0.07652115
8	0x3d8773e1	0.06613899
9	0xbd01b933	-0.03167076
10	0x3cb6e59b	0.022326281
11	0x3e07066c	0.13186044
12	0xbe191dca	-0.1495277
13	0x3e05db05	0.1307183
14	0xbd57a9b7	-0.052652087
15	0x3c4b2316	0.012398502
16	0xbdc547f9	-0.09632868
17	0x3d4a73f4	0.049426988
18	0xbd9658d3	-0.073411606
19	0xbca3f6de	-0.020015176
20	0x3d8667bc	0.065627545
21	0x3c36e387	0.011162645
22	0xbe01870c	-0.12649173
23	0xbd81222d	-0.06305347
24	0x3d17bfbf	0.037048098
25	0xbce2124a	-0.027596612
26	0xbe0600f4	-0.13086301
27	0x3dd1a00b	0.10235604
28	0x3d869e3c	0.065731496
29	0x3cdd532f	0.027017204
30	0x3c86764f	0.016413836
31	0xbdc971ae	-0.09836136
32	0x3d9b0d52	0.075709
33	0x3d8635b9	0.065532155
34	0xbc33b2b8	-0.010967903
35	0x3d83734a	0.06418474
36	0xbbdfe826	-0.006833094
37	0xbda0fbfb	-0.078605615
38	0x3e29ab67	0.16569291
39	0xbc2f66b7	-0.0107056415
40	0x3d8caaaa	0.06868489
41	0xbe33071c	-0.17483181
42	0xbd671e4b	-0.056425374
43	0x3e07e9f0	0.13272834
44	0xbe04b15c	-0.12958282
45	0xbe1bd2af	-0.15217088
46	0xbe080b60	-0.13285589
47	0xbc0417e7	-0.008062339
48	0x3d76e9ed	0.060281683
49	0x3d8a8f57	0.06765621
50	0x3ce5758a	0.028010149
51	0xbd24fb4d	-0.04027872
52	0xbdaee4bd	-0.08539722
53	0xbd2925b8	-0.041295737
54	0x3d906d3a	0.07052083
55	0x3bfd962c	0.007738849
56	0x3d44b689	0.04802564
57	0xbc49f981	-0.012327553
58	0xbd726096	-0.059174143
59	0xbd2d5f1c	-0.04232703
60	0xbd405146	-0.04695251
61	0x3ddf02d3	0.108892106
62	0xbd9f38d5	-0.07774512
63	0x3d214803	0.039375316

weight f4 [1, 64]
0	0xbd047d94	-0.032346323
1	0x3afc478c	0.0019247397
2	0x3dd45b49	0.10368974
3	0x3d02ec3f	0.031963583
4	0x3db50660	0.088391066
5	0x3d9558eb	0.072923504
6	0xbcef7093	-0.029228484
7	0xbd327b8c	-0.043574855
8	0x3d62a067	0.055328753
9	0x3d584573	0.052800607
10	0xbd178b79	-0.036998246
11	0x3d7bb43d	0.061451185
12	0x3d9847cb	0.074355684
13	0xbd1454c9	-0.03621367
14	0x3c9dedfd	0.01927852
15	0xbc6a6693	-0.014306682
16	0x3c822732	0.01588783
17	0xbd6031ea	-0.0547351
18	0xb90587bc	-0.00012734433
19	0x3d84d073	0.06485071
20	0xbd5931f1	-0.053026143
21	0xbcb2424c	-0.021760128
22	0x3d1be56c	0.03806059
23	0xbc6a4a81	-0.01429999
24	0x3d144dd1	0.036207024
25	0xbccfafa4	-0.025352307
26	0xbd9a65cc	-0.075389475
27	0xba88e7db	-0.0010445075
28	0xbc05cddf	-0.008166759
29	0x3d5311e9	0.051530752
30	0xbcbb78d0	-0.022884756
31	0xbda6206f	-0.08111655
32	0x3d888e1c	0.0666773
33	0xbd48d7c1	-0.049033884
34	0xbb07c740	-0.0020718127
35	0xbd59f03f	-0.053207632
36	0xbd7cb9fb	-0.061700802
37	0x3dafde72	0.0858735
38	0x3bd79123	0.006578581
39	0xbd64dc5c	-0.055874214
40	0xbd4efe42	-0.050535448
41	0xbd631905	-0.055443782
42	0xbbf62362	-0.007511542
43	0xbd9fe874	-0.07808009
44	0xbd52130f	-0.051287707
45	0x3d211a6c	0.03933184
46	0x3d8461d6	0.06463973
47	0x3d129df7	0.03579518
48	0xbd751519	-0.059834573
49	0x3d9a0c33	0.07521858
50	0xba9cf45b	-0.0011974679
51	0xbd01b516	-0.031666838
52	0x3cbc134c	0.02295842
53	0x3d9731e4	0.07382563
54	0x3dac2807	0.08406072
55	0x3d8cd08f	0.06875717
56	0x3d839d8a	0.064265326
57	0xbd03f6b5	-0.0322177
58	0xbc99f293	-0.018792426
59	0x3ddf03a3	0.108893655
60	0x3d789553	0.06068928
61	0x3d289c7e	0.041164868
62	0xbc94119e	-0.018074807
63	0x3ce2744d	0.027643347

weight f4 [64]
0	0x3f77f2f9	0.9685512
1	0x3f800000	1.0
2	0x3f7311e7	0.9494919
3	0x3f7d903f	0.9904823
4	0x3f800000	1.0
5	0x3f800000	1.0
6	0x3f7c8a32	0.9864837
7	0x3f82a442	1.0206378
8	0x3f7a5275	0.9778207
9	0x3f800000	1.0
10	0x3f86870e	1.0509965
11	0x3f7738be	0.96570957
12	0x3f800000	1.0
13	0x3f813ca9	1.0096637
14	0x3f7edef5	0.99558955
15	0x3f75f675	0.9607919
16	0x3f800000	1.0
17	0x3fa08eec	1.2543616
18	0x3f800000	1.0
19	0x3f74b5ca	0.9558989
20	0x3f7cba9d	0.9872225
21	0x3f800000	1.0
22	0x3f800000	1.0
23	0x3f800000	1.0
24	0x3f800000	1.0
25	0x3f80fe48	1.00776
26	0x3f6e80ed	0.93165475
27	0x3f800000	1.0
28	0x3f800000	1.0
29	0x3f802714	1.0011926
30	0x3f800000	1.0
31	0x3f804de2	1.0023768
32	0x3f800000	1.0
33	0x3f800000	1.0
34	0x3f7ab9ff	0.9794006
35	0x3f7f6218	0.99759054
36	0x3f800000	1.0
37	0x3f762c37	0.96161216
38	0x3f7820d6	0.96925104
39	0x3f80e427	1.0069627
40	0x3f806e76	1.003371
41	0x3f82c4b0	1.0216274
42	0x3f7cfbb3	0.9882156
43	0x3f800000	1.0
44	0x3f800000	1.0
45	0x3f81379f	1.0095099
46	0x3f80a740	1.0051041
47	0x3f86525c	1.0493884
48	0x3f80f1d6	1.0073802
49	0x3f800000	1.0
50	0x3f7532b0	0.9578047
51	0x3f7e62db	0.9936959
52	0x3f7e19b7	0.9925799
53	0x3f7921c7	0.97317165
54	0x3f800000	1.0
55	0x3f800000	1.0
56	0x3f800000	1.0
57	0x3f800000	1.0
58	0x3f70e9e9	0.9410692
59	0x3f99bb89	1.2010356
60	0x3f7c1ca6	0.98481214
61	0x3f7e74b8	0.9939685
62	0x3f73046e	0.94928634
63	0x3f800000	1.0

bias f4 [64]
0	0xbd01c10d	-0.03167825
1	0x3c5feca1	0.013667257
2	0xbc553742	-0.013013663
3	0xbc68740c	-0.014187824
4	0x3d43aa3c	0.04776977
5	0xbc25403e	-0.010086117
6	0xbd17bffb	-0.03704832
7	0xbd515d1e	-0.051114194
8	0xbceec975	-0.029148797
9	0x3ccc2f70	0.024924964
10	0xbd0717ee	-0.032981806
11	0xbb103116	-0.0022001914
12	0x3ca5b5fb	0.020228377
13	0xbd2bf771	-0.041984025
14	0x3d274bf2	0.04084391
15	0x3bd98b6a	0.006638934
16	0x3d504cd5	0.050854523
17	0x3c1e376d	0.009656769
18	0x3b1ab8ea	0.0023608753
19	0x3d2072f9	0.039172146
20	0xba97fea4	-0.0011596275
21	0xbb81eda2	-0.0039650956
22	0xbb416b42	-0.0029513394
23	0xbd872c5a	-0.06600256
24	0xbbad73bf	-0.005293339
25	0xbd8b7054	-0.06808534
26	0xbcff5f87	-0.03117348
27	0x3cb8d666	0.02256317
28	0xbccbafe5	-0.024864146
29	0x3d21cb6b	0.039500635
30	0xbcc27061	-0.023735227
31	0xbbf9a89e	-0.0076189777
32	0x3d0472e4	0.03233613
33	0xbb1e8879	-0.002419023
34	0x3d10f76c	0.03539221
35	0xbcb74a9f	-0.02237445
36	0xbd16f17a	-0.036851384
37	0x3d16dcf2	0.036831804
38	0xbc2dd054	-0.010608751
39	0xbcb33109	-0.021873968
40	0x39b768d4	0.00034982583
41	0x3888b27b	6.51823e-05
42	0x3c1294b3	0.0089465855
43	0x3c4fa44e	0.012673451
44	0x3c44666d	0.011987311
45	0x3c5f09b6	0.013613155
46	0x3cfd8498	0.030947015
47	0x3c35466e	0.011064155
48	0xbd9f2e03	-0.07772448
49	0xbbf9f829	-0.00762846
50	0xbb091637	-0.0020917782
51	0xbb173bd5	-0.0023076434
52	0x3c7a09ca	0.015261123
53	0x3d231afd	0.03982066
54	0x3d269852	0.040672608
55	0x3c2b30dd	0.010448662
56	0x3d1f192f	0.038842376
57	0x3b59b796	0.0033220998
58	0xbb9ebc4f	-0.0048442255
59	0x3b1dfe12	0.0024107737
60	0x3c64098d	0.013918293
61	0x3d13b50f	0.036061343
62	0x3ca0abde	0.019613203
63	0xbb97763b	-0.0046222485

running_mean f4 [64]
0	0x3cc11efa	0.023574341
1	0x00000000	0.0
2	0x3da26558	0.07929486
3	0x3e78292f	0.2423446
4	0x00000000	0.0
5	0x00000000	0.0
6	0x3dfc0435	0.1230549
7	0x3e564c12	0.20927456
8	0x3e27aeb0	0.16375232
9	0x00000000	0.0
10	0x39693fd2	0.00022244386
11	0x3e74c2c1	0.23902418
12	0x00000000	0.0
13	0x3e2bba4f	0.1677029
14	0x39b2cea5	0.00034104768
15	0x3d7d4773	0.061835717
16	0x00000000	0.0
17	0x397959f5	0.00023780002
18	0x00000000	0.0
19	0x3bea0e85	0.007142844
20	0x3d338bcd	0.043834496
21	0x00000000	0.0
22	0x00000000	0.0
23	0x00000000	0.0
24	0x00000000	0.0
25	0x3de726d0	0.112867
26	0x3e4b574c	0.1985752
27	0x00000000	0.0
28	0x00000000	0.0
29	0x3e4759b4	0.19467813
30	0x00000000	0.0
31	0x3b2bb65a	0.002620122
32	0x00000000	0.0
33	0x00000000	0.0
34	0x3e686f23	0.22698645
35	0x3d2b33cc	0.041797444
36	0x00000000	0.0
37	0x3ea0dfae	0.31420654
38	0x3e084eb2	0.1331127
39	0x390ecd05	0.00013618551
40	0x3c5ad014	0.013355274
41	0x3e23e58e	0.16005537
42	0x3d917ae9	0.071035214
43	0x00000000	0.0
44	0x00000000	0.0
45	0x3dd3a9c4	0.103351146
46	0x3eb1994b	0.34687266
47	0x3c03acdc	0.008036818
48	0x3ca1408b	0.019684097
49	0x00000000	0.0
50	0x3e8f1d7d	0.27952185
51	0x00000004	6e-45
52	0x3cce8f4f	0.02521482
53	0x3e97fb5c	0.2968396
54	0x00000000	0.0
55	0x00000000	0.0
56	0x00000000	0.0
57	0x00000000	0.0
58	0x3ce02b2e	0.02736434
59	0x393ced8c	0.0001801757
60	0x3dd5674f	0.10420095
61	0x3d46eff5	0.048568685
62	0x3e9a7d02	0.30173498
63	0x00000000	0.0

running_var f4 [64]
0	0x396d6b89	0.00022642141
1	0x00000004	6e-45
2	0x399aee90	0.00029550912
3	0x3652cb71	3.1410857e-06
4	0x00000004	6e-45
5	0x00000004	6e-45
6	0x3991065d	0.00027661296
7	0x39369302	0.00017411637
8	0x399113fe	0.0002767145
9	0x00000004	6e-45
10	0x370e1699	8.469121e-06
11	0x38559cad	5.0929073e-05
12	0x00000004	6e-45
13	0x395c21a0	0.00020993361
14	0x378d25d7	1.682613e-05
15	0x39b75896	0.00034970482
16	0x00000004	6e-45
17	0x36a4f15f	4.91568e-06
18	0x00000004	6e-45
19	0x390f6c46	0.00013677878
20	0x3a0b0cbe	0.0005304328
21	0x00000004	6e-45
22	0x00000004	6e-45
23	0x00000004	6e-45
24	0x00000004	6e-45
25	0x3a79a93a	0.0009523813
26	0x34fd717e	4.72075e-07
27	0x00000004	6e-45
28	0x00000004	6e-45
29	0x3a7e43fd	0.0009699462
30	0x00000004	6e-45
31	0x390a7e4e	0.00013207758
32	0x00000004	6e-45
33	0x00000004	6e-45
34	0x3811e991	3.478822e-05
35	0x39236a67	0.0001558453
36	0x00000004	6e-45
37	0x39cf9c1c	0.00039598427
38	0x39fbe9c7	0.00048048628
39	0x3696dfb9	4.496393e-06
40	0x39eb6a5c	0.00044901937
41	0x395fd48e	0.0002134612
42	0x38b5a2d7	8.661084e-05
43	0x00000004	6e-45
44	0x00000004	6e-45
45	0x3981eb4a	0.000247801
46	0x3a2942c0	0.0006456785
47	0x3916c008	0.00014376652
48	0x380013b5	3.053593e-05
49	0x00000004	6e-45
50	0x38573bfa	5.1315852e-05
51	0x00000004	6e-45
52	0x39b32c98	0.00034174765
53	0x39a5c7da	0.00031620153
54	0x00000004	6e-45
55	0x00000004	6e-45
56	0x00000004	6e-45
57	0x00000004	6e-45
58	0x380ae63e	3.3116194e-05
59	0x37041361	7.872325e-06
60	0x391f4c0a	0.00015191748
61	0x38ee05bd	0.00011349793
62	0x34a74842	3.1158748e-07
63	0x00000004	6e-45

weight f4 [64]
0	0x3f7428dc	0.95374846
1	0x3f788308	0.9707494
2	0x3f84a125	1.0361677
3	0x3f80b36f	1.0054759
4	0x3f831596	1.0240963
5	0x3f757414	0.95880246
6	0x3f77ec14	0.968446
7	0x3f7d7514	0.9900677
8	0x3f8007a1	1.0002328
9	0x3f7b8bca	0.98260176
10	0x3f772539	0.9654117
11	0x3f78dd93	0.97213095
12	0x3f7acf28	0.97972345
13	0x3f77ce4f	0.96799177
14	0x3f7aaf78	0.97923994
15	0x3f786d35	0.97041637
16	0x3f79b848	0.97546816
17	0x3f7fac68	0.99872446
18	0x3f6eb248	0.93240786
19	0x3f77e9d9	0.968412
20	0x3f7c5fa4	0.98583436
21	0x3f793fb8	0.9736285
22	0x3f7af790	0.98034
23	0x3f740f6c	0.9533603
24	0x3f7b5e39	0.9819065
25	0x3f7db9a8	0.99111414
26	0x3f7b8118	0.98243856
27	0x3f768635	0.96298534
28	0x3f773dd5	0.96578723
29	0x3f75bc9e	0.9599093
30	0x3f7dd987	0.99160045
31	0x3f7d95bc	0.990566
32	0x3f7f0261	0.99613005
33	0x3f7c89b7	0.98647636
34	0x3f75d979	0.9603496
35	0x3f77b9a9	0.9676767
36	0x3f80ab6a	1.0052311
37	0x3f7db781	0.9910813
38	0x3f752297	0.95755905
39	0x3f762272	0.9614631
40	0x3f78676e	0.9703282
41	0x3f72b15d	0.94801885
42	0x3f6f42f6	0.9346155
43	0x3f79228a	0.9731833
44	0x3f747fa1	0.95507246
45	0x3f7e61c8	0.9936795
46	0x3f776cb5	0.9665025
47	0x3f814613	1.009951
48	0x3f79c006	0.9755863
49	0x3f7903b9	0.97271305
50	0x3f723930	0.9461851
51	0x3f7e9446	0.99445
52	0x3f7b7e12	0.98239243
53	0x3f770010	0.9648447
54	0x3f7a671b	0.97813576
55	0x3f7611ca	0.96120894
56	0x3f7de7bb	0.9918172
57	0x3f78799b	0.97060555
58	0x3f775cef	0.9662618
59	0x3f7e5a1c	0.99356246
60	0x3f7eab0e	0.9947976
61	0x3f77b67b	0.9676282
62	0x3f794b0c	0.9738014
63	0x3f72a6dd	0.94785863

bias f4 [64]
0	0xbcea1486	-0.02857424
1	0x3cc17712	0.023616347
2	0x3ca5cebc	0.02024018
3	0x3d34b972	0.044122167
4	0x3caac7e0	0.020847261
5	0x3cded6ea	0.027202088
6	0xbd13ac2d	-0.03605287
7	0xbbcb7c44	-0.006209882
8	0x3c9ccaa9	0.019139605
9	0x3c15582f	0.009115263
10	0xbc30b730	-0.010785863
11	0x3d042f3e	0.032271616
12	0x3d4dfe88	0.050291568
13	0xbd2b01ab	-0.041749638
14	0x3cec6d7a	0.028860796
15	0xbd23c2cc	-0.039980695
16	0x3c91d7d4	0.01780311
17	0xbd267827	-0.04064193
18	0xbc0b72d9	-0.0085112685
19	0x3c97b4b6	0.018518787
20	0xbc85bc0c	-0.01632502
21	0xbcb20f0d	-0.021735692
22	0x3d0b7d0c	0.0340548
23	0xbd11a1d5	-0.035554726
24	0x3d0b8069	0.03405801
25	0xbd22ef3a	-0.039778925
26	0xbcf54487	-0.029939903
27	0xbc94f748	-0.01818432
28	0x3c048306	0.008087879
29	0x3cf9d7a9	0.030498343
30	0xbcd19adf	-0.025586544
31	0xbd147bde	-0.03625094
32	0x3cec9310	0.028878719
33	0xbc78ee6f	-0.015193566
34	0xbc807e61	-0.015685262
35	0xbc6453ae	-0.013935966
36	0xbd52f55e	-0.05150353
37	0x3cf40923	0.029789513
38	0xbc6b7350	-0.014370754
39	0xbd052276	-0.032503568
40	0xbd5e7c4a	-0.05431775
41	0xbc94d89f	-0.0181697
42	0x3d1faf28	0.0389854
43	0xbc8735d1	-0.016505154
44	0xbcd21b8b	-0.0256479
45	0x3d117ae6	0.035517596
46	0x3cc9c33e	0.024629232
47	0x3d496a07	0.04917338
48	0xbd0062d2	-0.031344242
49	0x3d696921	0.056985024
50	0xbc903e82	-0.017607931
51	0xbd457f6b	-0.04821722
52	0x3b905f3c	0.004405884
53	0x3c381903	0.011236432
54	0x3ca4d6b3	0.020121908
55	0x3d0d0759	0.034430835
56	0x3c674acd	0.014116955
57	0xbd2061d5	-0.0391558
58	0xbcafe363	-0.021470731
59	0x3d326eb4	0.043562606
60	0x3cde6e26	0.027152132
61	0x3c6c90a7	0.014438785
62	0xbc399400	-0.01132679
63	0x3cabafe2	0.02095789

running_mean f4 [64]
0	0x3d8e18b3	0.06938305
1	0x3e418311	0.18897654
2	0x3cc98921	0.024601521
3	0x3d37e953	0.04490025
4	0x3db4a75f	0.08820986
5	0x3ee5b601	0.4486542
6	0x3ed32e07	0.41246054
7	0x3e59647d	0.2122974
8	0x3dcdf417	0.10056322
9	0x3dfe444a	0.12415369
10	0x3ee259e3	0.44209203
11	0x3eea0bd8	0.4571216
12	0x3e1ebc2e	0.15501472
13	0x3ea6f073	0.32605323
14	0x3e59fa95	0.21286996
15	0x3e8465ec	0.2585901
16	0x3e44e08c	0.19226283
17	0x3e58d397	0.21174465
18	0x3cf8b84c	0.030361317
19	0x3e761204	0.2403031
20	0x3e50e771	0.20400788
21	0x3e99aba4	0.30013764
22	0x3dc4ca6a	0.0960892
23	0x3de25712	0.110517636
24	0x3e9cff30	0.30663443
25	0x3e8ed944	0.27900136
26	0x3e0f0cb3	0.13969688
27	0x3e3c7e16	0.18407473
28	0x3dce7769	0.100813694
29	0x3dbf97e7	0.09355145
30	0x3e72f15c	0.23724884
31	0x3d63833f	0.055545088
32	0x3e494866	0.19656524
33	0x3e0b40bb	0.13598911
34	0x3e996a40	0.29963875
35	0x3eac3945	0.33637443
36	0x3e0c4d15	0.1370128
37	0x3e5e3c53	0.217027
38	0x3eaf4b2a	0.34237033
39	0x3e897fc3	0.26855287
40	0x3dfc771e	0.12327407
41	0x3d909eff	0.07061576
42	0x3db7bf4d	0.089720346
43	0x3e502b5c	0.2032904
44	0x3e693be8	0.22776759
45	0x3d6b8a9c	0.057505235
46	0x3e9a03f9	0.30081156
47	0x3e107e69	0.14110722
48	0x3da20205	0.079105414
49	0x3eaaaeeb	0.33336577
50	0x3e81357e	0.25236124
51	0x3e5539da	0.2082285
52	0x3e720d02	0.23637775
53	0x3d4dc2f8	0.050234765
54	0x3e0b5262	0.13605645
55	0x3e136250	0.14392972
56	0x3d6821e3	0.056672942
57	0x3e75ff89	0.2402326
58	0x3e42b211	0.1901324
59	0x3dd71dbc	0.10503718
60	0x3eb8450b	0.35990176
61	0x3ea02477	0.3127782
62	0x3e321533	0.173909
63	0x3df50666	0.11964111

running_var f4 [64]
0	0x3ccedbc1	0.025251271
1	0x3e558356	0.20850882
2	0x3c37d39d	0.011219886
3	0x3c523f56	0.012832483
4	0x3d390a33	0.045175742
5	0x3ec98407	0.3935854
6	0x3eacd741	0.33757976
7	0x3e6e1e74	0.23253804
8	0x3d8a28f5	0.06746093
9	0x3ca10d6d	0.019659722
10	0x3eb3a0a9	0.3508351
11	0x3edb25fe	0.42802423
12	0x3dc758db	0.09733745
13	0x3e0819d9	0.1329111
14	0x3e8ff9fe	0.28120416
15	0x3e210f72	0.15728548
16	0x3e81c621	0.25346473
17	0x3e2548c2	0.16141036
18	0x3c125f5b	0.008933867
19	0x3e259b59	0.16172542
20	0x3e18d4f8	0.14924991
21	0x3e4aff93	0.19824056
22	0x3d90d78a	0.07072361
23	0x3c4dfe85	0.012572889
24	0x3e950982	0.29108816
25	0x3e958fb9	0.29211214
26	0x3d4df343	0.05028082
27	0x3da9509a	0.08267327
28	0x3d662a41	0.05619264
29	0x3c99368d	0.01870277
30	0x3ea60d38	0.3243196
31	0x3bba813b	0.005691675
32	0x3da65318	0.081213176
33	0x3d3842ef	0.044985708
34	0x3e3b946c	0.18318337
35	0x3ecb2889	0.39679363
36	0x3de22b8b	0.110434614
37	0x3dc5bc1a	0.09655018
38	0x3d6a6f49	0.057235036
39	0x3e1098cf	0.14120792
40	0x3d995181	0.07486249
41	0x3d09af05	0.033614177
42	0x3da94ef5	0.08267013
43	0x3e2626bc	0.16225713
44	0x3dff50ca	0.12466581
45	0x3c5faa5f	0.0136514595
46	0x3e737630	0.23775554
47	0x3d864834	0.065567404
48	0x3c28dc50	0.010306433
49	0x3e75900e	0.23980734
50	0x3e9b4f1f	0.30333802
51	0x3da2b025	0.07943753
52	0x3e3e4105	0.1857949
53	0x3c80f938	0.015743837
54	0x3dadcc99	0.084862895
55	0x3d7757ce	0.06038647
56	0x3b9af75c	0.0047291946
57	0x3e0b765c	0.1361937
58	0x3d9b3566	0.07578544
59	0x3da564d6	0.080758736
60	0x3f299dd1	0.66256434
61	0x3e8c2edb	0.27379498
62	0x3e36c7e3	0.17849688
63	0x3d564d34	0.05231972
