parameters_DffNetwork_Adam_0.001_250.pth (torch, 10519 bytes, 5 tensors)

weight f4 [36, 12]
0	0xbe0724ce	-0.13197634
1	0xbe45dc4d	-0.1932232
2	0xbe776daa	-0.24162927
3	0x3d6c5b64	0.057704344
4	0xbc8617bb	-0.016368737
5	0x3d9494f4	0.07254973
6	0x3e5202c2	0.20508865
7	0x3aafbfc0	0.0013408586
8	0x3e7ada0a	0.24497238
9	0xbe401584	-0.18758208
10	0xbe338250	-0.17530179
11	0x3c534d3f	0.012896835
12	0x3e079289	0.13239492
13	0x3c627554	0.0138219185
14	0xbe0ac4c9	-0.1355163
15	0x3c634371	0.01387106
16	0xbe16fbec	-0.14744538
17	0xbe860b6c	-0.2618059
18	0x3e25ff8d	0.16210766
19	0xbc6a0b1a	-0.014284873
20	0x3e838b65	0.25692287
21	0xbe9109e9	-0.28327873
22	0xbe7625d0	-0.24037862
23	0x3e852696	0.26006
24	0x3d2b36ed	0.04180043
25	0xbdd35b52	-0.10320152
26	0x3b9dbf75	0.004814083
27	0xbe8bb48d	-0.27286187
28	0xbe8e8c4e	-0.2784142
29	0x3d033c08	0.032039672
30	0x3e8265c3	0.25468263
31	0x398821d3	0.00025965142
32	0xbe88db74	-0.2672993
33	0xbee8a6d3	-0.45439777
34	0x3ddee9a4	0.10884407
35	0x3cb6e192	0.022324357
36	0x3e085917	0.13315235
37	0x3e50abd9	0.20378055
38	0xbe09d986	-0.13461885
39	0x3e3e7710	0.18600106
40	0xbdbebdd9	-0.09313554
41	0xbd1acb56	-0.037791573
42	0xbe27b754	-0.16378528
43	0x3d953fa2	0.072875276
44	0x3e8ba53e	0.27274507
45	0xbe140d49	-0.14458193
46	0x3e210f9f	0.15728615
47	0xbe8800a6	-0.26562995
48	0x3cb45fbd	0.022018308
49	0x3e3280c1	0.17431928
50	0xbe0f7b00	-0.14011765
51	0xbf384b5e	-0.7199
52	0xbe348dfa	-0.17632285
53	0xbd0a835b	-0.033816677
54	0x3d428fb1	0.047500316
55	0x3e1b2ddf	0.15154217
56	0x3c26b415	0.010174771
57	0xbeab22c0	-0.3342495
58	0x3e157f41	0.14599325
59	0xbdf54815	-0.11976639
60	0x3d8ebb8f	0.06969368
61	0xbd9332ee	-0.071874484
62	0x3e1ba412	0.15199307
63	0x3dfc1108	0.12307936
64	0x3e0eeaec	0.13956803
65	0xbe9111a2	-0.28333765
66	0xbde5e6d1	-0.11225665
67	0x3c71f300	0.014767408
68	0x3c5814a6	0.013188517
69	0x3e42662f	0.18984292
70	0x3d765945	0.060143728
71	0x3e8eb628	0.2787335
72	0x3e580f5d	0.2109961
73	0xbe251b38	-0.16123664
74	0x3e6cc1fa	0.23120871
75	0xbe6fdfd9	-0.23425235
76	0xbe4c55bf	-0.19954585
77	0x3e06c8ef	0.13162588
78	0x3e892307	0.26784536
79	0xbda53c29	-0.08068115
80	0x3d9bc411	0.07605756
81	0x3d955dda	0.072932914
82	0xbb6387b7	-0.0034718344
83	0x3e15b17f	0.1461849
84	0xbe427f0c	-0.18993777
85	0xbda89cff	-0.0823307
86	0x3e264742	0.1623812
87	0x3e004d93	0.12529592
88	0x3e54f0bc	0.20794958
89	0xbe5ee05c	-0.21765274
90	0xbdce9c4d	-0.10088406
91	0x3e0f4ccd	0.13994141
92	0xbe1bee16	-0.15227541
93	0xbe9111d2	-0.28333908
94	0xbd349e37	-0.044096198
95	0xbdde9e48	-0.108700335
96	0xbdf616a0	-0.12016034
97	0x3e99089b	0.29889378
98	0x3ebdd9ea	0.37080318
99	0x3f314cd8	0.6925788
100	0xbd3ead96	-0.046552263
101	0xbd87d49d	-0.0663235
102	0xbe88d55d	-0.26725283
103	0x3cd65e9a	0.026168156
104	0xbca4e8a2	-0.02013046
105	0x3e51ffb0	0.20507693
106	0xbecbca93	-0.3980299
107	0xbe3f94a8	-0.18709052
108	0xbdd6d356	-0.10489528
109	0x3e375b3e	0.179059
110	0xbda03213	-0.07822051
111	0xbd81a83a	-0.06330915
112	0xbe8fe7e3	-0.28106603
113	0xbe929fab	-0.28637442
114	0xbe04b1c4	-0.12958437
115	0x3ca83779	0.020534264
116	0xbe664c18	-0.22489965
117	0x3e6d9467	0.23201142
118	0xbcb507c3	-0.022098428
119	0xbe46711f	-0.1937909
120	0x3e85abfc	0.26107776
121	0x3e1a9e4b	0.15099446
122	0x3e4de8c4	0.20108324
123	0x3f10eb6e	0.5660924
124	0x3d7f364c	0.06230764
125	0xbe4f6baa	-0.20255914
126	0xbdb9b709	-0.09068114
127	0xbd92bc9b	-0.0716488
128	0xbd7ce5d6	-0.061742626
129	0x3d5b51f2	0.053544946
130	0xbed0f933	-0.40815124
131	0xbd2d0d60	-0.042249084
132	0xbddd4e51	-0.10805953
133	0xbd9b053c	-0.07569358
134	0x3e4feec8	0.20305932
135	0xbcc13ed6	-0.023589533
136	0xbc21cf95	-0.009876152
137	0xbdbbf3e2	-0.09177376
138	0x3ddbd414	0.1073381
139	0x3d8b4e62	0.0680206
140	0xbe07a409	-0.13246168
141	0x3e0adae5	0.13560064
142	0x3e05b446	0.1305705
143	0x3bc56c60	0.006024882
144	0xbdedbe36	-0.116085455
145	0x3da55d5e	0.08074449
146	0x3d883f6b	0.06652721
147	0xbeeb0a20	-0.45906162
148	0xbbcd12b4	-0.006258333
149	0xbe8b5e7c	-0.27220523
150	0x3c6e6462	0.0145503
151	0xbdad81cf	-0.08472025
152	0x3c936fe4	0.01799769
153	0xbf2a4b00	-0.6652069
154	0x3e067da0	0.1313386
155	0x3e7dd145	0.24786861
156	0x3e0c2c58	0.13688791
157	0xbd6a935a	-0.05726943
158	0x3d7903ea	0.06079475
159	0xbd3e784e	-0.04650145
160	0xbdc42538	-0.095774114
161	0xbe37f50a	-0.17964569
162	0xbdf3406e	-0.11877523
163	0x3db21f8c	0.08697423
164	0xbe43046a	-0.19044653
165	0xbd6d4755	-0.057929356
166	0xbd430de2	-0.04762066
167	0xbde42f3d	-0.111418225
168	0x3def9578	0.11698431
169	0x3de141e3	0.10998895
170	0xbe80bb22	-0.2514277
171	0x3dc0274e	0.09382497
172	0xbce5fd88	-0.028074995
173	0xbe6c2824	-0.23062187
174	0xbe7adf5c	-0.24499267
175	0xbe0027d4	-0.12515193
176	0xbe546700	-0.20742416
177	0x3e2308d2	0.15921333
178	0xbe15b086	-0.1461812
179	0x3d13b2ec	0.036059305
180	0x3e82510a	0.25452453
181	0xbdb3ceb6	-0.08779661
182	0xbdd19f1e	-0.10235427
183	0xbdbf838e	-0.09351264
184	0x3d8d5432	0.069008246
185	0xbd924fc7	-0.071441226
186	0x3e052e6b	0.13005988
187	0x3e4330b5	0.19061549
188	0xbe174528	-0.14772475
189	0xbe587ae5	-0.2114063
190	0xbdda2098	-0.10650748
191	0x3b62d0b1	0.0034609253
192	0x3ea0a74d	0.3137764
193	0xbdde2dd7	-0.10848587
194	0xbd571208	-0.05250743
195	0x3f78e6f0	0.9722738
196	0x3eae7a46	0.34077662
197	0x3eb3f689	0.3514903
198	0xbe18ff81	-0.14941217
199	0x3d939f5e	0.07208131
200	0x3e07ee7a	0.13274565
201	0x3f0e963e	0.55698
202	0xbebf99f2	-0.37422138
203	0xbde56e2c	-0.11202654
204	0x3e34f418	0.1767124
205	0xbe0bda3d	-0.1365747
206	0x3dff47bd	0.12464855
207	0xbe13566d	-0.14388438
208	0x3cf98c18	0.03046231
209	0x3e8c6491	0.27420476
210	0xbe362dfe	-0.17790982
211	0x3e895384	0.2682153
212	0xbe051cca	-0.12999263
213	0xbe1d5ba2	-0.15366986
214	0xbe47313e	-0.19452378
215	0x3e8f8d31	0.28037408
216	0xbe8d9fcb	-0.27660975
217	0x3da8623c	0.08221862
218	0xbe140f5a	-0.14458981
219	0x3e7269bf	0.23673151
220	0xbe8dfcd7	-0.27731964
221	0x3e714ee8	0.23565257
222	0xbe527e64	-0.20556027
223	0x3e75d47a	0.24006835
224	0xbe7c2d50	-0.2462666
225	0x3cb44205	0.022004137
226	0xbdc58dc6	-0.09646182
227	0xbe85e59c	-0.2615174
228	0xbd344d54	-0.04401906
229	0xbe8e4165	-0.27784267
230	0x3e6a2759	0.22866572
231	0xbea5a4a5	-0.32352176
232	0xbe811886	-0.25214022
233	0x3e386dc4	0.18010622
234	0xbe2ee5bf	-0.17079829
235	0x3e84ae9a	0.2591446
236	0xbdb57267	-0.08859711
237	0xbec3d3b3	-0.3824745
238	0x3db1fa24	0.08690289
239	0xbdab1408	-0.0835343
240	0xbea39bb4	-0.3195473
241	0xbed41fd5	-0.41430536
242	0xbebe842a	-0.37210208
243	0xbdb30398	-0.0874092
244	0xbeb2e706	-0.34941882
245	0xbe8792da	-0.26479226
246	0x3c705aa4	0.014670048
247	0xbe374125	-0.17895944
248	0xbecbcb5d	-0.3980359
249	0x3e813675	0.2523686
250	0x3ebdcb00	0.3706894
251	0xbde18858	-0.11012334
252	0x3cec3aa0	0.028836548
253	0xbdf487cc	-0.11939964
254	0x3e2f8ed7	0.17144333
255	0x3b94be8f	0.004539318

bias f4 [36]
0	0xbdd73856	-0.10508792
1	0xbe060bd3	-0.13090448
2	0x3d87ed7e	0.06637095
3	0xbe375b37	-0.1790589
4	0x3e43c811	0.19119288
5	0xbe71d143	-0.23614983
6	0xba85b3a2	-0.001020063
7	0xbe614cb9	-0.22001924
8	0x3e4fdb26	0.20298442
9	0xbe024815	-0.1272281
10	0x3e54c480	0.20778084
11	0xbe09559c	-0.13411564
12	0x3cfbfee5	0.030761192
13	0x3cd4e4ff	0.0259881
14	0xbc1ab7ac	-0.009443205
15	0xbe1e27ce	-0.15444872
16	0x3e42d64e	0.19027063
17	0xbe4bc0ba	-0.19897738
18	0xbd80e801	-0.06294251
19	0x3c087cdd	0.008330551
20	0xbe457bb0	-0.19285464
21	0xbe817f79	-0.25292566
22	0x3dc0693c	0.09395072
23	0xbe730465	-0.23732145
24	0xbe8571bc	-0.26063335
25	0xbe4b77b6	-0.19869885
26	0xbe897b32	-0.26851803
27	0x3d0520d3	0.032502007
28	0xbe91d332	-0.28481442
29	0xbd8644b6	-0.06556074
30	0x3e419129	0.1890303
31	0xbe72c045	-0.23706158
32	0xbe9c725b	-0.30555996
33	0xbe289bf1	-0.16465737
34	0x3e1bab2c	0.15202016
35	0xbbe0c7ec	-0.00685977

weight f4 [36, 36]
0	0xbdae22ae	-0.085027084
1	0xbd2384b0	-0.039921463
2	0xbe10b5b5	-0.14131816
3	0x3e16c5de	0.14723918
4	0x3d5e3a19	0.054254625
5	0x3df086e3	0.117444776
6	0xbded2cb8	-0.11580795
7	0x3e15d553	0.14632158
8	0x3e50ea09	0.20401777
9	0xbd586a6b	-0.052835863
10	0x3e01fcaa	0.1269404
11	0x3e12f7fb	0.1435241
12	0xbbeef04b	-0.0072918287
13	0x3b1458d4	0.0022635954
14	0x3df7c3fe	0.120979294
15	0x3cb65440	0.02225697
16	0x3ef79a01	0.48359683
17	0xbde9bf76	-0.114134714
18	0xbd422d96	-0.047406755
19	0xbd00d235	-0.03145047
20	0x3fa8b0a4	1.3178906
21	0xbc8e1af6	-0.01734684
22	0x3f2bf21c	0.67166305
23	0x3e04fb4e	0.1298649
24	0x3cd5cda0	0.026099026
25	0x3fac8347	1.3477563
26	0x3dafa31e	0.08576034
27	0xbde9b277	-0.114109926
28	0xbd2f0ae0	-0.04273498
29	0xbb9c5100	-0.004770398
30	0x3da37a4c	0.07982311
31	0xbd28a066	-0.041168593
32	0x3fb4e14b	1.4131254
33	0x3d8353a3	0.06412437
34	0x3ddf5294	0.109044224
35	0xbd939b7e	-0.07207392
36	0xbdde891b	-0.108659945
37	0xbe11487f	-0.14187811
38	0xbd854ba9	-0.06508572
39	0x3d5a07db	0.053230148
40	0x3e219ef2	0.15783289
41	0xbdd2cf88	-0.1029349
42	0x3cced1cb	0.025246521
43	0x3e05c3c6	0.13062963
44	0xbeeb32ef	-0.45937297
45	0xbd7df496	-0.062000833
46	0xbe587c1d	-0.21141095
47	0xbdf2020b	-0.11816796
48	0x3caad86e	0.020855155
49	0x3d87d1bd	0.06631801
50	0xbde9e6e8	-0.11420995
51	0xbe11d20f	-0.14240287
52	0xbf1239e3	-0.5711958
53	0x3de4e5ae	0.111766204
54	0xbdeee116	-0.116640255
55	0x3b5783e3	0.0032885007
56	0xbfcc6aeb	-1.5970129
57	0x3dd4e398	0.103949726
58	0xbf606bdf	-0.876646
59	0xbd2f55a6	-0.04280629
60	0xbd9f88d6	-0.07789771
61	0xbfca9632	-1.5827086
62	0xbdd703c8	-0.10498768
63	0x3e26cd70	0.16289306
64	0xbe1264dc	-0.14296287
65	0xbd1372f0	-0.035998285
66	0x3c8692bf	0.016427396
67	0x3d9d8658	0.0769164
68	0xbfb51fec	-1.4150367
69	0x3dc0ffb3	0.09423771
70	0xbd101ec7	-0.0351856
71	0xbde5418e	-0.11194144
72	0xbc40482b	-0.011735956
73	0xbd0426e0	-0.032263637
74	0xbe231708	-0.15926754
75	0xbd7a2c3b	-0.061077338
76	0xbdbe9b7f	-0.09307002
77	0x3dc8f4d0	0.09812319
78	0xbc3029ab	-0.010752122
79	0x3d1548d6	0.036446415
80	0x3ea115af	0.31461856
81	0xbe061e54	-0.13097507
82	0x3e12499e	0.14285895
83	0x3d168760	0.036750197
84	0xbe0fa71a	-0.14028588
85	0xbe07d7f6	-0.13265976
86	0xbc437f80	-0.011932254
87	0xbe08d2fe	-0.13361737
88	0x3f0f0ce9	0.55879074
89	0x3d6ca10b	0.05777077
90	0xbd7f9fd0	-0.06240827
91	0xbdafb5c7	-0.08579593
92	0x3faebdfc	1.3651729
93	0x3da1deab	0.07903799
94	0x3f55b680	0.834816
95	0x3e0088da	0.12552205
96	0xbe2513f7	-0.16120897
97	0x3fa95f1c	1.323215
98	0xbe27f88b	-0.16403405
99	0x3c54573f	0.012960254
100	0x3ca5eb56	0.020253818
101	0xbcb2f636	-0.021845918
102	0x3d8d23ad	0.0689157
103	0xbd0035f0	-0.03130144
104	0x3f9fa34d	1.247171
105	0xbe110c42	-0.14164832
106	0xbda5ad50	-0.08089697
107	0xbd538f70	-0.051650465
108	0x3d2b579b	0.041831594
109	0x3e197692	0.14986637
110	0x3d541153	0.051774334
111	0xbc034916	-0.0080130305
112	0xbe23d1d8	-0.15998018
113	0xbc6a0896	-0.014284274
114	0xbe265e1a	-0.16246834
115	0xbd39ffcb	-0.04540996
116	0xbf1b5fd7	-0.60693115
117	0x3c496240	0.012291491
118	0xbebd7668	-0.370044
119	0x3e0473f7	0.12934862
120	0xbdbdec30	-0.09273565
121	0xbd77bd0b	-0.06048302
122	0x3e21b398	0.15791166
123	0x3e0f7304	0.14008719
124	0xbf061a70	-0.5238409
125	0x3dcfcc56	0.10146396
126	0xbe131a12	-0.14365414
127	0x3d7f3c66	0.06231346
128	0xbfe262a8	-1.7686357
129	0xbe039922	-0.12851384
130	0xbf85813a	-1.0430062
131	0x3bdbca56	0.00670747
132	0x3b44e156	0.0030041537
133	0xbfde6db4	-1.7377229
134	0xbd4bfe36	-0.04980298
135	0x3e25b5e1	0.16182663
136	0x3d8de7d6	0.06928985
137	0xbd188216	-0.037233435
138	0xbe88bb39	-0.2670534
139	0x3e0b0f53	0.13580064
140	0xbfd706f3	-1.6798996
141	0x3ce49d36	0.027906995
142	0xbe41e0ef	-0.18933462
143	0xbd998b30	-0.07497251
144	0xbcb85956	-0.022503536
145	0xbc75ca00	-0.015001774
146	0x3dbd5ea1	0.09246565
147	0xbddc5a66	-0.1075943
148	0x3da56bbe	0.08077191
149	0xbe269b30	-0.16270137
150	0x3d2e89e6	0.04261198
151	0xbe13109f	-0.14361809
152	0x3d916093	0.07098498
153	0xbd8315c3	-0.06400635
154	0x3ddd99c9	0.10820348
155	0xbd45afd6	-0.048263393
156	0xbe1670a7	-0.14691411
157	0xbd96d8a2	-0.07365538
158	0x3e1bda08	0.15219891
159	0xbdf7ec80	-0.12105656
160	0x3e9be43a	0.3044756
161	0x3dd7c40b	0.10535439
162	0x3e0b7992	0.13620594
163	0x396e12de	0.00022704477
164	0x3fc441ad	1.5332543
165	0xbdc82b66	-0.097739026
166	0x3f288fba	0.6584431
167	0xbe17dc53	-0.14830141
168	0x3d80db36	0.06291811
169	0x3f9d87e3	1.2307094
170	0xbdb7501b	-0.08950826
171	0x3daf11df	0.085483305
172	0xbe0230bf	-0.12713908
173	0x3dc802fe	0.09766196
174	0xbdc726c7	-0.09724193
175	0xbdfb5ec8	-0.122739375
176	0x3f99b96b	1.200971
177	0x3d6462a6	0.05575814
178	0xbdd5be7e	-0.10436724
179	0xbb333100	-0.0027342439
180	0xbe0ae2fb	-0.13563149
181	0x3df46d86	0.119349524
182	0x3e00d841	0.12582494
183	0xbca2e5a0	-0.019884884
184	0xbe12d79c	-0.14340061
185	0x3d55efa0	0.052230477
186	0x3c819a96	0.015820783
187	0x3d10e196	0.035371386
188	0x3e181072	0.14850023
189	0x3e1c5e37	0.15270315
190	0x3da2906f	0.07937705
191	0x3df52230	0.119694114
192	0x3dc71296	0.09720342
193	0x3d8ca5e6	0.0686758
194	0xbe1e8954	-0.15482074
195	0xbdcb04bb	-0.09913012
196	0x3ee00b1b	0.43758473
197	0xbcc0b50b	-0.023523828
198	0xbdb08523	-0.08619144
199	0xbda3a953	-0.079912804
200	0x3fc22283	1.5166782
201	0x3bdb7bd6	0.006698112
202	0x3f2b0c26	0.6681541
203	0x3e196dae	0.14983246
204	0x3e068836	0.13137898
205	0x3fa51f90	1.2900257
206	0xbc9ff780	-0.019527197
207	0xbe007be3	-0.12547259
208	0xbc082e96	-0.008311888
209	0xbd5c237b	-0.053744774
210	0xbdc7e1a3	-0.09759834
211	0x3e1e62e0	0.15467405
212	0x3fbf2500	1.4933167
213	0x3ca47ae0	0.020078123
214	0xbc706448	-0.014672346
215	0x3d323396	0.043506227
216	0xbcbe8116	-0.023254912
217	0xbd733550	-0.059377015
218	0xbb360d1a	-0.0027778805
219	0x3e20684b	0.15664785
220	0xbe28a76c	-0.16470116
221	0x3e0fe7bc	0.14053243
222	0xbe28fb54	-0.16502124
223	0x3dbcdd90	0.09221947
224	0x3eb16c54	0.3465296
225	0x3dd686fb	0.10474964
226	0x3e904000	0.28173828
227	0x3e05d397	0.13068996
228	0x3da63f79	0.08117575
229	0x3c292063	0.010322663
230	0x3db7f97b	0.089831315
231	0x3df7ed98	0.12105864
232	0x3e99b935	0.30024114
233	0xbd853b1e	-0.06505416
234	0x3df64e58	0.12026662
235	0xbe18a737	-0.14907537
236	0x3fbaa538	1.4581671
237	0x3dd732a8	0.10507709
238	0x3f2c1b4b	0.67229146
239	0xbd766da0	-0.06016314
240	0x3d804db8	0.06264824
241	0x3fa4e8dd	1.2883564
242	0x3e299686	0.16561326
243	0x3b5f8347	0.0034105347
244	0xbe0f9283	-0.14020734
245	0x3d4ed1c6	0.050493024
246	0xbe0cf075	-0.13763602
247	0xbdc46168	-0.09588891
248	0x3fbcafff	1.474121
249	0xbe080330	-0.13282466
250	0xbc46753d	-0.012112913
251	0xbd97fb30	-0.07420957
252	0xbdf14260	-0.11780238
253	0x3e2704fe	0.16310498
254	0xbcda3557	-0.026636763
255	0xbda73296	-0.081639454

bias f4 [36]
0	0xbce853c1	-0.02836025
1	0xbdbe9e37	-0.09307521
2	0x3db9059b	0.09034272
3	0xbd9b2b10	-0.07576573
4	0x3d428457	0.04748949
5	0xbdf15809	-0.117843695
6	0xbd907b0f	-0.070547216
7	0xbce56df0	-0.028006524
8	0xbe0d1639	-0.13778009
9	0xbcb197a0	-0.021678746
10	0xbdff3f6a	-0.12463267
11	0x3d5da767	0.054114725
12	0xbdc03dff	-0.09386825
13	0x3dcbd2ed	0.0995234
14	0xbc94981b	-0.018138936
15	0x3d2f3201	0.042772297
16	0x3de4f865	0.1118019
17	0x3d11a9b3	0.03556223
18	0x3dd68566	0.104746625
19	0xbe0f610b	-0.14001863
20	0xbe14463c	-0.14479917
21	0xbced00d4	-0.028931059
22	0xbe049a4c	-0.12949485
23	0x3c5b7ad1	0.013395981
24	0x3e0a7fda	0.13525334
25	0x3c2dad1e	0.010600356
26	0x3d80cda2	0.06289221
27	0xbe0031a4	-0.12518936
28	0xbd97f878	-0.074204385
29	0xbbc203a7	-0.0059208455
30	0xbdf5861a	-0.119884685
31	0x3cdc341d	0.026880318
32	0xbdd9da83	-0.10637381
33	0xbd515734	-0.051108554
34	0x3d4b898d	0.049691726
35	0xbdb91397	-0.090369396

weight f4 [1, 36]
0	0x3d88f316	0.0668699
1	0xbd250054	-0.040283516
2	0x3e15344f	0.14570735
3	0xbd05e630	-0.032690227
4	0x3e2a3ff9	0.16625966
5	0x3dcf6baf	0.10127961
6	0x3e1584a6	0.14601383
7	0x3e199cf2	0.15001276
8	0x3d171183	0.036881935
9	0xbe31afcb	-0.17352216
10	0xbd403695	-0.046927053
11	0xbd3b5b02	-0.04574109
12	0xbde90ca2	-0.11379363
13	0xbdf3ff68	-0.11913949
14	0x3dd8ecfd	0.10592077
15	0xbe01106d	-0.12603922
16	0xbe107d6c	-0.14110345
17	0x3da08560	0.07837939
18	0xbd3a287a	-0.045448758
19	0x3e300b5a	0.1719183
20	0x3de214f8	0.11039156
21	0x3dddc471	0.10828484
22	0x3dfd10b4	0.123567015
23	0xbdf913ad	-0.12161956
24	0x3da2d0c5	0.07949976
25	0xbd0bbbdf	-0.034114715
26	0xbe12ba2a	-0.14328828
27	0x3d6d2b75	0.057902772
28	0x3e06e4bb	0.13173191
29	0xbd08af2c	-0.033370182
30	0xbe10dcfb	-0.14146797
31	0x3d950b8b	0.07277592
32	0xbda23433	-0.079201125
33	0x3d34521c	0.044023618
34	0xbd8da5c1	-0.06916381
35	0xbdcefb5c	-0.10106537
