parameters_DffNetwork_Adam_0.001_100.pth (torch, 10519 bytes, 5 tensors)

weight f4 [36, 12]
0.22225432 0.31316218 0.19893354 0.43836793 0.18377209 -0.051270038 0.22069629 0.16491322
0.10963498 0.09292179 -0.39936566 -0.0074980957 -0.22764769 0.17868368 0.09393863 -0.46091166
-0.021638231 -0.1889178 0.14231409 -0.20296952 -0.26516363 0.13838948 0.36140063 0.15646832
0.22694339 -0.1507643 0.11818053 0.3175667 0.038005423 0.03181763 0.00517846 -0.16907781
-0.068107076 -0.028723715 -0.1867988 -0.13855441 0.21894692 -0.05074929 0.1293667 -0.21114643
-0.15116169 0.18617567 0.16807371 -0.1546114 -0.20887296 0.09113109 0.01906695 -0.0019055569
-0.021435251 -0.07333536 0.12045879 0.53503114 0.262084 -0.108703755 -0.104501754 -0.18495135
-0.2440198 0.31727654 -0.22702497 0.060616117 -0.17198005 -0.10784057 0.079622515 -0.24088159
-0.27788642 0.1552195 -0.14770272 0.19101606 -0.07123076 0.10079097 0.24517341 0.1527594
-0.1984049 -0.023294108 0.01922457 0.030781906 -0.14364737 -0.014802946 0.03915682 0.05989692
-0.07473061 0.10940512 0.38977882 0.005837828 -0.011222035 -0.19757888 0.18790284 0.13647236
0.2881128 0.17766635 -0.1449932 -0.102735154 -0.097059496 0.19427687 0.21022543 0.28791317
0.008308441 0.057996836 0.089616574 0.03506925 0.2635257 0.19380218 0.09055126 0.00026656405
0.2399653 0.18926288 0.42150202 0.28333443 0.012450329 -0.28693205 0.06196521 -0.47477147
-0.045741506 -0.01156638 -0.025693635 0.15962139 0.19560161 -0.23961866 0.25640345 -0.026124254
-0.15956669 -0.04175748 -0.17027166 0.33914405 -0.2715941 -0.2561936 -0.021122934 -0.27052885
0.117674075 -0.0077820923 -0.05093034 0.057015266 0.23043446 0.08989093 0.008596045 0.05215625
-0.28305277 0.13475578 -0.17755315 -0.18233956 0.070966505 -0.29439914 0.22172244 -0.020289136
-0.13534749 -0.08627896 0.2777162 0.07927265 0.09371954 -0.24702527 -0.18020369 0.10400274
0.2397691 0.008120683 -0.11683266 -0.0043894486 -0.032791745 -0.18408996 -0.0074804514 0.22990412
0.027593201 0.27312306 0.14481103 0.094090775 -0.15916443 0.3513379 -0.23213075 0.182505
-0.17250527 0.17011735 -0.33313316 -0.5091077 0.06305561 0.15277646 0.20277701 -0.14717485
-0.25110474 0.07421303 0.20266527 0.002591538 0.030998655 0.2494695 0.17583498 0.040102232
0.30178076 -0.051957324 0.2129456 0.077702 0.013431198 -0.24128471 0.39818367 0.317472
-0.024703024 0.17428708 0.1616729 -0.24110481 -0.2761402 -0.2560373 -0.09248406 -0.061942693
0.17761198 -0.11488906 0.006413557 -0.19670944 0.10219693 0.0177158 -0.29759791 -0.15599489
0.187627 -0.010141754 -0.15545979 -0.16584055 0.1959004 0.04328606 0.15928441 0.0027081708
-0.14348724 -0.14472589 -0.30340147 0.22425072 -0.24338128 -0.3007666 -0.015013186 -0.012420708
0.0588118 0.27661017 0.32516688 0.021730192 0.014248464 -0.27611914 0.13894783 -0.20178956
0.1426993 0.20472494 -0.03141612 0.0030576054 -0.043203708 -0.11166516 0.30222744 -0.31051415
0.19225748 0.17311476 0.13020357 -0.070357494 -0.053736027 0.17917481 -0.068404034 -0.041414503
-0.07911453 -0.23714972 0.3324478 0.05881794 -0.11489579 -0.1741974 0.096037485 -0.42684352
00000000: a396 633e cb56 a03e 3cb5 4b3e c371 e03e
00000010: c02e 3c3e 8800 52bd 35fe 613e 03df 283e
00000020: 4e88 e03d c84d be3d a879 ccbe 96b2 f5bb
00000030: 7a1c 69be dbf8 363e e562 c03d 9dfc ebbe
00000040: a942 b1bc ab73 41be c9ba 113e 3ed7 4fbe
00000050: 87c3 87be f9b5 0d3e 8109 b93e 3b39 203e
00000060: d963 683e f561 1abe a208 f23d 1a98 a23e
00000070: 93ab 1b3d 3453 023d 12b0 a93b bc22 2dbe
00000080: b97b 8bbd ff4d ebbc 2f48 3fbe 35e1 0dbe
00000090: 9f33 603e 7dde 4fbd b478 043e c536 58be
000000a0: 21ca 1abe d6a4 3e3e 841b 2c3e 7352 1ebe
000000b0: cbe2 55be f0a2 ba3d 4b32 9c3c e1c3 f9ba
000000c0: fb98 afbc d930 96bd 19b3 f63d cdf7 083f
000000d0: e02f 863e 13a0 debd 0405 d6bd e363 3dbe
000000e0: 54e0 79be 1272 a23e 3c79 68be 9b48 783d
000000f0: 8a1b 30be 84db dcbd 2111 a33d aaa9 76be
00000100: 2147 8ebe dcf1 1e3e 623f 17be b799 433e
00000110: 6fe1 91bd 7f6b ce3d bd0e 7b3e f66c 1c3e
00000120: a72a 4bbe 49d3 bebc d87c 9d3c 562a fc3c
00000130: 4c18 13be 0e88 72bc e762 203d 7956 753d
00000140: 5d0c 99bd cb0f e03d 1791 c73e 404b bf3b
00000150: a0dc 37bc 1e52 4abe 9a69 403e 69bf 0b3e
00000160: 8583 933e 2bee 353e 1979 14be cf66 d2bd
00000170: 21c7 c6bd 84f0 463e 5645 573e 5b69 933e
00000180: 2120 083c 178e 6d3d e588 b73d c6a4 0f3d
00000190: d7ec 863e 1474 463e f072 b93d 9fc1 8b39
000001a0: 77b9 753e 21ce 413e 1dcf d73e 3611 913e
000001b0: 77fc 4b3c c2e8 92be 3bcf 7d3d 3f15 f3be
000001c0: 725b 3bbd ea80 3dbc 757b d2bc ca73 233e
000001d0: ca4b 483e 985e 75be 5047 833e 8802 d6bc
000001e0: 7365 23be e409 2bbd b25b 2ebe 4aa4 ad3e
000001f0: 620e 8bbe cf2b 83be 010a adbc c282 8abe
00000200: 1bff f03d ec00 ffbb 559c 50bd d788 693d
00000210: 03f7 6b3e bc18 b83d 6dd6 0c3c cba1 553d
00000220: 4bec 90be 6bfd 093e 7ed0 35be 39b7 3abe
00000230: e356 913d 7cbb 96be 350b 633e 6735 a6bc
00000240: 8898 0abe 06b3 b0bd d130 8e3e b359 a23d
00000250: 08f0 bf3d 31f4 7cbe 5187 38be 63ff d43d
00000260: 0886 753e 9d0c 053c f645 efbd 5dd5 8fbb
00000270: a350 06bd 1482 3cbe 931e f5bb fc6b 6b3e
00000280: 230b e23c c9d6 8b3e 5849 143e aab2 c03d
00000290: 00fc 22be 90e2 b33e afb3 6dbe 97e2 3a3e
000002a0: 39a5 30be 3e33 2e3e 6e90 aabe e254 02bf
000002b0: 4d23 813d 6f71 1c3e c7a4 4f3e 01b5 16be
000002c0: cd90 80be 00fd 973d 7c87 4f3e cbd6 293b
000002d0: e4f0 fd3c ef74 7f3e 160e 343e 3d42 243d
000002e0: 0283 9a3e 34d1 54bd 690e 5a3e 3a22 9f3d
000002f0: 870e 5c3c 5713 77be bbde cb3e b18b a23e
00000300: ff5d cabc 5078 323e 958d 253e 2ee4 76be
00000310: 4062 8dbe 5217 83be 4868 bdbd 9fb7 7dbd
00000320: eadf 353e f54a ebbd d128 d23b 336e 49be
00000330: a04c d13d ba20 913c c15e 98be 20bd 1fbe
00000340: 4b21 403e 9929 26bc da30 1fbe 1bd2 29be
00000350: 1d9a 483e b94c 313d 741b 233e 917b 313b
00000360: 52ee 12be 0633 14be 7057 9bbe fba1 653e
00000370: f138 79be 14fe 99be def9 75bc 3a80 4bbc
00000380: a4e4 703d d99f 8d3e 467c a63e 8403 b23c
00000390: 6472 693c 7d5f 8dbe 5748 0e3e eca1 4ebe
000003a0: c41f 123e 6aa3 513e 30ae 00bd 1b62 483b
000003b0: 5ff6 30bd b4b0 e4bd 8ebd 9a3e b6fb 9ebe
000003c0: 25df 443e ff44 313e 1654 053e 9717 90bd
000003d0: 4f1a 5cbd 9a79 373e 6a17 8cbd 41a2 29bd
000003e0: cc06 a2bd 60d7 72be 9936 aa3e 15eb 703d
000003f0: 7c4e ebbd ce60 32be 4daf c43d 3c8b dabe

bias f4 [36]
0.27630305 -0.0814599 0.27913174 0.28525022 0.25658476 -0.2530727 -0.08584601 -0.2553209
-0.09253694 0.08535975 0.032085635 0.07217848 0.19795923 0.13900615 0.08719462 -0.093378656
0.05547243 0.007658164 0.23182343 -0.020010235 0.023792546 -0.029011827 0.10893455 -0.17313977
0.13294291 0.17643888 0.23141712 -0.2042682 0.2764127 -0.24511346 -0.037190467 -0.012545234
-0.26753312 0.22444405 0.22488686 -0.2281278
00000000: 9877 8d3e 73d4 a6bd 5bea 8e3e 510c 923e
00000010: 145f 833e bf92 81be 08d0 afbd 6cb9 82be
00000020: 0284 bdbd 18d1 ae3d 3a6c 033d 50d2 933d
00000030: d3b5 4a3e a157 0e3e 1893 b23d 4f3d bfbd
00000040: 0f37 633d 56f1 fa3b 1f63 6d3e 81ec a3bc
00000050: 96e8 c23c 36aa edbc 1419 df3d 8d4b 31be
00000060: 3022 083e 65ac 343e 9cf8 6c3e af2b 51be
00000070: f785 8d3e 06ff 7abe 0855 18bd 868a 4dbc
00000080: 1afa 88be a9d4 653e be48 663e 569a 69be

weight f4 [36, 36]
0.075534895 -0.19605702 0.073818736 -0.009261983 0.11818925 -0.028514903 -0.40322694 0.112244844
-0.16438885 -0.010635769 0.10607549 0.07861988 0.04183241 -0.008543494 -0.008974424 -0.27361682
0.11655169 -0.022211036 0.11110329 -0.048991125 0.08371606 0.027981687 -0.17969573 0.1655343
0.16369861 0.12768057 -0.014351937 -0.16288859 -0.11465436 0.15367445 0.021649897 0.03232042
-0.016818523 0.17872973 0.13659981 0.16459648 -0.2584711 0.46014428 -0.053142585 0.12076787
-0.041611258 -0.12944013 0.46583104 0.048532646 0.3544049 0.00081874523 -0.12565342 -0.10050958
-0.10854531 -0.21491593 0.119557016 0.19722424 0.074195415 0.054136027 -0.08942683 0.0021498117
0.052389756 0.07408994 0.20506918 -0.15591916 -0.329192 0.036749095 -0.017095665 -0.041234396
0.19374464 0.115654275 0.3068157 0.09779144 -0.0140873995 0.058118273 -0.017775215 0.12590997
-0.004015927 -0.26924548 0.18248619 -0.00082606886 -0.048301592 -0.035920143 -0.24222793 -0.01608197
-0.12797345 -0.06307938 -0.11942985 0.09036357 -0.10048351 0.30074346 -0.17643814 -0.19580995
0.006687541 0.052725505 0.08816841 -0.22340971 0.047323514 0.031170826 0.11359406 0.031011423
-0.00027703147 0.16638023 -0.10806133 -0.0036972961 0.067926124 -0.16024733 -0.086300194 0.08774622
-0.018747032 0.16063745 0.15366052 0.11041187 -0.23841377 0.40842554 -0.1592576 -0.09745487
-0.15357402 -0.09831397 0.30575216 -0.0353963 0.3555535 0.08974464 0.1696342 0.108416855
-0.10202378 -0.255135 -0.017839665 0.3962664 0.07055009 0.12247306 0.17658417 0.12153404
0.25809628 -0.057945613 0.20451552 -0.0037762723 -0.10608646 0.009353129 -0.12955622 -0.082510635
0.046725422 -0.096310675 0.3161423 0.28813434 -0.07459836 0.01968492 0.10872791 -0.052350283
-0.15211816 -0.0027288976 0.14867689 -0.15838802 -0.13225776 -0.105809115 0.12886801 -0.06945127
-0.10073037 -0.10726711 0.079533614 0.1390365 -0.14900087 -0.08948885 -0.10996484 0.12077314
-0.047813453 0.14852285 0.12522943 0.02025445 -0.003259425 0.10020735 -0.015187574 -0.09105577
-0.10662994 -0.1171967 0.14930214 0.036391914 -0.15906309 -0.07914349 -0.027683012 -0.01720996
0.16088717 0.09924368 0.08402397 0.02061981 0.019381639 -0.3369688 -0.031196652 -0.12374855
-0.099032685 -0.13613974 -0.38846332 0.091759466 -0.21054909 0.051650498 0.06966135 0.0062316074
0.056789223 0.12581211 -0.05603652 -0.074207366 -0.14162086 0.13751967 -0.0007670387 0.0066774716
0.01986928 -0.023582548 -0.066743046 0.046918534 0.24883695 0.18857448 0.10121452 -0.14322095
0.067743406 -0.16438952 -0.21985333 -0.049258843 0.1201249 -0.00061578 0.0170697 -0.15476868
-0.11455917 0.16409932 -0.15758917 -0.014356772 -0.14432004 0.14578944 -0.039699078 -0.050468605
-0.07689067 -0.07065364 0.022509634 -0.06528813 0.11371398 -0.11463462 0.0148586035 -0.09220213
-0.14178982 0.13486579 0.027207097 0.060653906 0.004727602 0.14924966 0.16313174 -0.16248934
-0.00019596021 -0.13200437 -0.101450324 0.08121286 -0.06434566 0.050076704 -0.098796055 -0.060876768
-0.14728981 -0.008815507 0.052484434 0.027517935 -0.16596554 0.10228344 0.016718727 -0.11379993
00000000: 0ab2 9a3d 2cc3 48be 472e 973d 93bf 17bc
00000010: 350d f23d 1698 e9bc c373 cebe a0e0 e53d
00000020: 8d55 28be a641 2ebc 1b3e d93d 7603 a13d
00000030: 7658 2b3d 03fa 0bbc 7609 13bc 8117 8cbe
00000040: a7b2 ee3d ebf3 b5bc 1f8a e33d ebaa 48bd
00000050: 5373 ab3d da39 e53c 2802 38be d381 293e
00000060: 9ca0 273e b2be 023e 6324 6bbc 44cc 26be
00000070: e8cf eabd d65c 1d3e 205b b13c 6b62 043d
00000080: 00c7 89bc ed04 373e d2e0 0b3e fb8b 283e
00000090: 5356 84be 0898 eb3e 0aac 59bd 2555 f73d
000000a0: 9170 2abd f48b 04be 6881 ee3e 2bca 463d
000000b0: 8f74 b53e 10a1 563a 4aab 00be f7d7 cdbd
000000c0: 014d debd ec12 5cbe 4fda f43d 27f5 493e
000000d0: c4f3 973d bdbd 5d3d 6a25 b7bd dbe3 0c3b
000000e0: a496 563d 77bc 973d a8fd 513e 46a9 1fbe
000000f0: db8b a8be 3886 163d 350c 8cbc 66e5 28bd
00000100: ff64 463e 26dc ec3d f316 9d3e e146 c83d
00000110: d6ce 66bc 6d0d 6e3d 549d 91bc 8bee 003e
00000120: 0a98 83bb 8bda 89be a9dd 3a3e 8b8c 58ba
00000130: e4d7 45bd 0021 13bd 990a 78be 56be 83bc
00000140: 790b 03be c32f 81bd a397 f4bd 8910 b93d
00000150: 4cca cdbd 0cfb 993e 33ac 34be 6782 48be
00000160: 2923 db3b b3f6 573d a491 b43d 84c5 64be
00000170: 4dd6 413d f659 ff3c 01a4 e83d ab0b fe3c
00000180: 893e 91b9 945f 2a3e 424f ddbd 564e 72bb
00000190: da1c 8b3d e017 24be 28be b0bd 4ab4 b33d
000001a0: 6093 99bc 257e 243e 2f59 1d3e 9e1f e23d
000001b0: bd22 74be 271d d13e 6d14 23be 6b96 c7bd
000001c0: 8242 1dbe d658 c9bd 8c8b 9c3e b6fb 10bd
000001d0: 1c0b b63e 0acc b73d 96b4 2d3e a809 de3d
000001e0: d8f1 d0bd 0ea1 82be 7d24 92bc 6ee3 ca3e
000001f0: 917c 903d 28d3 fa3d 7bd2 343e d7e6 f83d
00000200: 3225 843e 6158 6dbd 846c 513e 567b 77bb
00000210: dc43 d9bd de3d 193c 63aa 04be 56fb a8bd
00000220: 2863 3f3d 883e c5bd 67dd a13e 5886 933e
00000230: 06c7 98bd 4542 a13c bdac de3d 406d 56bd
00000240: ddc4 1bbe 4ed7 32bb c13e 183e 7830 22be
00000250: 946e 07be 73b2 d8bd faf5 033e 783c 8ebd
00000260: b94b cebd dcae dbbd 85e2 a23d 965f 0e3e
00000270: af93 18be ee45 b7bd 3f35 e1bd e857 f73d
00000280: 0ad8 43bd 6016 183e 253c 003e a9ec a53c
00000290: 149c 55bb 8339 cd3d 4dd5 78bc 737b babd
000002a0: cc60 dabd d304 f0bd a9e2 183e b00f 153d
000002b0: 6fe1 22be fb15 a2bd 7cc7 e2bc e7fb 8cbc
000002c0: 9bbf 243e 4540 cb3d c214 ac3d e0ea a83c
000002d0: 3ec6 9e3c 2d87 acbe 1f90 ffbc e16f fdbd
000002e0: a6d1 cabd 3768 0bbe aae4 c6be 63ec bb3d
000002f0: 2e9a 57be 798f 533d 9caa 8e3d 8332 cc3b
00000300: d19b 683d e4d4 003e 8d86 65bd 08fa 97bd
00000310: 0f05 11be f5d1 0c3e 1913 49ba b1ce da3b
00000320: e6c4 a23c 3030 c1bc 94b0 88bd a62d 403d
00000330: 1dcf 7e3e ab19 413e 8f49 cf3d 83a8 12be
00000340: 0ebd 8a3d ba55 28be 3b21 61be a4c3 49bd
00000350: 0b04 f63d 4c6c 21ba c1d5 8b3c ae7b 1ebe
00000360: 009e eabd a709 283e 0e5f 21be ab38 6bbc
00000370: a2c8 13be d449 153e 809b 22bd 2bb8 4ebd
00000380: db78 9dbd dbb2 90bd 2066 b83c c8b5 85bd
00000390: e0e2 e83d 8ec5 eabd 8071 733c 78d4 bcbd
000003a0: 5a31 11be 421a 0a3e 6be1 de3c 3b70 783d
000003b0: 00ea 9a3b e7d4 183e 020c 273e 9b63 26be
000003c0: ab7a 4db9 272c 07be 30c5 cfbd ee52 a63d
000003d0: a8c7 83bd 3b1d 4d3d 9655 cabd eb59 79bd
000003e0: 24d3 16be eb6e 10bc ebf9 563d 4b6d e13c
000003f0: dff2 29be fb79 d13d b6f5 883c f00f e9bd

bias f4 [36]
0.101449825 -0.03111123 -0.0022261764 0.023263853 -0.016801417 0.15239197 -0.0960049 0.0028190017
0.052270494 0.011150868 0.044501193 0.18561651 0.087368116 0.03192393 0.18336251 0.14381565
0.0060096174 0.119079754 -0.028858738 -0.08403786 0.05557267 -0.12106031 -0.13363491 -0.119812116
-0.12656295 0.015469734 0.066239595 0.08241121 0.08824522 -0.06589479 0.052030664 -0.16414991
0.040929675 -0.056894004 -0.05547558 -0.07578343
00000000: edc4 cf3d fadc febc 0be5 11bb d693 be3c
00000010: 20a3 89bc a40c 1c3e 389e c4bd 00bf 383b
00000020: 9619 563d 21b2 363c e246 363d 4112 3e3e
00000030: 0eee b23d abc2 023d 62c3 3b3e 6944 133e
00000040: 53ec c43b 16e0 f33d 2969 ecbc 0b1c acbd
00000050: 2ba0 633d 78ee f7bd 97d7 08be 0e60 f5bd
00000060: b899 01be c474 7d3c a0a8 873d 35c7 a83d
00000070: e9b9 b43d d9f3 86bd 1b1e 553d ea16 28be
00000080: e0a5 273d b009 69bd 5d3a 63bd 5834 9bbd

weight f4 [1, 36]
-0.17551403 0.3781495 -0.06759393 0.15852147 -0.014143763 -0.19571076 -0.055562817 0.0075435042
-0.27399334 0.17161603 0.28885075 -0.12571007 -0.10025057 0.2445899 -0.13762337 -0.18642081
0.37014112 -0.18993846 0.31232283 -0.086986125 -0.065098286 0.15704904 -0.09004792 0.10347651
-0.054984972 -0.12907854 -0.028864844 0.072029404 0.37372825 0.31668198 0.15576647 0.05646364
0.0714933 0.14073692 0.260609 -0.11328449
00000000: f3b9 33be d09c c13e b06e 8abd 7453 223e
00000010: 3ebb 67bc 6768 48be d695 63bd 802f f73b
00000020: db48 8cbe 1dbc 2f3e 3fe4 933e 24ba 00be
00000030: 2c50 cdbd c675 7a3e 24ed 0cbe 19e5 3ebe
00000040: 2383 bd3e 3a7f 42be c7e8 9f3e c825 b2bd
00000050: 4052 85bd 77d1 203e 0b6b b8bd 7eeb d33d
00000060: ec37 61bd 2a2d 04be f775 ecbc 2784 933d
00000070: 4f59 bf3e 2424 a23e 3f81 1f3e 6b46 673d
00000080: 146b 923d 571d 103e 8b6e 853e b301 e8bd
