parameters_BinaryClassification_Adam_0.01_100.pth (torch, 28469 bytes, 13 tensors)

weight f4 [64, 12]
0	0x3fcab0aa	1.5835164
1	0xbfb5834a	-1.4180691
2	0xc008facc	-2.1403074
3	0xc0544247	-3.3165452
4	0x3fa9ee2f	1.3275813
5	0x3f3aaa80	0.7291641
6	0x4011f5ab	2.2806194
7	0x4072b86c	3.7925062
8	0xbf88fb97	-1.0701779
9	0xbf94d7f7	-1.1628407
10	0x3e51506b	0.20440833
11	0xbf702a5e	-0.9381465
12	0x3d87b0f2	0.066255465
13	0xbdd3445c	-0.10315773
14	0xbf03be9a	-0.5146271
15	0xbf0b3060	-0.5437069
16	0xbdeca084	-0.115540534
17	0xbedc7adf	-0.43062493
18	0xbd266c3d	-0.040630568
19	0xbd9042ae	-0.07043968
20	0xbe9a3ef1	-0.30126145
21	0xbddd3e4d	-0.108028986
22	0x3d177832	0.03697986
23	0xbedfca6b	-0.4370912
24	0x3d889e46	0.06670813
25	0xbcef256d	-0.02919265
26	0xbe1f9ac3	-0.1558638
27	0xbe7c20b3	-0.24621849
28	0xbaef0a82	-0.0018237385
29	0x3e920bfd	0.2852477
30	0x3e687282	0.22699931
31	0x3d89fb1e	0.0673735
32	0xbce463d4	-0.027879633
33	0xbe4e5535	-0.20149691
34	0x3d036296	0.03207644
35	0xbe61d8bb	-0.22055332
36	0xbf26964d	-0.6507309
37	0x3fc0677f	1.5031585
38	0x4027af48	2.6200733
39	0x4036a04b	2.8535335
40	0xbfa697ec	-1.3015113
41	0xbed83431	-0.4222732
42	0xc02874fa	-2.6321397
43	0xbfc540aa	-1.5410359
44	0x3f0d0fba	0.5510212
45	0x3f72dec8	0.9487119
46	0xbdac7746	-0.08421187
47	0x3f954a57	1.1663312
48	0xbe3e38e7	-0.18576394
49	0xbe4f668b	-0.20253961
50	0x3e5c84eb	0.21535079
51	0x3e3d9615	0.18514283
52	0x3d08cec9	0.03340033
53	0x3e2326a0	0.15932703
54	0xbe387bb8	-0.18015945
55	0xbe587098	-0.21136701
56	0x3da0a6f5	0.078443445
57	0xbea5410e	-0.32276195
58	0x3e5a7966	0.21335372
59	0xbe85507c	-0.26037967
60	0x3ff8a544	1.9425435
61	0xbfa3bbb8	-1.2791662
62	0xc028c558	-2.637045
63	0xc05c47fb	-3.4418933
64	0x4020ce2a	2.5125833
65	0x3f0ade46	0.5424541
66	0x40182250	2.3770943
67	0x4040cf3a	3.012648
68	0xbf96d032	-1.1782286
69	0xbf88e7a2	-1.0695689
70	0xbe69209b	-0.22766344
71	0xbfaa5a8b	-1.3308882
72	0x3f98f7dc	1.1950641
73	0xbf51ead6	-0.81998956
74	0xbf8281fc	-1.0195918
75	0xc00dfb60	-2.2184677
76	0x3f933a8e	1.1502244
77	0x3ef68d3f	0.48154637
78	0x3fed6749	1.8547145
79	0x3fc902cc	1.5703979
80	0xbe94367b	-0.28947815
81	0xbf5a2bae	-0.852229
82	0x3eaaf179	0.33387354
83	0xbf0ac088	-0.5420003
84	0xbf8f0b05	-1.1175238
85	0x3f9ba6ce	1.216028
86	0x3ffc6ae6	1.9720123
87	0x402d560f	2.7083776
88	0xbf86b627	-1.0524338
89	0xbf2fb0e2	-0.68629277
90	0xc008a64c	-2.13515
91	0xc003638d	-2.052951
92	0x3f77d442	0.96808255
93	0x3f87aeb4	1.060019
94	0xbe0d43f7	-0.13795458
95	0x3fca5dc9	1.5809871
96	0x3e1c80da	0.15283528
97	0x3e37d875	0.17953666
98	0x3ad0e7f4	0.0015938268
99	0x3e446daf	0.19182466
100	0x3e7826b5	0.24233516
101	0xbc3e1d79	-0.0116037065
102	0xbe26e8d4	-0.16299754
103	0x3d915b9d	0.07097552
104	0x3e65c3d0	0.22437978
105	0x3e69a926	0.22818431
106	0xbe07ab03	-0.1324883
107	0x3deb34f6	0.11484711
108	0x3ea26857	0.3172023
109	0x3f29cd3c	0.6632879
110	0x3f509ffa	0.81494105
111	0x3fa4a9c7	1.2864312
112	0xbf67aae6	-0.90495145
113	0xbea0ee12	-0.31431633
114	0xbfcfff23	-1.6249737
115	0x3f3dbe25	0.7411826
116	0x3e1bdb89	0.15220465
117	0x3f1d760a	0.6150824
118	0x3e3d45c6	0.18483648
119	0x3ee57133	0.44812927
120	0x3fbda2d1	1.4815313
121	0xbf2f4ab9	-0.6847339
122	0xc01c5574	-2.4427156
123	0xc0545cf4	-3.3181734
124	0x3fe7353d	1.8063122
125	0x3f90b34a	1.1304715
126	0x4008c513	2.1370285
127	0x402920af	2.6426198
128	0xbeb66123	-0.35620984
129	0xbfd78223	-1.683659
130	0x3ee7b35c	0.45254028
131	0xbfa47414	-1.2847924
132	0x3ccb77bf	0.024837373
133	0xbe2198b3	-0.15780906
134	0xbde9a8ef	-0.11409175
135	0x3d934347	0.071905665
136	0x3d53c6c7	0.05170324
137	0x3e23eba8	0.16007864
138	0xbd383549	-0.04497269
139	0xbe86a59d	-0.26298228
140	0x3d45405a	0.048157074
141	0xbe73cb24	-0.23807961
142	0xbe6387bb	-0.22219746
143	0xbd1815de	-0.03713023
144	0xbe9430cd	-0.28943482
145	0x3f672ea5	0.9030555
146	0x3f368596	0.71297586
147	0x3fb40661	1.4064447
148	0xbf0597ef	-0.5218496
149	0x3e0825b6	0.13295636
150	0xbff21faa	-1.8915913
151	0xbf23655e	-0.6382655
152	0x3eb195dd	0.3468465
153	0x3f2154ef	0.63020223
154	0x3e803803	0.25042734
155	0x3f51983d	0.8187292
156	0x3d845385	0.064612426
157	0x3e340d89	0.17583288
158	0xbe7d7db3	-0.24754982
159	0x3e8f64c2	0.2800656
160	0xbdd4caf2	-0.10390271
161	0xbda5a645	-0.08088354
162	0x3e5530a6	0.20819339
163	0x3e1bb042	0.15203956
164	0xbdfc760d	-0.12327204
165	0x3e1f50ef	0.15558217
166	0x3adba79b	0.0016758324
167	0xbe4f0365	-0.20216139
168	0x3f8c7c03	1.0975345
169	0xbfade7ef	-1.3586406
170	0xc008933d	-2.1339867
171	0xc03ba654	-2.9320269
172	0x3fa85516	1.3150966
173	0x3f1ef545	0.62093
174	0x402acda1	2.6688006
175	0x3fdeb976	1.7400348
176	0xbeca3f1f	-0.39501283
177	0xbf88e1ae	-1.0693872
178	0x3e42ab10	0.19010568
179	0xbf89b798	-1.0759153
180	0xbe0b321d	-0.13593335
181	0xbd470a1f	-0.048593637
182	0xbe2ea65b	-0.17055647
183	0x3e8252ae	0.25453705
184	0x3e3dab2a	0.18522325
185	0xbe718a44	-0.235879
186	0x3e3b56bf	0.1829481
187	0x3dc6a1ba	0.09698816
188	0xbe40501c	-0.1878056
189	0x3d031ea4	0.032011643
190	0xbdad86c1	-0.08472968
191	0x3e615418	0.22004735
192	0x3d1c15f9	0.038106892
193	0x3e05539d	0.13020177
194	0xbe83ccad	-0.25742093
195	0x3d30584d	0.04305296
196	0xbe299a28	-0.16562712
197	0xbe1f3d6c	-0.15550774
198	0x3b7fa96d	0.0039010898
199	0xbe1a1e25	-0.15050562
200	0xbe4814ec	-0.19539231
201	0x3e17cf4a	0.14825168
202	0xbf2c4519	-0.67292935
203	0xbd6d449d	-0.057926763
204	0x3fb5b8f7	1.4197072
205	0xbfdf7710	-1.745821
206	0xc0003bf4	-2.0036592
207	0xc074511f	-3.8174512
208	0x3ffa6cae	1.9564416
209	0x3f821afc	1.0164485
210	0x40793758	3.894003
211	0x3ffc467d	1.9709011
212	0xbefc61ad	-0.4929327
213	0xbfa6dcc7	-1.3036126
214	0xbdec5fe5	-0.11541728
215	0xbf7e7fe3	-0.9941389
216	0x3f821aa2	1.0164378
217	0xbeed81a0	-0.4638796
218	0xbfad807c	-1.3554835
219	0xc01a5d38	-2.4119396
220	0x3fa22132	1.266638
221	0x3eeeb540	0.46622658
222	0x3fe8bb18	1.8182096
223	0x3f58aa3a	0.84634745
224	0xbc64d6b5	-0.013967206
225	0xbf8f710f	-1.1206378
226	0xbe42353c	-0.1896562
227	0xbf5725eb	-0.84042233
228	0xbc964218	-0.018342063
229	0xbec1223f	-0.3772144
230	0xbd0ae025	-0.033905167
231	0xbe82d84e	-0.25555652
232	0xbe9b8309	-0.3037341
233	0xbe3216e3	-0.17391543
234	0xbceb33ca	-0.028711218
235	0x3df5a9a4	0.11995247
236	0x3e3f818b	0.1870176
237	0xbd78b161	-0.060716037
238	0x3e72280c	0.23648089
239	0xbeb9b16e	-0.3626818
240	0xbf9630b2	-1.1733611
241	0x3f55fe51	0.8359118
242	0x3fe311c5	1.7739798
243	0x4030d289	2.76285
244	0xbf9f1097	-1.2426938
245	0xbf3980fd	-0.72462445
246	0xbfef4a9f	-1.8694648
247	0xc01a4762	-2.4106069
248	0x3f078002	0.529297
249	0x3fb1c478	1.3888083
250	0x3eb0eef2	0.345573
251	0x3faea3ef	1.3643779
252	0x3cf3214a	0.02967896
253	0xbe9e0193	-0.30860576
254	0x3d35ab4a	0.044352807
255	0x3caeba0c	0.021328948

bias f4 [64]
0	0x3e069570	0.13142943
1	0xbe2bf08a	-0.16790977
2	0xbd73b273	-0.059496354
3	0x3e5dc267	0.2165619
4	0xbe855118	-0.26038432
5	0x3ec1068f	0.37700316
6	0x3e5459ec	0.20737427
7	0x3e82ae1a	0.25523454
8	0xbe0e82a3	-0.13917021
9	0x3d9a1533	0.07523575
10	0x3e762f39	0.24041452
11	0xbe4a50e9	-0.19757427
12	0x3e87c4ab	0.26517233
13	0xbe87bb1b	-0.26509938
14	0x3d382b28	0.044963032
15	0xbe3e5289	-0.18586172
16	0xbbf08efa	-0.007341263
17	0x3ea185be	0.3154735
18	0x3e995219	0.29945448
19	0xbe9cfe42	-0.30662733
20	0x3f8c13d6	1.0943553
21	0xbe9ff382	-0.3124047
22	0xbd038932	-0.03211326
23	0x3e8f5ee6	0.2800209
24	0x3d8c5eea	0.06854041
25	0x3ec5552b	0.3854154
26	0x3d4cd08e	0.05000358
27	0xbe82a19d	-0.25513926
28	0xbd515283	-0.05110408
29	0xbe0bfd77	-0.13670908
30	0xbe864208	-0.26222253
31	0x3ee4c269	0.44679573
32	0xbe1752ea	-0.14777723
33	0x3e9714d8	0.2950809
34	0xbda054c9	-0.078286715
35	0x3e9389a6	0.28815955
36	0x3e9c0b90	0.3047757
37	0xbe7b6a70	-0.24552321
38	0xbc9186a2	-0.017764393
39	0xbe8dce8b	-0.27696642
40	0xbda64d69	-0.081202336
41	0xbe9fcdc2	-0.31211668
42	0x3e3d473f	0.1848421
43	0xbdc63485	-0.09677986
44	0x3e2c878b	0.1684858
45	0xbe212d0c	-0.1573984
46	0x3eaf2a4b	0.34211954
47	0xbe774164	-0.24146038
48	0xbe5b88f1	-0.21438958
49	0xbe8bedc1	-0.2732983
50	0x3e35a848	0.17739975
51	0xbe5c8112	-0.21533611
52	0x3e95ec70	0.2928195
53	0xbde5ce96	-0.11221044
54	0xbe7b907b	-0.24566834
55	0xbe88fc3a	-0.26754934
56	0x3e86d94e	0.26337665
57	0xbe82d437	-0.25552532
58	0xbe6dabc0	-0.23210049
59	0xbe650da4	-0.22368485
60	0xbe4cc0cb	-0.1999542
61	0xbe534fe0	-0.20635939
62	0x3ed2800c	0.41113317
63	0x3abf2397	0.001458275

weight f4 [64, 64]
0	0x3db42157	0.087954216
1	0xbdc8f44f	-0.09812223
2	0xbf34429b	-0.7041413
3	0xbce39d88	-0.027785078
4	0x3f199a8f	0.6000146
5	0xbe109149	-0.14117922
6	0x3c866dd7	0.016409798
7	0xbdd7099c	-0.1049988
8	0x3f4ab35b	0.79179925
9	0x3d67c319	0.056582544
10	0x3cbd9c52	0.023145828
11	0xbf3fd32c	-0.749316
12	0x3d972df1	0.073818095
13	0xbf029462	-0.51007664
14	0xbe155c25	-0.14585932
15	0x3f4ea2e7	0.8071732
16	0xbdcd07fe	-0.1001129
17	0xbd82f149	-0.06393678
18	0xbc9e9b72	-0.019361231
19	0xbf158517	-0.58406204
20	0x3e49621e	0.19666335
21	0xbf77ad39	-0.9674869
22	0x3f6a1074	0.91431355
23	0x3e3a4b9a	0.18192902
24	0xbe11c229	-0.14234222
25	0xbe0c6b5c	-0.1371283
26	0xbcbff4cc	-0.023432158
27	0xbd9cf0c4	-0.0766311
28	0xbf26f7dc	-0.65221953
29	0xbf825edb	-1.0185198
30	0xbf31c01d	-0.69433767
31	0x3e3c5409	0.18391432
32	0xbf4c433a	-0.7979008
33	0xbdd08c75	-0.1018304
34	0x3f80e789	1.0070659
35	0xbe565e12	-0.20934322
36	0xbd38d7bf	-0.045127627
37	0x3f6b5726	0.9192985
38	0x3d24e806	0.040260337
39	0xbf43f16a	-0.76540244
40	0x3d15a995	0.03653868
41	0xbe5652e9	-0.20930065
42	0xbe4d5015	-0.2005008
43	0x3f2d0c39	0.67596775
44	0x3d62a52f	0.055333313
45	0xbf247f03	-0.64256305
46	0xbe684a5f	-0.2268462
47	0xbf3ec2d6	-0.74516046
48	0xbf328b49	-0.6974378
49	0xbf1de802	-0.6168214
50	0xbc015064	-0.007892702
51	0x3f4dace1	0.8034192
52	0x3de28e21	0.11062265
53	0x3f3d87aa	0.7403513
54	0xbf586707	-0.8453221
55	0xbf7e6c56	-0.9938406
56	0xbe2d185f	-0.16903828
57	0x3f47c656	0.7803701
58	0x3f16ce52	0.5890857
59	0x3f65ceb7	0.89768547
60	0xbf4f4ca6	-0.8097633
61	0xbd9667a7	-0.07343989
62	0xbdf8aed8	-0.12142724
63	0xbf57a439	-0.8423496
64	0x3e613199	0.21991576
65	0x3e421997	0.18955074
66	0x3e59b924	0.21262032
67	0xbea15f5b	-0.31518063
68	0xbdaa6bfd	-0.083213784
69	0xbbe9376c	-0.0071172025
70	0x3e5170ba	0.20453158
71	0xbe060479	-0.13087644
72	0xbe718a11	-0.23587824
73	0x3c6fa52b	0.014626781
74	0x3ea2bcd3	0.31784686
75	0x3ef0443c	0.4692706
76	0xbd81521a	-0.06314488
77	0x3e31b096	0.17352518
78	0x3daccf1d	0.08437941
79	0xbe935d15	-0.28781953
80	0xbea7dbcb	-0.32784876
81	0xbce03bb2	-0.027372215
82	0xbd3a4a6c	-0.04548113
83	0xbd43c7f3	-0.04779811
84	0xbc6b1083	-0.014347198
85	0xbdae5ad9	-0.085134216
86	0xbec78e64	-0.38975823
87	0xbe722fcd	-0.23651047
88	0x3e95463d	0.2915515
89	0x3e1dd03e	0.1541147
90	0xbe3c8a58	-0.18412149
91	0xbe1d1b9e	-0.15342566
92	0x3e24c03b	0.16088955
93	0x3edff0dd	0.43738452
94	0x3e814964	0.25251305
95	0xbc8e6a5b	-0.017384699
96	0x3e98d1d6	0.29847592
97	0xbd9eb322	-0.077490106
98	0xbeb587e7	-0.35455248
99	0x3d28fad0	0.04125482
100	0xbea91412	-0.33023125
101	0xbed1088a	-0.40826827
102	0xbe137fd0	-0.14404225
103	0x3e103c5d	0.14085527
104	0xbe2dfbfb	-0.16990654
105	0x3d616a84	0.05503322
106	0x3dd9b36a	0.10629924
107	0xbe0df47a	-0.13862792
108	0xbe4c1c7d	-0.19932742
109	0x3dbc8106	0.09204297
110	0x3da63b3a	0.08116765
111	0x3e414523	0.1887403
112	0x3eda8c66	0.4268524
113	0x3e353b55	0.17698415
114	0x3e5e6e4a	0.2172176
115	0xbed9a4a1	-0.42508414
116	0xbe128aae	-0.14310715
117	0xbee81e03	-0.45335397
118	0x3ea69f3b	0.32543358
119	0x3d3ed970	0.046594083
120	0x3d96a0bc	0.073548764
121	0xbe6c516f	-0.2307794
122	0xbe91b3fb	-0.28457627
123	0xbe0bf08a	-0.13665977
124	0x3f07847e	0.5293654
125	0xbcb80640	-0.022463918
126	0x3e2d2141	0.16907217
127	0x3e778a68	0.24173892
128	0xbe9c964b	-0.30583414
129	0x3d01d41d	0.031696428
130	0xbd809f0f	-0.06280338
131	0x3e7d9390	0.24763322
132	0xbb568edb	-0.0032738957
133	0xbe34f38e	-0.17671034
134	0xbeac4f9d	-0.3365449
135	0x3e8ec58d	0.27885094
136	0x3c3dde61	0.011588664
137	0xbec60a1c	-0.38679588
138	0xbec96f9d	-0.39342967
139	0xbd8a22ba	-0.06744905
140	0x3eaca274	0.33717692
141	0x3d9a81d8	0.07544297
142	0xbe670d4e	-0.22563669
143	0x3ddfa1bc	0.1091952
144	0x3e694a79	0.22782315
145	0x3dfde884	0.123978645
146	0x3e3cd55e	0.18440768
147	0xbd7a1233	-0.061052512
148	0x3e92fa6c	0.28706682
149	0x3d91d4cd	0.07120667
150	0xbd7523df	-0.059848662
151	0x3e8f9a4b	0.28047404
152	0xbe3e2743	-0.18569665
153	0xbe7a48f4	-0.24441892
154	0xbdfe3384	-0.124121696
155	0x3e33f174	0.17572576
156	0x3ca88ce1	0.020574989
157	0xbe177fe4	-0.1479488
158	0xbe149012	-0.14508083
159	0xbd392d06	-0.045208953
160	0xbd49db34	-0.049281314
161	0x3e1ccdfe	0.15312955
162	0x3d9d622b	0.0768474
163	0xbe9a3273	-0.30116615
164	0x3e7d5961	0.24741127
165	0x3d1c2cc2	0.038128622
166	0xbd1d6178	-0.03842303
167	0x3d19f025	0.037582535
168	0x3dcf673a	0.10127111
169	0xbe9487dc	-0.29009902
170	0xbe3bf5a9	-0.1835543
171	0x3ca3e031	0.020004364
172	0x3e33cb73	0.17558078
173	0xbb9063e4	-0.004406439
174	0xbeaad0f5	-0.33362547
175	0xbdf22e92	-0.11825289
176	0xbc6c361b	-0.014417197
177	0xbd3391fe	-0.0438404
178	0xbea28e8e	-0.31749386
179	0x3e06aa78	0.13150966
180	0x3e525dd8	0.20543611
181	0xb9c0f615	-0.0003680444
182	0xbcc0fcac	-0.023557983
183	0xbcd5b353	-0.026086485
184	0xbe76e35d	-0.2411017
185	0x3e11bd4d	0.14232369
186	0x3def5cf9	0.11687655
187	0xbd7b4013	-0.061340403
188	0xbe1fbc68	-0.15599215
189	0xbd86549f	-0.06559109
190	0xbe953f4f	-0.29149863
191	0xbe58223e	-0.21106812
192	0xbe40ed64	-0.18840557
193	0xbd762278	-0.060091466
194	0x3d626577	0.055272546
195	0x3ce1662b	0.027514538
196	0xbdd3adc9	-0.10335881
197	0xbe34ba1c	-0.1764912
198	0xbe93796d	-0.28803578
199	0x3eaefed3	0.3417879
200	0xbe17740e	-0.14790365
201	0xbe94dada	-0.2907322
202	0xbe9ba7a2	-0.3040133
203	0x3e2f7deb	0.17137878
204	0xbc7e680e	-0.015527738
205	0x3e35e6a7	0.17763768
206	0xbe4b19c4	-0.19834048
207	0xbb649084	-0.0034876177
208	0x3ee01477	0.43765613
209	0x3b810682	0.0039375434
210	0x3e332016	0.17492709
211	0x3e1d22d7	0.15345322
212	0x3ec0dddc	0.37669265
213	0x3e5cf6c4	0.21578509
214	0xbe6bb665	-0.23018797
215	0x3eb15109	0.34632137
216	0x3d7c18ce	0.061547093
217	0xbe39e75d	-0.18154664
218	0x3e27a067	0.16369782
219	0x3e2eb71c	0.17062038
220	0x3e11c0fa	0.14233771
221	0x3d266f02	0.04063321
222	0x3d894086	0.0670176
223	0xbe28e197	-0.16492306
224	0x3e0d618d	0.13806744
225	0x3d9a3c02	0.07530977
226	0xbcc4c78f	-0.024020938
227	0x3db3d877	0.08781522
228	0x3e335666	0.17513427
229	0xbe431a96	-0.1905311
230	0xbc8fd948	-0.017559662
231	0x3d99fd7a	0.0751905
232	0x3e175d53	0.14781694
233	0xbe6805b4	-0.22658426
234	0xbc6c9993	-0.014440912
235	0xbde2b7db	-0.11070224
236	0x3e0e98c5	0.13925464
237	0x3c265326	0.01015166
238	0xbde43814	-0.111435086
239	0x3deca3b4	0.115546614
240	0x3e01f88a	0.12692466
241	0x3c12f30e	0.008969082
242	0xbed5d459	-0.4176357
243	0xbe1cbedd	-0.15307184
244	0x3eba1d35	0.36350408
245	0xbe3ccfd8	-0.18438661
246	0x3e0b4bab	0.13603084
247	0xbc9c62a8	-0.019090012
248	0xbe45776a	-0.19283834
249	0xbdd09712	-0.101850644
250	0x3c731824	0.014837299
251	0xbe2858ed	-0.16440172
252	0x3db1cd93	0.08681788
253	0x3b4cd683	0.0031255789
254	0x3dd13f6a	0.102171734
255	0x3c094c9d	0.008380082

bias f4 [64]
0	0xbef500cf	-0.4785218
1	0x3db87ff3	0.090087794
2	0x3e6cc2ce	0.23121187
3	0x3e150ed3	0.14556436
4	0xbe66bdd9	-0.22533359
5	0xbe6590aa	-0.22418466
6	0xbf024898	-0.5089202
7	0xbd96fab4	-0.073720366
8	0xbdf45ce3	-0.11931779
9	0xbc47e95f	-0.012201636
10	0xbb9768af	-0.0046206336
11	0xbda35a7c	-0.07976243
12	0x3eeedb4d	0.46651688
13	0x3a37512d	0.0006992992
14	0xbe09a9b6	-0.13443646
15	0xbd216ac0	-0.039408445
16	0xbe72e894	-0.23721534
17	0xbe3a4677	-0.18190943
18	0xbe557563	-0.2084556
19	0x3dc448e0	0.09584212
20	0xbe0ae2e4	-0.13563114
21	0xbe404ac6	-0.18778524
22	0x3d4f5a55	0.050623257
23	0xba44940d	-0.0007498868
24	0xbf402aa3	-0.7506506
25	0x3cb6c4ea	0.022310693
26	0xbdfcc667	-0.1234253
27	0xbd8fe9fe	-0.07027052
28	0x3db28490	0.087166905
29	0x3d2018f5	0.0390863
30	0xbb6a6a8e	-0.0035769078
31	0x3e8c7b35	0.2743775
32	0x3d7750e6	0.060379885
33	0x3d2f6c47	0.04282787
34	0x3ddaf28e	0.10690795
35	0x3e8c95be	0.27457994
36	0x3d786bcb	0.060649674
37	0x3e839719	0.25701216
38	0xbdacd4b1	-0.08439005
39	0xbe8677d6	-0.26263303
40	0x3e06453c	0.13112348
41	0x3e574ddc	0.21025795
42	0x3e81cfde	0.25353903
43	0xbee95076	-0.455692
44	0x3e9decc2	0.30844694
45	0xbe1ddf9e	-0.15417334
46	0xbd66878e	-0.05628162
47	0xbf1e718b	-0.61892
48	0x3c0008ba	0.007814581
49	0xbce88d82	-0.028387789
50	0xbe183c98	-0.14866865
51	0x3e23ef7f	0.1600933
52	0x3df82c11	0.1211778
53	0xbe5d0598	-0.21584165
54	0x3d447c2d	0.047969986
55	0xbb81a95e	-0.0039569577
56	0xbe32bee5	-0.17455633
57	0xbdd8c7ad	-0.1058496
58	0x3e53880a	0.20657364
59	0x3e2b12fc	0.1670646
60	0x3e4a9f39	0.19787301
61	0x3dea1ae7	0.114309125
62	0x3d09d561	0.03365076
63	0x3e1207ab	0.14260738

weight f4 [1, 64]
0	0x3db5d72f	0.08878934
1	0x3d913076	0.07089321
2	0xbcabdbb8	-0.020978794
3	0x3cbffeb1	0.023436876
4	0x3d97c117	0.07409876
5	0x3c2afc2a	0.010436097
6	0xbcbc17fb	-0.022960654
7	0xbaaaeda8	-0.0013040798
8	0xbc82f0b6	-0.01598392
9	0xbd363ea5	-0.044493336
10	0xbc5f5c88	-0.013632901
11	0x3d30007f	0.042969223
12	0x3bf2c644	0.007408889
13	0x3c7ecd1e	0.015551833
14	0x3c6db285	0.014507894
15	0xbd14cc37	-0.036327567
16	0xba3caf78	-0.0007197778
17	0x3d106026	0.035247944
18	0x3c6a57d3	0.0143031655
19	0xbb513737	-0.003192378
20	0xbc9413bb	-0.018075814
21	0xbc83442d	-0.01602372
22	0x3d21d855	0.03951295
23	0xbb1b21c6	-0.0023671254
24	0x3dddbc2a	0.10826905
25	0xbd50bc62	-0.050960906
26	0x3d053c0b	0.032527965
27	0xbc45e08f	-0.012077465
28	0xbcd79466	-0.02631588
29	0xbd540b19	-0.051768396
30	0xbd1d62ab	-0.038424175
31	0x3dce6726	0.10078268
32	0x3d970e94	0.073758274
33	0x3d4ef784	0.050529018
34	0x3d371cff	0.044705387
35	0x3e0cd067	0.13751374
36	0xbcfb4c90	-0.030676156
37	0xbc3346d4	-0.01094218
38	0xbcfba283	-0.03071714
39	0x3d91d82f	0.07121312
40	0xbcfa4bd3	-0.030553734
41	0xbbb28a81	-0.00544864
42	0x3d4f55df	0.050619002
43	0x3daf34ba	0.08554979
44	0x3cc7bf81	0.024383308
45	0x3c8ca693	0.017169273
46	0xbd35ef4b	-0.04441766
47	0x3d02ca1b	0.031931024
48	0xbd056bb2	-0.03257341
49	0xbcad36c4	-0.021144278
50	0x3d808f5e	0.06277345
51	0xba34eb32	-0.0006901502
52	0xbd46cc5b	-0.048534732
53	0x3d95d58a	0.0731612
54	0x3b16d62b	0.0023015838
55	0xbc5b1204	-0.0133709945
56	0x3dc1813a	0.09448476
57	0xbb8faa52	-0.0043843174
58	0xbc4b0faf	-0.012393876
59	0xbd6d2fef	-0.05790704
60	0x3d0240d5	0.03180011
61	0x3d86f682	0.065899864
62	0xbd1035d8	-0.0352076
63	0x3b5d56f7	0.003377376

weight f4 [64]
0	0x3f81bea1	1.01363
1	0x3f673d70	0.9032812
2	0x3f800000	1.0
3	0x3f993bfb	1.197143
4	0x3f6da4c8	0.9282956
5	0x3f7c3b26	0.98527753
6	0x3f6b40cc	0.9189575
7	0x3f79e7e7	0.9761948
8	0x3f800000	1.0
9	0x3f7707e9	0.96496445
10	0x3f4f8ad9	0.8107124
11	0x3f800000	1.0
12	0x3f5b0171	0.85549074
13	0x3f800000	1.0
14	0x3f1f6423	0.6226217
15	0x3f800000	1.0
16	0x3fbcc3a7	1.4747208
17	0x3fb27e86	1.3944862
18	0x3faa42ea	1.330167
19	0x3f8192dd	1.0122944
20	0x3f34a225	0.7055991
21	0x3f72e90d	0.9488686
22	0x3f800000	1.0
23	0x3f1bfd4c	0.60933375
24	0x3f8b45b1	1.0880643
25	0x3f646e64	0.8923094
26	0x3efde944	0.4959203
27	0x3f890390	1.0704212
28	0x3f800000	1.0
29	0x3f800000	1.0
30	0x3f800000	1.0
31	0x3f9fdf30	1.2489986
32	0x3f800000	1.0
33	0x3f6fccb4	0.9367173
34	0x3f800000	1.0
35	0x3f698117	0.912126
36	0x3f6cf534	0.9256165
37	0x3f800000	1.0
38	0x3f676d44	0.904011
39	0x3f800000	1.0
40	0x3f83cff4	1.0297837
41	0x3f6b6b25	0.91960365
42	0x3f8968d8	1.0735121
43	0x3f800000	1.0
44	0x3ef7de38	0.48411727
45	0x3f6cfdec	0.92574954
46	0x3f3a908c	0.7287681
47	0x3f800000	1.0
48	0x3f800000	1.0
49	0x3f800000	1.0
50	0x3f7837a9	0.9695993
51	0x3f800000	1.0
52	0x3fa08c9b	1.2542909
53	0x3f800000	1.0
54	0x3f800000	1.0
55	0x3f800000	1.0
56	0x3f585e0e	0.84518516
57	0x3f800000	1.0
58	0x3f800000	1.0
59	0x3f800000	1.0
60	0x3f800000	1.0
61	0x3f24c88e	0.6436852
62	0x3f5c9845	0.86169845
63	0x3f800000	1.0

bias f4 [64]
0	0x3bb1ee5f	0.0054300274
1	0x3e74b9d2	0.2389901
2	0x3e71e7f9	0.23623647
3	0xbe47442c	-0.194596
4	0xbe3afbf8	-0.18260181
5	0xbe9c690b	-0.3054889
6	0xbda3af7f	-0.079924576
7	0x3d311859	0.04323611
8	0xbebc8150	-0.36817408
9	0xbdeac241	-0.11462832
10	0x3dbb3264	0.091404706
11	0x3eb68d8a	0.3565486
12	0x3dcd9b1e	0.10039352
13	0x3e21db66	0.1580635
14	0x3ea71689	0.3263438
15	0xbe729361	-0.23689033
16	0x3ee18c8e	0.44052547
17	0xbdf9f151	-0.122042306
18	0xbdccdb0c	-0.100027174
19	0x3e5c4f22	0.21514562
20	0x3b9aafef	0.00472068
21	0x3eb42ace	0.35188907
22	0xbee9574c	-0.45574415
23	0xbeb353a6	-0.35024756
24	0x3e3462e4	0.17615849
25	0xbd76efca	-0.060287274
26	0xbd452aa4	-0.04813637
27	0xbd8466cb	-0.06464919
28	0x3e58c1a1	0.21167614
29	0x3edf326b	0.43593153
30	0x3e34da87	0.17661487
31	0x3d8c08e8	0.06837636
32	0x3ea7907b	0.32727417
33	0xbe08bd5c	-0.13353485
34	0xbeb3af48	-0.35094666
35	0x3dc6ebbb	0.09712931
36	0xbdc226c0	-0.09480047
37	0xbeb9644e	-0.3620934
38	0xbeb65beb	-0.35617003
39	0x3e9d9fed	0.30786076
40	0xbd8671a0	-0.06564641
41	0x3e0dd929	0.13852371
42	0x3d7d1458	0.06178698
43	0xbe51520e	-0.20441458
44	0xbe4db0cc	-0.20086974
45	0x3e9155d2	0.28385788
46	0x3cbcc32f	0.02304229
47	0x3e6bdf39	0.23034371
48	0x3ebcbed8	0.36864352
49	0x3e47c0ec	0.19507188
50	0x3d97c409	0.074104376
51	0xbea793ff	-0.327301
52	0xbe0bae16	-0.13640627
53	0xbec39ff4	-0.38207972
54	0x3eac7564	0.33683312
55	0x3e9bae6f	0.3040652
56	0xbc9e7c94	-0.019346513
57	0xbe95cd37	-0.2925813
58	0xbe01aa7e	-0.12662694
59	0xbea2e8bf	-0.31818196
60	0x3ec1eb3a	0.37874776
61	0x3e39c45a	0.18141308
62	0x3c515969	0.012777665
63	0x3e94e831	0.29083398

running_mean f4 [64]
0	0x3e4ce5e4	0.20009571
1	0x00000081	1.81e-43
2	0x00000000	0.0
3	0x3e3ebb72	0.18626192
4	0x00000004	6e-45
5	0x3e9a0bfd	0.3008727
6	0x3ea37642	0.3192616
7	0x3e4ef60a	0.20211044
8	0x00000000	0.0
9	0x3e0f9e00	0.14025116
10	0x3ebcae8b	0.36851916
11	0x00000000	0.0
12	0x3eb43a7e	0.35200876
13	0x00000000	0.0
14	0x3de18f5f	0.11013674
15	0x00000000	0.0
16	0x29811323	5.7320705e-14
17	0x3e8d12c8	0.2755339
18	0x3e717695	0.23580392
19	0x00029255	2.36165e-40
20	0x3f9a6546	1.2062156
21	0x00000004	6e-45
22	0x00000000	0.0
23	0x3e83a95d	0.2571515
24	0x3daf78c5	0.08567957
25	0x3ead98f0	0.33905745
26	0x3d32b6f6	0.043631516
27	0x39615af0	0.00021491549
28	0x00000000	0.0
29	0x00000000	0.0
30	0x00000000	0.0
31	0x3f07bbbb	0.5302083
32	0x00000000	0.0
33	0x3e78c7c1	0.2429495
34	0x00000000	0.0
35	0x3e7c57e2	0.246429
36	0x3e89cf0e	0.26915783
37	0x00000000	0.0
38	0x00000004	6e-45
39	0x00000000	0.0
40	0x00001010	5.762e-42
41	0x37d87c9f	2.5807238e-05
42	0x3e021766	0.12704238
43	0x00000000	0.0
44	0x3e0b992d	0.1363265
45	0x00000004	6e-45
46	0x3e97d9b5	0.29658285
47	0x00000000	0.0
48	0x00000000	0.0
49	0x00000000	0.0
50	0x3eabb2e2	0.33534914
51	0x00000000	0.0
52	0x3e68fcb7	0.22752653
53	0x00000000	0.0
54	0x00000000	0.0
55	0x00000000	0.0
56	0x3e4639b2	0.19357947
57	0x00000000	0.0
58	0x00000000	0.0
59	0x00000000	0.0
60	0x00000000	0.0
61	0x20314994	1.5016828e-19
62	0x3eb83873	0.35980567
63	0x00000000	0.0

running_var f4 [64]
0	0x3a0b1c39	0.00053066347
1	0x00000004	6e-45
2	0x00000004	6e-45
3	0x38dc2985	0.00010498151
4	0x00000004	6e-45
5	0x3a280df5	0.0006410771
6	0x3ab807fb	0.0014040464
7	0x39a8a9cd	0.00032169968
8	0x00000004	6e-45
9	0x3a087e82	0.00052068394
10	0x3b1adef3	0.0023631423
11	0x00000004	6e-45
12	0x3a496617	0.0007682754
13	0x00000004	6e-45
14	0x39fb23ac	0.00047901028
15	0x00000004	6e-45
16	0x270b1713	1.9302634e-15
17	0x393a3d9b	0.00017761292
18	0x39ec5027	0.00045073146
19	0x00002e87	1.6691e-41
20	0x3ac00ffa	0.0014653199
21	0x00000004	6e-45
22	0x00000004	6e-45
23	0x382db956	4.141902e-05
24	0x38192208	3.6509737e-05
25	0x39973038	0.0002883689
26	0x371f21f6	9.485046e-06
27	0x3758c4a1	1.29203845e-05
28	0x00000004	6e-45
29	0x00000004	6e-45
30	0x00000004	6e-45
31	0x3a4a6b9e	0.00077217247
32	0x00000004	6e-45
33	0x39727dad	0.00023125736
34	0x00000004	6e-45
35	0x394be524	0.0001944495
36	0x391cec84	0.00014965428
37	0x00000004	6e-45
38	0x00000004	6e-45
39	0x00000004	6e-45
40	0x0000002a	5.9e-44
41	0x33c6c8b2	9.2566e-08
42	0x39c1eb1d	0.00036987002
43	0x00000004	6e-45
44	0x38fc6d3e	0.00012036644
45	0x00000004	6e-45
46	0x395d02c1	0.00021077228
47	0x00000004	6e-45
48	0x00000004	6e-45
49	0x00000004	6e-45
50	0x3a6ddb99	0.0009073555
51	0x00000004	6e-45
52	0x39b90f70	0.00035297452
53	0x00000004	6e-45
54	0x00000004	6e-45
55	0x00000004	6e-45
56	0x3a0bfaac	0.0005339782
57	0x00000004	6e-45
58	0x00000004	6e-45
59	0x00000004	6e-45
60	0x00000004	6e-45
61	0x19dab789	2.2614801e-23
62	0x3997edd8	0.00028978172
63	0x00000004	6e-45

weight f4 [64]
0	0x3f336fe4	0.70092607
1	0x3f272662	0.6529294
2	0x3ec349d7	0.38142273
3	0x3f369929	0.71327454
4	0x3f16b9bf	0.58877176
5	0x3f1817da	0.59411395
6	0x3f3523d7	0.7075781
7	0x3c94d230	0.018166631
8	0x3e32edbe	0.17473504
9	0x3ed5bd12	0.41745812
10	0x3e13d137	0.14435278
11	0x3f07a773	0.5298988
12	0x3ec33f59	0.38134268
13	0x3ec871af	0.39149234
14	0x3eb5ae29	0.35484436
15	0x3f0686a4	0.52549195
16	0x3d149d96	0.0362831
17	0x3f148838	0.58020353
18	0x3eb411a3	0.35169706
19	0x3f0719f7	0.52773994
20	0x3f36f64b	0.71469563
21	0x3f12e4c4	0.5738032
22	0x3eed765f	0.46379372
23	0x3e62b223	0.22138266
24	0x3f36bc1a	0.7138077
25	0x3f428ef8	0.75999403
26	0x3e7716c2	0.24129775
27	0x3e614d16	0.22002062
28	0x3e5032d5	0.20331891
29	0x3e98ef04	0.29869854
30	0x3f2470e0	0.64234734
31	0x3f4c4890	0.7979822
32	0x3f32f2d2	0.69901764
33	0x3ef0ffcd	0.4707016
34	0x3f22bb0a	0.6356665
35	0x3f58684f	0.8453416
36	0x3f46ce60	0.77658653
37	0x3f20e88b	0.6285483
38	0x3f3dcadc	0.74137664
39	0x3f5ab754	0.85435987
40	0x3f212d5e	0.6295985
41	0x3f347237	0.7048678
42	0x3f20cbc4	0.6281092
43	0x3f07752b	0.5291316
44	0x3f34dff9	0.70654255
45	0x3e4942d9	0.19654407
46	0x3f2c199e	0.6722659
47	0x3e88e72b	0.26738867
48	0x3ee3769a	0.44426423
49	0x3f2ef632	0.68344414
50	0x3f198385	0.5996631
51	0x3d4a2aeb	0.049357336
52	0x3ef771bd	0.48328963
53	0x3f1ab181	0.604271
54	0x3f1f8b50	0.6232195
55	0x3f264783	0.6495287
56	0x3f3a5012	0.7277843
57	0x3daa2807	0.08308416
58	0x3f08283d	0.531864
59	0x3f5572df	0.83378404
60	0x3f182c0b	0.59442204
61	0x3f0a1ad2	0.53947175
62	0x3eaa61ba	0.33277684
63	0x3dd529aa	0.104083374

bias f4 [64]
0	0xbd270da0	-0.04078448
1	0x3dd2a42c	0.102852196
2	0xbd2ee6ad	-0.04270046
3	0x3c974bee	0.018468823
4	0x3daa0dfa	0.08303447
5	0x3d9ccf59	0.07656736
6	0xbc968a20	-0.01837641
7	0xbbb08ada	-0.005387646
8	0x3dadcd63	0.0848644
9	0xbcf670ac	-0.030083023
10	0x3d0d2202	0.03445626
11	0x3d2aa520	0.04166138
12	0xbcb5e247	-0.022202624
13	0x3d944346	0.07239394
14	0xbd4e8957	-0.050423946
15	0xbd0285d1	-0.0318659
16	0x3bf3f9ba	0.007445541
17	0xbdc6430c	-0.09680757
18	0x3dbd424d	0.092411615
19	0xbda6163d	-0.0810971
20	0xbd79b489	-0.060963187
21	0xbd4d5e7f	-0.050138947
22	0x3e15bcc8	0.14622796
23	0xbde15c92	-0.110039845
24	0x3d3f0c33	0.046642493
25	0x3d29c894	0.04145105
26	0xbce67c4a	-0.028135438
27	0x3cc2a974	0.023762442
28	0x3cbda9fe	0.023152348
29	0x3bccfc64	0.0062556732
30	0xbc201a08	-0.009771831
31	0x3dce117c	0.10061929
32	0xbdfce5d4	-0.12348524
33	0x3d02b238	0.031908244
34	0xbb1cd105	-0.0023928296
35	0xbdde928a	-0.10867794
36	0xbc9ce47b	-0.019151917
37	0x3e12c0e6	0.14331397
38	0x3d0eb1ff	0.03483772
39	0xbb701756	-0.0036635003
40	0xbd88dc96	-0.066826984
41	0x3d5449ea	0.051828302
42	0xbd933cfe	-0.07189368
43	0xbdce3778	-0.100691736
44	0x3d15b935	0.03655358
45	0x3d6fef01	0.05857754
46	0x3ca0e566	0.019640636
47	0x3dfaaf05	0.122404136
48	0xbd1d3b29	-0.038386498
49	0x3be92452	0.0071149254
50	0x3d9208c4	0.07130578
51	0x3d8801e4	0.066409856
52	0xbd7c4fa5	-0.061599392
53	0x3e0fa52c	0.14027852
54	0xbd273942	-0.04082609
55	0xbcdd1210	-0.026986152
56	0x3d0a10b7	0.033707347
57	0x3d908863	0.07057264
58	0xbd141810	-0.03615576
59	0x3cd0a752	0.02547041
60	0xbd7474e0	-0.059681773
61	0x3dc11740	0.09428263
62	0x3d121523	0.03566469
63	0xbd1c965b	-0.038229328

running_mean f4 [64]
0	0x3c087b64	0.0083302
1	0x401ac7aa	2.4184365
2	0x3f01adc9	0.506558
3	0x3fbc94ae	1.4732873
4	0x3e472b16	0.1945003
5	0x3e83dd48	0.25754762
6	0x3386f3cb	6.284207e-08
7	0x37a964e7	2.0193356e-05
8	0x3e034eb2	0.12822989
9	0x3fc6f704	1.5544133
10	0x3f2e6143	0.6811716
11	0x3e916142	0.28394514
12	0x40a80347	5.2504
13	0x3f1888b1	0.59583575
14	0x3e80e5b2	0.25175244
15	0x3fa7a251	1.309641
16	0x3783ba84	1.570327e-05
17	0x3e20a361	0.15687324
18	0x3f5c0578	0.85945845
19	0x4008994e	2.134357
20	0x3e4ddb09	0.20103087
21	0x3ee12c9f	0.43979356
22	0x3eb79e4e	0.35862964
23	0x3a31cf5e	0.0006782914
24	0x1311efa3	1.8419723e-27
25	0x401760d0	2.365284
26	0x391a60e3	0.00014722678
27	0x386588b7	5.472518e-05
28	0x4005660d	2.0843537
29	0x3faf7f14	1.3710656
30	0x3e88024e	0.26564258
31	0x400d99fc	2.2125235
32	0x4059e80d	3.4047883
33	0x403087f0	2.758297
34	0x4063b975	3.5581944
35	0x404856ea	3.1303048
36	0x40140c78	2.313261
37	0x40125dd1	2.286976
38	0x3f65bbe2	0.8973981
39	0x3fcd65b0	1.6046658
40	0x3ef7abfa	0.48373395
41	0x3f8ec5b2	1.1154082
42	0x40be8659	5.9539
43	0x283fa766	1.0638929e-14
44	0x3fb73de7	1.4315766
45	0x3ea6af81	0.32555774
46	0x3fc53172	1.5405715
47	0x3f2c7e6e	0.67380416
48	0x3f523107	0.8210606
49	0x3fa844e2	1.3146021
50	0x3e9fa382	0.31179434
51	0x3f960fbb	1.172355
52	0x3f5509f8	0.83218336
53	0x3ee652ad	0.44984952
54	0x3f4167d3	0.7554905
55	0x3f964356	1.1739299
56	0x3f194ec3	0.59885806
57	0x3d560996	0.052255236
58	0x3f9565cb	1.167169
59	0x3f037bc1	0.5136071
60	0x4062d5db	3.5443027
61	0x40228018	2.5390682
62	0x3fed751e	1.8551366
63	0x3f666061	0.8999081

running_var f4 [64]
0	0x3c404cd4	0.011737067
1	0x407d9d58	3.9627285
2	0x3f1a74f7	0.60334724
3	0x40146cc3	2.3191383
4	0x3ee3619d	0.4441041
5	0x3f2b9af7	0.6703333
6	0x34003a2f	1.1942096e-07
7	0x370c3a9e	8.358298e-06
8	0x3ea8e6eb	0.32988676
9	0x4125b4a6	10.356604
10	0x3fc7414b	1.5566801
11	0x3f5656d5	0.83726245
12	0x40338ecb	2.8055904
13	0x3e8508cf	0.25983283
14	0x3ef5d33f	0.4801273
15	0x40c53bc3	6.163545
16	0x37db1eca	2.6121172e-05
17	0x3e8848b1	0.2661796
18	0x40a8d4c7	5.275974
19	0x40c05eb6	6.0115614
20	0x3e9a5f9c	0.3015107
21	0x3fff9a38	1.9968939
22	0x3f2414ca	0.6409422
23	0x3ac7cdb6	0.0015243802
24	0x13842f1e	3.3367946e-27
25	0x41909af4	18.07566
26	0x38db0891	0.000104443294
27	0x37d7a399	2.5706178e-05
28	0x40951935	4.659327
29	0x404d4f05	3.207948
30	0x3dea4051	0.11438049
31	0x3f934e09	1.150819
32	0x40e06a9e	7.013015
33	0x410ca123	8.78934
34	0x410cec2d	8.80766
35	0x4128791c	10.529568
36	0x41383e0e	11.51515
37	0x4100cded	8.050275
38	0x3fb2c568	1.3966494
39	0x40a845d5	5.2585244
40	0x3ef91b77	0.48653767
41	0x3fa7fe09	1.31244
42	0x42076bae	33.855156
43	0x28b39f4e	1.994208e-14
44	0x3f49aefc	0.7878263
45	0x3f4c8ed9	0.7990547
46	0x4103a002	8.226564
47	0x40be62b9	5.949551
48	0x4016e2d1	2.3575938
49	0x411827c0	9.509705
50	0x3f76c861	0.96399504
51	0x40120d62	2.2820668
52	0x3ffcede6	1.9760101
53	0x40115254	2.27065
54	0x3f8475fb	1.0348505
55	0x3f31916f	0.6936254
56	0x40402be3	3.0026786
57	0x3db19a09	0.08671958
58	0x3e4dd970	0.20102477
59	0x3f12542a	0.57159674
60	0x41aa79d0	21.309479
61	0x40f8d380	7.775818
62	0x411be1f8	9.742668
63	0x3f1067cc	0.5640838
