parameters_DffNetwork_Adam_0.005_500.pth (torch, 10519 bytes, 5 tensors)

weight f4 [36, 12]
000000 ca 5f 3b bc 22 65 d5 bd 51 f4 1d 3d 14 87 83 3e
       -0.011436412 -0.1041968 0.038563076 0.25688994
000010 ef 85 24 be 2d 6c 0c bd 11 ef 81 3d 25 87 80 be
       -0.16066717 -0.034282852 0.063444264 -0.25103107
000020 ba b6 b1 bd f6 5a 21 3e 22 a0 94 bd d4 ac c1 3d
       -0.086774305 0.15757355 -0.072571054 0.094567925
000030 e0 41 4d bd 19 e3 9b 3d 81 6a ca bd 1b 8b 0a 3e
       -0.05011165 0.07611675 -0.09883595 0.13529627
000040 54 88 82 3d 67 23 2c 3e 34 af 29 3e b7 4e 85 be
       0.06373659 0.1681038 0.16570741 -0.26036617
000050 7b f4 bc 3d 56 70 78 3e 32 f8 24 bd 1e 79 26 be
       0.092263184 0.24261603 -0.04027576 -0.1625714
000060 0f 3d a6 be 2a 5a 91 be d8 f1 72 be b3 78 de bd
       -0.3246846 -0.28389102 -0.23725069 -0.10862865
000070 7a a8 35 be 09 3a 28 be a0 16 fd bd 35 c0 54 3e
       -0.1774005 -0.16428389 -0.12357831 0.20776446
000080 12 68 a3 be 3b a6 bf be 7f 84 68 3d b1 17 3a bd
       -0.31915337 -0.3743151 0.056766983 -0.04543275
000090 48 c7 c7 be b0 9f 71 be 60 89 80 be d3 6c 5a be
       -0.39019227 -0.23596072 -0.2510481 -0.21330576
0000a0 de f9 a2 be f2 64 fc bd 13 61 3d be 40 3d 86 be
       -0.3183126 -0.12323941 -0.18494062 -0.26218605
0000b0 79 39 8e be a8 f7 a4 be f4 6b 24 be 64 e9 15 3e
       -0.27778223 -0.32220197 -0.16056806 0.14639813
0000c0 50 51 5e 3e c0 9d 2f 3e cd 6d 8e 3e 06 33 4c bd
       0.21710706 0.1715002 0.27818146 -0.049853347
0000d0 67 2b 8c 3d e1 51 82 bd 1f e2 ad bd 58 2f 87 be
       0.06844216 -0.063632734 -0.08490395 -0.26403308
0000e0 32 3f 5a 3e e1 82 8a 3e d5 c1 ba bd a2 a4 7b be
       0.2131317 0.27052978 -0.09119002 -0.24574521
0000f0 98 21 8f 3e a0 9b 00 3f f1 7b 65 3f 23 fa c5 40
       0.27955317 0.50237465 0.89642245 6.1867843
000100 ca 24 78 3e 91 5d 9a 3e 6b b8 66 be 24 12 b2 bd
       0.24232784 0.3014951 -0.22531287 -0.08694866
000110 a9 14 4b 3e 24 3d 47 40 8d 1e 24 bf e4 1f 25 3e
       0.198321 3.1131067 -0.64109117 0.16125447
000120 cf cb 85 be 6f cc c5 3d 55 36 d4 3d a9 2a 16 be
       -0.26132056 0.09658133 0.103619255 -0.14664711
000130 fd 35 3b 3d 78 b5 3f be 37 80 ec 3d eb dc 1a 3e
       0.045705784 -0.18721569 0.115478925 0.15123336
000140 bd 58 79 3e eb 98 5a be 9f 5e 56 bd 6a e7 90 be
       0.24350257 -0.21347396 -0.05233633 -0.28301555
000150 11 eb 07 bf 1d e0 0f bf 5a 53 bb be ff 26 da bf
       -0.5309306 -0.56201345 -0.3658703 -1.7043151
000160 c9 a8 db be 42 ff 00 bf ec 01 02 bf 04 f5 66 be
       -0.4290221 -0.5038949 -0.5078418 -0.22554404
000170 84 3b 4d bf d9 7d 20 40 97 de 8b 3f ff 28 1c bf
       -0.8016894 2.5076811 1.0927304 -0.61000055
000180 bb 6b 87 be a2 a4 95 bd a3 2a 66 3b b9 1a 80 bd
       -0.2644938 -0.07306792 0.0035120628 -0.06255097
000190 6f 79 8c bd d4 a0 7d 3e 2c f6 05 3e c6 0b 8a be
       -0.06859099 0.24768382 0.13082188 -0.26962107
0001a0 b9 8a 54 3e 3c 7f 33 be 9b f4 90 be 36 db 98 3d
       0.20756043 -0.17529005 -0.2831162 0.07463686
0001b0 aa d1 53 3e 84 0e a7 3d 1c f9 3e 3e 1d 1c b7 bd
       0.20685449 0.081570655 0.18649715 -0.08940909
0001c0 c3 87 a7 3d 08 62 7c 3e 72 90 70 be 49 ab 33 be
       0.08180191 0.24646771 -0.23492602 -0.17545809
0001d0 0c 99 aa bd fd 87 93 3e 3f aa 8f be b7 15 74 3d
       -0.083299726 0.28814688 -0.28059575 0.05959102
0001e0 ad ba f1 bd e2 f3 21 3e 8d e7 46 bc 42 27 84 be
       -0.11803184 0.1581569 -0.012140167 -0.258112
0001f0 88 69 36 3c db 1e 44 3e dd 87 3b be 55 07 7c be
       0.011133559 0.19152395 -0.18313546 -0.24612172
000200 ac 99 61 be 81 28 00 be 9e 14 5e bd c0 4d 21 3e
       -0.22031277 -0.12515451 -0.05421888 0.15752316
000210 82 de a7 3d 25 fd ab 3e 05 47 0b be 05 dc 3f 40
       0.08196737 0.3359157 -0.1360131 2.997804
000220 56 f8 31 3f bc 82 2c 3f 24 d2 df 3d aa 8f a0 3e
       0.69519556 0.67386985 0.10928753 0.31359607
000230 07 dd 07 3f 25 f7 0c 40 a5 72 c1 bf 2e f2 10 3e
       0.53071636 2.2025845 -1.5113112 0.14154884
000240 fe 03 21 bd 4c 89 a9 3c 68 f9 8a 3e c9 59 55 3e
       -0.039310448 0.020695351 0.27143407 0.20835032
000250 c6 ab 75 3e 5d 3a 45 3d f0 f6 92 3e cf 08 cf bd
       0.23991308 0.048151363 0.28704023 -0.10109102
000260 0b bd fa bd 79 7b 02 be 4e 23 2a 3a c9 94 66 be
       -0.12243088 -0.12742414 0.0006490246 -0.22517695
000270 b1 34 bf bd 9d 46 ba 3e 88 eb 61 3f ef d4 bc 40
       -0.09336222 0.36382 0.8825002 5.900993
000280 31 6b 99 3e f8 5a 05 3e 64 90 2a be 06 96 4b 3e
       0.29964593 0.13022983 -0.16656643 0.19881448
000290 89 82 b2 3e ed 06 68 40 5b 82 22 bf 5b cf 93 3e
       0.34865215 3.6254227 -0.63480157 0.28869137
0002a0 7b 28 7c be a8 03 02 3d c2 8c 8b be 5c db ed 3c
       -0.24624817 0.031741768 -0.27255827 0.029035263
0002b0 d8 69 46 3e dd bf 13 be f7 5c 1f 3e 81 51 2b 3d
       0.19376314 -0.14428659 0.15562807 0.041825775
0002c0 a6 d1 e7 bd 94 a4 17 3e dd 1b f7 3c a0 ce 1f 3d
       -0.11319284 0.14808875 0.030164653 0.039015412
0002d0 26 5e 66 3e 28 74 c9 bd a2 df b1 3d 19 a2 4b bd
       0.22496852 -0.09836608 0.08685233 -0.049715135
0002e0 29 73 1b 3e 10 4c 80 3e d6 1a 8d 3d b5 38 5d 3e
       0.15180649 0.2505803 0.06889884 0.21603663
0002f0 96 4e 26 3e b3 58 8f be af ba f0 bc b3 15 96 be
       0.16240916 -0.2799736 -0.029385893 -0.2931343
000300 8e 11 95 3d 17 04 1f 3e a5 c6 62 3e 82 37 28 be
       0.07278739 0.15528904 0.2214609 -0.16427425
000310 ab f7 6a be 3a 1c 09 be 4c 9c 77 3c df 13 87 bd
       -0.2294604 -0.13389674 0.015112948 -0.06595587
000320 ca ba 39 3e 16 f6 ed 3d ad f6 74 be 87 42 88 3e
       0.1813766 0.11619203 -0.23922224 0.26613256
000330 d2 60 32 be aa 7f c5 be 19 cc b8 be 39 c6 fb be
       -0.17419747 -0.38573962 -0.36093214 -0.4917467
000340 61 68 8f be 1f e9 1a 3e 67 88 99 be da c2 a0 be
       -0.28009322 0.15127991 -0.2998688 -0.3139866
000350 ed 8b 45 3e de b3 ab be ae b3 97 be 76 2e 00 bd
       0.19291659 -0.33535665 -0.29629272 -0.03129431
000360 55 fa 99 3d 87 3e 92 3c 06 11 83 be ef d6 8e bd
       0.0751845 0.017852081 -0.25598925 -0.06974589
000370 5b 0b 81 be a9 3c a5 3d e5 bf 1a be 06 0b d9 be
       -0.25203976 0.08068211 -0.15112264 -0.42391223
000380 24 84 d5 be 93 96 bb be 81 df 5e bd d8 67 4d be
       -0.41702378 -0.36638317 -0.05441237 -0.20059144
000390 bd 66 39 be 93 66 6c 3e 12 e8 c3 3d f7 7a 8b bd
       -0.18105598 0.23086004 0.09565748 -0.06810563
0003a0 2f a5 6c 3e d5 37 17 3e d8 dd 5d 3c cf 2c f1 3d
       0.23109888 0.14767392 0.013541661 0.11776125
0003b0 87 fb 64 bb 90 90 ee bd 3d c8 13 3e 80 50 2c 3e
       -0.003493996 -0.11648667 0.14431854 0.16827583
0003c0 36 49 53 bc 1b a5 86 3e 1f 4e 61 3f 85 f8 d8 40
       -0.012895873 0.2629784 0.8800983 6.780337
0003d0 bb 39 b2 3e 1a 91 a7 3e 54 83 99 bc 0c 72 4b be
       0.3480967 0.3272789 -0.01873938 -0.19867724
0003e0 78 a0 9f 3d 93 7b 5e 40 18 48 1c bf 50 be ef 3e
       0.07794279 3.4762924 -0.61047506 0.46824884
0003f0 44 b0 22 3e e6 b5 89 3e 7b 06 55 3f 0f f3 bc 40
       0.15887552 0.2689659 0.83213013 5.9046702

bias f4 [36]
000000 94 7d a8 ba 01 bb 37 be a0 56 84 bd 63 30 22 3c
       -0.0012854808 -0.1794243 -0.06461835 0.009899232
000010 4f a8 a7 bd 2c 5c ae 3e e8 6e 97 bc 7f 56 16 bf
       -0.08186399 0.34054697 -0.018485501 -0.5872573
000020 08 11 26 be 4a 7b 62 be f5 f0 01 be 3b 4c 2f 3f
       -0.16217434 -0.22117344 -0.12689574 0.68475693
000030 e8 4a 46 be 12 97 ab 3e b6 a6 6e bd fb 42 98 bc
       -0.19364512 0.33513695 -0.058264457 -0.018586626
000040 6b 8a 21 be 30 94 a9 3c 27 49 62 bc 34 03 88 be
       -0.15775459 0.020700544 -0.013811386 -0.26564944
000050 5f ce a6 3e d9 38 b9 3e f4 99 a3 3e b9 74 46 be
       0.32579324 0.36176184 0.31953394 -0.19380464
000060 76 83 e9 bd d0 38 45 be 77 55 71 be a5 d2 cf bd
       -0.11402027 -0.19259953 -0.23567759 -0.10147599
000070 8e e4 9c 3e 58 50 1d bd 3b 0a 92 be ab b4 26 3c
       0.30643123 -0.0384067 -0.2852343 0.010174911
000080 c9 c6 7b 3c 00 c8 26 be e2 63 db 3a c3 52 82 be
       0.015367218 -0.16287231 0.0016738141 -0.25453767

weight f4 [36, 36]
000000 be d5 20 be 0b 73 66 bd 04 b1 43 be 97 7a 02 3c
       -0.15706536 -0.056262057 -0.19110495 0.007963798
000010 b6 23 87 bc d1 e7 9d be c6 ce 36 3d cc 2a 9d 40
       -0.01649652 -0.30840924 0.04463079 4.911474
000020 c6 7c c3 3d 1e 82 ff 3d 02 dc 17 be a3 a9 0d bf
       0.09545283 0.1247599 -0.1483002 -0.5533697
000030 0f 18 11 be 4a 5c ae be 2a b5 86 bd a2 0d 34 3d
       -0.14169334 -0.34054786 -0.06577523 0.043958314
000040 80 a9 d1 bc ca e2 78 be b0 46 77 3d b0 63 74 bd
       -0.02559352 -0.24305263 0.060370147 -0.059665382
000050 85 3e e4 3d 48 29 de be ef 64 46 3e 56 52 9e bb
       0.11144737 -0.4339087 0.1937444 -0.0048315926
000060 8b 1d 03 3e 1f 0b 1d be 50 2f 90 3d 2b a0 f3 bd
       0.12804238 -0.15336274 0.07040274 -0.11895784
000070 00 e9 65 be b5 42 33 3d 2e 46 82 bd 87 3f cc 3d
       -0.22452164 0.04376479 -0.06361042 0.099730544
000080 d6 35 5c bd fb a7 01 3d 20 ba d6 ba 30 9b d0 3d
       -0.05376228 0.03165434 -0.0016382374 0.1018585
000090 ac a0 6e bb a0 5e 31 3d f9 74 de 3d ea e3 49 3d
       -0.0036411686 0.043303132 0.108621545 0.04928962
0000a0 17 85 1a be 2c 53 03 be 0b 5e 28 be de 17 99 c0
       -0.15089832 -0.12824696 -0.16442125 -4.7841635
0000b0 d7 e1 0e 3e 9a 66 12 3e e6 6c 73 3d 16 30 e9 bd
       0.13953339 0.14296952 0.059430026 -0.11386125
0000c0 96 44 78 3d fe 3c 48 bd 06 10 17 be bb 93 8a 3d
       0.060612284 -0.04888629 -0.14752206 0.067664586
0000d0 4b 0b 1e be ad 6a c2 bd 00 3a 86 3a bb 2d 0d bd
       -0.15433995 -0.09493003 0.0010240674 -0.03446744
0000e0 ab 49 a0 be a0 17 61 be 23 21 36 bf c4 40 24 be
       -0.31306204 -0.21981668 -0.7114431 -0.16040331
0000f0 bb d2 4c bd 70 30 5a bd 9b 64 a6 3d a4 ef 1b be
       -0.050005656 -0.05326885 0.08124658 -0.15228134
000100 00 6a 9f be 07 be b9 bd 2b ce 0d 3e 4f 85 d1 3d
       -0.3113556 -0.09069448 0.13848178 0.10230505
000110 55 ac c7 bd 60 12 e6 bd 8e 04 05 3e be d5 20 be
       -0.097496666 -0.112339735 0.12990019 -0.15706536
000120 67 64 c1 3b c8 80 c2 bd 42 dc 01 3e 36 33 ae 3d
       0.0059018615 -0.09497219 0.12681678 0.085058615
000130 1b 49 44 3d ad e7 d8 3c d6 5a 56 3c 93 a8 96 40
       0.04792128 0.02647766 0.01308318 4.708078
000140 68 71 0c 3e fb 79 d3 3d fa 4a 05 be 43 36 31 be
       0.13715136 0.10326 -0.13016883 -0.17305855
000150 d8 b2 e3 bd 26 b2 b6 bc 2f 97 2c 3e 45 57 04 3e
       -0.11118096 -0.022301745 0.16854547 0.12923916
000160 40 e8 c2 bc 9f 15 88 bd 31 ef c2 bd 4e aa c3 3d
       -0.023792386 -0.06644749 -0.095182784 0.095539674
000170 64 cc 7f 3e f6 9f 26 be 8e e9 96 3e c6 6d d0 bd
       0.24980313 -0.16271958 0.29475063 -0.101771876
000180 b6 0b 1c be ab 1a 99 bd f6 1a 7f 3d 76 45 8a bd
       -0.15238842 -0.0747579 0.06228157 -0.0675153
000190 26 f6 96 ba e7 dc 30 bc fb 46 01 bd 55 34 9b bc
       -0.001151745 -0.010794855 -0.031561833 -0.018945852
0001a0 fe 12 f8 3c eb 62 f7 bd ef ec 0f be 16 85 7d 3d
       0.030282494 -0.12079414 -0.14055227 0.0618945
0001b0 f2 8b f5 bd 53 e3 f4 bd f7 a9 9b 3d 9a 7b db bd
       -0.11989583 -0.11957421 0.076007776 -0.107169345
0001c0 6e 6a d9 3d 03 23 33 be 73 b0 29 be f7 28 97 40
       0.10616003 -0.17493825 -0.16571216 4.7237506
0001d0 00 ab 25 3d 26 fb 61 bd ab 57 57 bb 9e c7 b9 be
       0.04044628 -0.055171154 -0.003285865 -0.36285108
0001e0 f6 2c 0e bd c8 ea 89 be 9d 74 c3 bd 33 e2 01 3d
       -0.034710847 -0.26936936 -0.095437266 0.03170986
0001f0 90 53 ba 3d 67 9e 86 be 71 9b a2 bd bb 26 af bd
       0.090979695 -0.26292726 -0.07939804 -0.08552309
000200 1d 8d 9c 3d 85 e1 1a be 59 8a 83 3e 80 f7 9e 3b
       0.07644103 -0.15125091 0.25691488 0.0048512816
000210 f6 e3 cd bc 26 23 07 bd 7b 78 28 be 6b 6d 1a bc
       -0.025133114 -0.032992505 -0.1645221 -0.009425501
000220 f7 55 85 be 0a 97 0a be c6 c0 30 bd 04 a5 51 bc
       -0.26042148 -0.1353418 -0.043152593 -0.01279569
000230 03 3a 8e be 40 b5 59 bd 15 00 c8 bd 6b ad df 3d
       -0.27778634 -0.05315137 -0.09765641 0.10921749
000240 38 fb 18 3e 78 38 2a 3e e9 9d 36 3d 75 05 22 3c
       0.14939582 0.16623104 0.04458419 0.009888996
000250 0b 11 1a be 65 47 0a bf 9a a1 03 be d8 05 a4 c0
       -0.15045564 -0.5401519 -0.12854615 -5.1257133
000260 c8 bd ad bd 2b 3b a3 bb 88 d0 a2 bd 84 a5 71 be
       -0.084834635 -0.0049814186 -0.079499304 -0.23598295
000270 13 10 01 be 6e 7d 32 bf 95 82 3f bd c9 c2 65 bc
       -0.12603788 -0.6972264 -0.046755392 -0.014023491
000280 73 2f b5 bd 43 de e4 bd 9d f1 57 be 5b 40 18 3e
       -0.08846941 -0.111752056 -0.21088262 0.148683
000290 74 56 47 bf 78 48 24 bf d6 5d 6c bf ca ec 1b be
       -0.7786629 -0.6417308 -0.9233068 -0.15227047
0002a0 dc 02 0a 3e 33 8c ae bd fb 73 0c 3e 0b f9 e0 bd
       0.13477653 -0.08522835 0.13716118 -0.10985001
0002b0 d6 68 39 bf 8d aa dd bc 70 3d d7 3d 75 c7 59 be
       -0.7242559 -0.027058864 0.10509765 -0.21267493
0002c0 e8 b6 43 be 46 d4 53 bd 72 5a 93 3d 60 31 83 bc
       -0.19112742 -0.05171611 0.071949854 -0.016014755
0002d0 9d 4f 1d bc 26 33 91 bd 37 d5 2f be 4e eb 03 3e
       -0.009601501 -0.07089834 -0.17171179 0.1288273
0002e0 2f 74 1e 3e 1f 83 64 be eb 8b 72 3c d0 3b 9a c0
       0.15474008 -0.22315644 0.014803867 -4.8198013
0002f0 80 39 46 3c 20 dc c9 3c 8b de 32 bd ee 37 07 3e
       0.01209867 0.024641097 -0.043669265 0.13204929
000300 eb f2 d0 3c af 17 9b be ec 97 a2 bd 0d 1f 06 3e
       0.025506457 -0.30291507 -0.07939133 0.13097782
000310 9e 5e 0c be 13 65 16 be 23 a0 ae 3d 0f d6 27 3e
       -0.13707969 -0.14686994 0.085266374 0.1639025
000320 ca 85 fa be f3 04 86 be 0d b5 0b bf cb 3a 02 bd
       -0.48930198 -0.2617565 -0.54573137 -0.03179435
000330 a2 90 17 be 2e bf 08 3e aa f3 1e 3e a0 1b 19 3d
       -0.14801267 0.1335418 0.15522638 0.03737986
000340 1b db 39 be fa 36 11 be 78 09 e8 3d 82 09 e1 bd
       -0.18149988 -0.14181128 0.11329931 -0.109881416
000350 35 12 f7 bc de fb f6 3d 95 fd f2 bd 2b 22 d7 bd
       -0.030160049 0.120597586 -0.11864773 -0.10504564
000360 c7 87 20 be 00 ca 30 bb bb af b7 bd e8 b6 6d bd
       -0.15676795 -0.002697587 -0.08969065 -0.05803576
000370 5a e7 0b be 9d a3 9c be 6b 57 9a 3d bd 82 9d c0
       -0.13662472 -0.30593577 0.07536205 -4.9222093
000380 9b c4 29 3d 8b d5 ad bd 43 95 d9 bd ff 75 d2 bc
       0.041447263 -0.08487996 -0.106241725 -0.02569103
000390 28 9d 98 bd 98 33 63 be 80 1f 8e bb 4a aa e8 bd
       -0.0745185 -0.2218765 -0.004337251 -0.11360605
0003a0 eb d0 d5 bc a7 25 86 bd a2 88 9d 3d f6 85 64 3d
       -0.026100596 -0.0655015 0.07692076 0.055791818
0003b0 05 ed d6 be 57 9a 04 be ea 53 43 bf 4b c2 1c be
       -0.41977707 -0.12949501 -0.7629992 -0.15308492
0003c0 7e 81 fa bd 82 b3 1b 3e 56 cd 2d 3d 4b 8e aa bd
       -0.1223173 0.15205196 0.04243215 -0.083279215
0003d0 fd 85 07 be da 02 ce bd 8b 19 2f 3d f8 1f 05 3e
       -0.13234706 -0.10059138 0.04274897 0.13000476
0003e0 a5 3e 9b 3d 6b 0f 9b bc 59 ea 82 bd 1b b5 61 3d
       0.07580308 -0.01892825 -0.063923545 0.055104356
0003f0 73 e6 c7 bc 60 4c cc 3d 38 d3 e3 bd 98 6d 7a 3c
       -0.024401879 0.09975505 -0.11124271 0.015284918

bias f4 [36]
000000 18 cc c1 be 9a 7c 1c be 50 e8 85 be 1b 83 0c be
       -0.37851024 -0.15281907 -0.26153803 -0.13721888
000010 ed 9e d4 be 9b 50 1e bd 24 32 26 be 49 a6 73 be
       -0.415275 -0.03865109 -0.16230065 -0.23793902
000020 4f 3d bb bd 42 ca c9 bd 8c fe 50 bd b9 04 e3 be
       -0.09142553 -0.09853031 -0.051024005 -0.4433954
000030 84 6d be be 84 d1 90 be e0 cd e4 bd ba 3c aa be
       -0.3719293 -0.28284848 -0.1117208 -0.33249456
000040 52 d4 fc bd fd 15 c8 be ea 63 72 be d7 fc dd be
       -0.123451844 -0.39079276 -0.23670927 -0.43356964
000050 19 df 9e be 0a e8 0a be 60 26 63 be bc cc d5 bd
       -0.31029585 -0.13565078 -0.22182608 -0.104394406
000060 ba 85 32 be b1 16 ca be 7e cd 64 be 7c 28 4a be
       -0.17433825 -0.39470437 -0.22344014 -0.19742006
000070 af 6d d3 bd ad 51 e0 bd 22 cb 11 bf 33 51 9a be
       -0.10323655 -0.109530784 -0.5695058 -0.30140075
000080 ce 3f bf be 71 43 4c be ba fd 9a be c9 5e 20 bf
       -0.37353367 -0.19947602 -0.30271703 -0.6264463

weight f4 [1, 36]
000000 4c d3 41 3e 7c 51 59 be 51 8c 8d 3e 28 e7 2d 3e
       0.1892826 -0.2122249 0.27646115 0.1698271
000010 17 c5 11 be af 4f 57 be 88 c9 54 be 3d 12 7d be
       -0.1423534 -0.2102649 -0.20780003 -0.24713989
000020 c8 55 55 3e 1a 3b 8a 3e 9c da 40 be ef b1 3c 3e
       0.20833504 0.26998216 -0.18833393 0.18427251
000030 ed 9b 47 3e 2a e6 37 3e ce 42 47 be c0 83 82 3e
       0.19493075 0.17958894 -0.19459078 0.25491142
000040 04 db 3a be 26 da 26 be 02 89 7d be ff 0c 10 bf
       -0.1824761 -0.16294155 -0.24759296 -0.5626983
000050 d1 34 6f 3e bd bf 11 be b2 c6 80 3e 8d 2b 47 be
       0.23359992 -0.14233299 0.25151592 -0.19450207
000060 e7 9a 8e 3e ab b7 57 3e 45 08 26 be e9 49 22 be
       0.27852556 0.21066158 -0.16214092 -0.15848507
000070 4a 56 2d be a6 79 78 be f8 35 a9 be 85 6a 75 3e
       -0.16927448 -0.24265155 -0.33048987 0.23966415
000080 aa 05 37 3e e8 32 6e be e0 0a 22 3e ea e9 05 bf
       0.17873254 -0.23261607 0.15824461 -0.5231005
