parameters_DffNetwork_Adam_0.0001_500.pth (torch, 10519 bytes, 5 tensors)

weight f4 [36, 12]
0	0x3cea3c1a	0.028593112
1	0x3e5e668f	0.2171881
2	0xbdad4d13	-0.08461966
3	0x3e9071a6	0.28211707
4	0x3e81d92e	0.25361007
5	0xbdc14bb7	-0.094382696
6	0x3dd2c2a0	0.10291028
7	0xbe2dafad	-0.16961546
8	0xbe6b174c	-0.22958106
9	0x3d231a42	0.039819963
10	0xbdbdef4d	-0.092741586
11	0xbe346c4d	-0.17619438
12	0x3cff0abd	0.03113305
13	0x3d029e81	0.031889442
14	0x3e190b8a	0.14945808
15	0xbdd1cd13	-0.10244193
16	0x3de22ba9	0.11043484
17	0xbe77c735	-0.24197085
18	0x3e6a1cdd	0.22862573
19	0x3e426288	0.18982899
20	0xbe6b3147	-0.22968017
21	0x3d715702	0.058920868
22	0xbe45b4e5	-0.19307287
23	0x3e0f25f7	0.13979326
24	0xbd122d05	-0.035687465
25	0x3c9d215e	0.01918095
26	0x3e89b42c	0.26895273
27	0x3e270f03	0.1631432
28	0x3d5b1594	0.053487375
29	0x3e4f800c	0.2026369
30	0x3e49eda7	0.19719563
31	0xbcff30cb	-0.031151196
32	0xbc460f6f	-0.012088641
33	0xbe9322e3	-0.28737554
34	0x3e08da29	0.13364471
35	0x3e7a99e4	0.24472767
36	0xbd39d58e	-0.045369677
37	0xbdd7efcf	-0.10543787
38	0xbd73beb8	-0.059508055
39	0xbe86ddd3	-0.26341113
40	0xbe4bba29	-0.19895233
41	0x3e2ddaa7	0.1697794
42	0xbe5f18fe	-0.21786878
43	0xbe2cae36	-0.16863331
44	0xbd1280ed	-0.035767484
45	0xbcd03273	-0.025414681
46	0xbe4f97dd	-0.20272775
47	0x3e821cff	0.25412747
48	0xbe8bab0a	-0.2727893
49	0xbda1f52d	-0.07908092
50	0x3d38f6ea	0.04515735
51	0xbd0998b6	-0.033592902
52	0xbe3b2bb6	-0.18278393
53	0x3db2b26b	0.08725437
54	0xbe87d3e9	-0.26528862
55	0x3d802372	0.06256761
56	0x3e390ee0	0.1807208
57	0x3e9153dc	0.28384292
58	0xbcf0ceee	-0.029395547
59	0x3e61ddc7	0.22057258
60	0x3e812b47	0.2522833
61	0xbe364d10	-0.17802835
62	0xbc8e40cd	-0.017364884
63	0xbe163294	-0.14667732
64	0xbe2d1605	-0.16902931
65	0x3b3bf45f	0.0028679592
66	0x3dd8e1aa	0.10589917
67	0x3da8b66b	0.082379185
68	0xbd8c2ed9	-0.06844873
69	0x3e068a53	0.13138704
70	0xbd342d7d	-0.043988694
71	0x3db05a3a	0.08610959
72	0x3e573872	0.21017626
73	0xbdd71fda	-0.10504122
74	0xbdd13209	-0.102146216
75	0x3ddf844d	0.10913906
76	0xbe663970	-0.22482848
77	0x3da575ca	0.08079107
78	0xbe3c5b3f	-0.18394183
79	0x3e86d4fc	0.2633437
80	0x3dd233a0	0.10263753
81	0xbdea817a	-0.11450477
82	0xbe828f5b	-0.25499997
83	0xbe92b65b	-0.2865475
84	0x3e6e2d4d	0.23259468
85	0x3bfc7cac	0.0077052917
86	0x3cca6512	0.024706397
87	0x3da98f29	0.08279259
88	0xbe9247da	-0.28570443
89	0x3e59c968	0.21268237
90	0xbda5ae9b	-0.08089944
91	0x3e603b1b	0.21897547
92	0x3da103a2	0.07862021
93	0x3e6a10b6	0.22857937
94	0xbe3172e2	-0.1732898
95	0xbdb20946	-0.08693175
96	0xbd4abb08	-0.049494773
97	0xbe29a900	-0.16568375
98	0x3d993e86	0.074826285
99	0xbe5d34ef	-0.21602224
100	0xbd6010be	-0.054703467
101	0xbe6b4040	-0.22973728
102	0x3c522626	0.012826478
103	0xbbf84157	-0.0075761485
104	0xbe46b16d	-0.1940362
105	0x3dcc673b	0.09980627
106	0xbe5d81d0	-0.21631551
107	0xbd9525ed	-0.072826244
108	0x3c77d358	0.015126072
109	0xbe648929	-0.22317947
110	0xbdfa9552	-0.12235512
111	0xbe76cdbc	-0.24101919
112	0xbd7f502a	-0.06233231
113	0x3e611175	0.21979316
114	0xbe655f4b	-0.22399633
115	0x3e46b0ce	0.19403383
116	0x3e8da5b1	0.27665475
117	0x3cfec9cb	0.031102082
118	0x3e8f8090	0.28027773
119	0x3e2c6d1f	0.16838501
120	0x3deb3720	0.11485124
121	0xbe7d04bf	-0.24708842
122	0x3da8537a	0.08219047
123	0x3e5de341	0.21668722
124	0xbd891387	-0.06693178
125	0xbdf169af	-0.11787736
126	0x3c7a489a	0.015276099
127	0xb9a79cac	-0.00031969452
128	0x3e35d887	0.1775838
129	0x3e69d319	0.22834434
130	0xbe4c82cc	-0.1997177
131	0x3c7ccba0	0.015429407
132	0xbe1d4962	-0.15360025
133	0x3e88f089	0.26746014
134	0x3e19276f	0.14956449
135	0xbe6f9e53	-0.2340024
136	0xbe870faa	-0.26379138
137	0x3e73d83c	0.23812956
138	0xbc91ed4d	-0.01781335
139	0x3dc6cbaf	0.09706818
140	0x3c9160ff	0.017746447
141	0x3d85e7c6	0.06538348
142	0x3e4f8478	0.20265377
143	0x3e7e5f4b	0.24841039
144	0xbd01c8ce	-0.031685643
145	0xbd21f064	-0.039535895
146	0x3e5b5969	0.21420826
147	0xbda0bbc3	-0.07848313
148	0xbdaf9433	-0.08573189
149	0xbe33e76f	-0.17568754
150	0xbc16f09f	-0.009212642
151	0x3da1b7eb	0.07896408
152	0x3e396d90	0.18108201
153	0x3dcc13cf	0.09964716
154	0xbe16fdca	-0.1474525
155	0xbd10d235	-0.03535672
156	0x3d8ab32c	0.067724556
157	0xbe8e78dd	-0.27826586
158	0xbe84c90b	-0.25934634
159	0xbeb29947	-0.34882566
160	0x3d82b143	0.06381466
161	0x3d9bd265	0.07608489
162	0xbde5316d	-0.11191068
163	0x3e2c8909	0.1684915
164	0xbe84c9fd	-0.25935355
165	0xbccbf02e	-0.0248948
166	0x3dcc6049	0.099793024
167	0x3cb9a7f3	0.022663092
168	0x3d404089	0.046936546
169	0xbbd3aab4	-0.0064595584
170	0x3cdce3e3	0.026964134
171	0x3e3a9217	0.18219791
172	0x3e3fca68	0.18729556
173	0xbe7c2486	-0.24623308
174	0xbe84b61a	-0.25920182
175	0xbdf7841a	-0.12085743
176	0x3c34d52c	0.011037152
177	0xbdd5fc4c	-0.104485124
178	0x3e90623c	0.28199947
179	0xbdac24e8	-0.08405477
180	0x3ddd7c9d	0.10814784
181	0xbe8b0d76	-0.27158707
182	0xbd9f8e60	-0.07790828
183	0x3d5dca93	0.054148268
184	0x3e484d6b	0.19560783
185	0xbe0353af	-0.12824892
186	0xbe8470d1	-0.25867322
187	0x3dd0d949	0.10197694
188	0xbcd39f3b	-0.025832763
189	0x3dd7dfce	0.10540734
190	0xbe02eec1	-0.1278639
191	0xbe90cecb	-0.2828277
192	0xbe3a7498	-0.1820854
193	0xbe826f5a	-0.2547558
194	0x3e05cad1	0.1306565
195	0x3c4e6582	0.012597444
196	0x3d8c9697	0.0686466
197	0xbe494433	-0.19654922
198	0xbe381720	-0.17977571
199	0xbdd1f83b	-0.10252424
200	0x3e34e67b	0.17666046
201	0x3e640228	0.22266448
202	0x3e454422	0.19264272
203	0x3e8a8a60	0.27058697
204	0xbe08d3b3	-0.13362007
205	0xbe8fd5c9	-0.28092793
206	0x3e7635a3	0.24043898
207	0x3e57db13	0.21079664
208	0xbda3ebea	-0.080039814
209	0xbd517f47	-0.05114677
210	0xbd318e9a	-0.043348886
211	0x3dd02bc2	0.10164596
212	0xbdac22c3	-0.08405068
213	0xbd95af53	-0.07308831
214	0xbc09fae2	-0.0084216315
215	0xbe592f78	-0.21209514
216	0x3e507fff	0.20361327
217	0x3dade90c	0.08491716
218	0x3d9d2805	0.07673649
219	0x3e7c4dc3	0.24639039
220	0xbdcb136a	-0.09915812
221	0x3ddfc483	0.109261535
222	0xbe17753f	-0.1479082
223	0xbe90f193	-0.28309307
224	0xbdee1911	-0.11625875
225	0xbe2b346d	-0.16719218
226	0x3dd2d163	0.102938436
227	0x3c9fb8ab	0.019497236
228	0xbdc7cbd6	-0.097556755
229	0xbc4285ef	-0.011872753
230	0x3e398ce9	0.18120159
231	0x3dd572ba	0.10422273
232	0xbdd7cd51	-0.10537208
233	0xbe7d8cd9	-0.2476076
234	0xbe9a830f	-0.30178115
235	0xbe75fb73	-0.24021702
236	0xbd7f95ee	-0.062398843
237	0x3e8611bf	0.26185414
238	0x3e9cc4e5	0.3061897
239	0x3e052f5a	0.13006344
240	0x3e785e5d	0.24254747
241	0x3e783d8e	0.24242231
242	0xbde36e3d	-0.11105011
243	0x3eb34f0a	0.3502124
244	0xbd615629	-0.05501381
245	0x3e2c4513	0.16823225
246	0x3e583ec4	0.21117693
247	0xbe0b3030	-0.13592601
248	0xbdc91496	-0.098183796
249	0x3d4291cb	0.04750232
250	0xbe57ab64	-0.21061474
251	0xb9ab7a6d	-0.00032706876
252	0xbd7c2c87	-0.061565902
253	0xbe384ac3	-0.1799727
254	0x3dc6ec72	0.09713067
255	0x3eaea9ba	0.34113866

bias f4 [36]
0	0xbded857c	-0.11597726
1	0xbe5d2262	-0.21595147
2	0x3d639f0e	0.05557161
3	0xbe7ce617	-0.24697147
4	0x3e1b6a9c	0.15177387
5	0xbe0fae5f	-0.14031361
6	0xbd217830	-0.03942126
7	0xbdfe1e59	-0.12408132
8	0x3e59fd4f	0.21288036
9	0x3e71b1e9	0.23603024
10	0xbd2c26f3	-0.042029332
11	0xbdd295f3	-0.10282507
12	0x3e760e35	0.24028857
13	0x3e86e907	0.2634966
14	0xbdb382a0	-0.08765149
15	0xbe2d3935	-0.16916354
16	0xbe8e10a5	-0.27747074
17	0x3e2ffa45	0.17185314
18	0xbe6c9194	-0.23102409
19	0xbe1f17c6	-0.15536413
20	0x3dd95c5c	0.10613319
21	0x3d9f75be	0.077861294
22	0xbe414aac	-0.18876141
23	0xbdf62f29	-0.12020714
24	0x3da56b5b	0.08077117
25	0xba5b0154	-0.0008354385
26	0x3da1ee64	0.079067975
27	0xbe1c94fa	-0.15291205
28	0x3e1ccfb4	0.15313607
29	0xbe6b5b3c	-0.22984022
30	0xbe5a7f5f	-0.2133765
31	0xbe23e78f	-0.16006301
32	0x3e9076c4	0.2821561
33	0xbe781cc6	-0.24229726
34	0xbe20053b	-0.15626995
35	0xbe07a9d0	-0.13248372

weight f4 [36, 36]
0	0x3d07b140	0.033128023
1	0x3c1db16b	0.009624819
2	0x3c1cd47e	0.009572146
3	0xbdc4844b	-0.095955454
4	0x3ce3e127	0.027817322
5	0xbe0e7c22	-0.1391454
6	0x3d222860	0.039589286
7	0xbe233976	-0.15939888
8	0x3dc5d85e	0.096604094
9	0x3e2ea38e	0.17054579
10	0xbe18e812	-0.14932278
11	0xbdc96131	-0.09832991
12	0xbd96dc37	-0.073662214
13	0xbd2b8a0c	-0.0418797
14	0x3ccbdce9	0.024885612
15	0xbe20a382	-0.15687373
16	0x3d7b1ac6	0.06130483
17	0xbe2517c0	-0.16122341
18	0xbd86af06	-0.06576352
19	0xbeacf446	-0.33780116
20	0xbe30fff6	-0.17285141
21	0x3d39e1d0	0.045381367
22	0xbed40d00	-0.41416168
23	0xbe9db605	-0.30802932
24	0xbd3f94ac	-0.046772644
25	0xbe0c8644	-0.13723093
26	0xbe8d978f	-0.27654693
27	0xbd291f90	-0.041289866
28	0x3d8f33f1	0.06992329
29	0xbdc340ab	-0.09533819
30	0x3e213857	0.15744148
31	0xbe9f7b2a	-0.31148654
32	0x3da1d7de	0.079025015
33	0xbcbe63b6	-0.023240905
34	0x3bd317ab	0.0064420304
35	0xbea307cb	-0.31841883
36	0xbd9b372b	-0.07578882
37	0x3dda1093	0.106476925
38	0xbdd1f41f	-0.102516405
39	0x3dcb563b	0.099285565
40	0x3df9bb6d	0.12193952
41	0x3dcaf893	0.09910693
42	0xbd1329d0	-0.035928547
43	0xbdd1b630	-0.10239828
44	0xbd857a74	-0.06517497
45	0x3d04cb82	0.032420643
46	0xbe0c850e	-0.13722631
47	0xbed720ef	-0.42017314
48	0xbd737a6a	-0.059442915
49	0xbdd16435	-0.10224191
50	0x3e250aca	0.16117397
51	0x3e209dc0	0.15685177
52	0xb924d556	-0.00015719733
53	0x3d19a6e1	0.037512664
54	0x3e070b78	0.13187969
55	0xbe7f1a04	-0.24912268
56	0xbe57a6d8	-0.2105974
57	0xbe04a04e	-0.12951776
58	0xbe1eb6b5	-0.15499385
59	0xbe1f8964	-0.15579754
60	0x3db0aea8	0.08627063
61	0x3d1862bb	0.03720353
62	0xbca16702	-0.019702438
63	0x3da75110	0.08169758
64	0xbe0e039d	-0.13868566
65	0xbdfab210	-0.12240994
66	0x3e0bf7da	0.13668767
67	0xbeb584b0	-0.35452795
68	0xbdadb1f2	-0.08481206
69	0x3da4ef03	0.080534
70	0x3db14736	0.086561605
71	0xbe562bdb	-0.20915167
72	0xbc7c6316	-0.015404483
73	0x3b38eb56	0.0028216443
74	0x3d838b11	0.06423009
75	0xbc61d716	-0.013784191
76	0x3c21e6eb	0.009881715
77	0x3df015ab	0.11722883
78	0xbd2e6cf6	-0.042584382
79	0xbde193a3	-0.110144876
80	0xbdc1510a	-0.09439285
81	0xbd7941b3	-0.06085367
82	0x3defbd6b	0.117060505
83	0xbeaed139	-0.34144
84	0xbe04f9cf	-0.1298592
85	0x3d1596bf	0.036520716
86	0x3e36a75e	0.17837283
87	0xbd64c0b0	-0.055847824
88	0x3d376a06	0.044778846
89	0xbd27c014	-0.040954664
90	0x3db62038	0.08892864
91	0xbec6756d	-0.38761464
92	0xbe834394	-0.25637496
93	0xbd8aaca9	-0.067712136
94	0xbeca032d	-0.39455548
95	0xbe386cbe	-0.18010232
96	0xbd5647fb	-0.05231474
97	0x3d6076b6	0.05480071
98	0xbe33ac19	-0.17546119
99	0xbe0ad124	-0.13556343
100	0xbbefbd98	-0.0073163025
101	0x3d8ca173	0.068667315
102	0x3b45d700	0.0030187964
103	0xbe7e246f	-0.24818586
104	0x3d0330fb	0.032029133
105	0x3d97dc26	0.07415037
106	0xbc9ea760	-0.01936692
107	0xbebf147c	-0.37320316
108	0x3d1a319b	0.037644964
109	0xbdbb12f6	-0.09134476
110	0xbdaf9cf3	-0.085748576
111	0xbd9ccfa6	-0.07656793
112	0xbdcca9ee	-0.09993349
113	0xbc254ec0	-0.010089576
114	0xbdd55826	-0.104172036
115	0xbd5703db	-0.05249391
116	0x3df0c209	0.11755759
117	0xbd820168	-0.063479245
118	0x3d865a6e	0.06560217
119	0xbed7518d	-0.42054406
120	0x3e0a765a	0.1352171
121	0x3e19c49a	0.15016404
122	0xbdcff185	-0.10153488
123	0x3dde4bfb	0.10854336
124	0x3d77a8f0	0.060463846
125	0x3dc91fad	0.09820495
126	0x3e168568	0.14699328
127	0xbe96f2a2	-0.2948199
128	0xbe17f55d	-0.14839692
129	0xbdcc3175	-0.09970371
130	0xbea1a908	-0.31574273
131	0xbeadb5ad	-0.3392767
132	0x3cab0e32	0.020880792
133	0x3e1a8157	0.15088402
134	0xbd492d6d	-0.049115587
135	0x3df6fbb8	0.1205973
136	0xbe041c5b	-0.12901442
137	0x3e1fdc0c	0.15611285
138	0x3e0c692f	0.13712
139	0xbe6a15c4	-0.22859865
140	0xbe13e7fc	-0.14443964
141	0xbcc7d14b	-0.02439179
142	0xbd9f27fe	-0.077713
143	0xbe8f11b4	-0.27943194
144	0x3d2de270	0.042452276
145	0x3e027297	0.12739025
146	0x3dc53e68	0.09631044
147	0x3de3a093	0.111146115
148	0x3d7e2a0a	0.06205181
149	0x3e1f8a33	0.15580063
150	0x3dbcb940	0.09215021
151	0x3dc7188e	0.0972148
152	0xbd8f2753	-0.069899224
153	0x3d3a2f4f	0.045455273
154	0x3e036127	0.1283003
155	0xbe6fdcf1	-0.23424126
156	0x3d85b3a7	0.065284066
157	0xbd2d31dc	-0.042283878
158	0x3d49c508	0.04926017
159	0xbe0b75d8	-0.13619173
160	0xbe00ee24	-0.12590843
161	0x3dc4586f	0.0958718
162	0xbddc1048	-0.10745293
163	0xbecd4057	-0.4008815
164	0xbe4105df	-0.18849896
165	0x3d50b68f	0.05095535
166	0xbe295165	-0.16534956
167	0xbea61d5f	-0.32444283
168	0xbe166331	-0.14686276
169	0x3d3a87d6	0.0455397
170	0xbe18f835	-0.14938433
171	0x3be66e56	0.007032196
172	0xbdbfe048	-0.0936895
173	0x3da07eeb	0.07836708
174	0xbc935260	-0.017983615
175	0xbe149e0f	-0.1451342
176	0x3ddd373c	0.10801551
177	0xbda89bdb	-0.08232852
178	0xbdb4bcbb	-0.0882506
179	0xbe87e8ef	-0.26544902
180	0x3e25fae7	0.16208993
181	0xbd58f6cb	-0.052969735
182	0xbdc8d508	-0.098062575
183	0x3dee8f83	0.116484664
184	0x3ded6e16	0.11593263
185	0xbe162e87	-0.14666186
186	0xbd8d9efe	-0.06915091
187	0xbc55f86b	-0.013059716
188	0x3e1573f5	0.14595015
189	0x3d10f3c4	0.035388723
190	0xbdd660eb	-0.104677044
191	0x3e5fb580	0.2184658
192	0x3e13f95c	0.14450592
193	0xbe29e4dc	-0.16591209
194	0xbe1e1af8	-0.15439975
195	0x3cb47960	0.022030532
196	0x3da66cf3	0.08126249
197	0xbe18aa56	-0.14908728
198	0x3c2c9c96	0.01053538
199	0x3ed09076	0.40735215
200	0x3c8dfb7b	0.01733183
201	0x3df63479	0.12021727
202	0x3eaa1a54	0.33223212
203	0x3ec59acb	0.3859466
204	0xbe19286f	-0.1495683
205	0xbcb84cab	-0.022497496
206	0x3e77c6e8	0.2419697
207	0xbe109628	-0.1411978
208	0x3d39a72a	0.045325436
209	0xbe1a03ce	-0.15040514
210	0xbe10d1bc	-0.14142507
211	0x3eae595e	0.34052557
212	0x3dce71e5	0.100803174
213	0x3ca681f6	0.020325642
214	0x3d807e76	0.062741205
215	0x3ec0e86c	0.37677324
216	0x3e29197e	0.16513631
217	0xbdc40af6	-0.09572403
218	0x3ba81622	0.0051295916
219	0x3ca3cb2b	0.019994339
220	0xbd5f18c8	-0.054466993
221	0x3dd15378	0.102209985
222	0x3dcadb7b	0.09905144
223	0xbcc4892b	-0.023991188
224	0xbd66e967	-0.056374934
225	0x39a681aa	0.00031758595
226	0xbc0ce556	-0.0085996
227	0xbeabe1a5	-0.3357059
228	0x3bad16ff	0.0052822824
229	0x3e09c00e	0.1345217
230	0xbde9ec28	-0.11421996
231	0x3d0ccfd0	0.034377873
232	0x3bde9080	0.006792128
233	0xbd3d70ce	-0.046250157
234	0x3d95b048	0.073090136
235	0xbe621dba	-0.22081652
236	0xbddb3fc9	-0.107055254
237	0x3d9172da	0.07101984
238	0xbe6a5ec6	-0.22887716
239	0xbe28e40e	-0.16493246
240	0x3d8fe623	0.07026317
241	0xbdcf7550	-0.101297975
242	0xbe1b1b08	-0.1514703
243	0xbde857b0	-0.1134485
244	0x3dfaf88d	0.122544385
245	0xbdd691c0	-0.10477018
246	0x3d50feb0	0.05102414
247	0xbecb092d	-0.39655438
248	0xbdefb71c	-0.11704847
249	0x3c382e16	0.0112414565
250	0x3e1dc948	0.15408814
251	0xbeb1b391	-0.3470731
252	0x3e0b8be7	0.13627587
253	0xbddec308	-0.10877043
254	0x3ded7d89	0.115962096
255	0xbe00e60c	-0.12587756

bias f4 [36]
0	0x3e069cf2	0.13145807
1	0xbd574501	-0.05255604
2	0x3e1ee5af	0.15517305
3	0x3cb853e4	0.02250094
4	0xbe29cce7	-0.1658207
5	0x3b6da887	0.003626378
6	0xbc88b399	-0.016687201
7	0xbbb6a8c4	-0.0055743176
8	0xbdd54d4c	-0.10415134
9	0x3c6fc772	0.014634954
10	0xbe01750f	-0.1264231
11	0xbe07bc2c	-0.13255376
12	0x3dd418c0	0.10356283
13	0xbdf3fecb	-0.11913832
14	0x3e203092	0.15643528
15	0x3e1dab01	0.15397264
16	0xbd7a713c	-0.061143145
17	0x3d6aa020	0.057281613
18	0xbe1b4031	-0.15161206
19	0xbe078a92	-0.13236454
20	0x3dea9e40	0.11455965
21	0xbdd3a213	-0.103336476
22	0x3c2d0f3f	0.010562717
23	0x3ba75afa	0.005107281
24	0x3e1b8537	0.15187536
25	0xbcc19492	-0.023630414
26	0xbe281657	-0.16414772
27	0x3de1e798	0.11030501
28	0x3d7df04b	0.06199674
29	0x3d88276f	0.06648146
30	0xbe219ffa	-0.15783682
31	0x3d6fbad4	0.058527783
32	0xbcefb4d5	-0.029261032
33	0x3d00d9f1	0.031457845
34	0xbd88d705	-0.06681637
35	0x3da6a03a	0.081360295

weight f4 [1, 36]
0	0xbd55b2cf	-0.05217248
1	0xbdf45f27	-0.11932211
2	0xbd50f068	-0.05101052
3	0xbdd8ad55	-0.105799355
4	0xbd1e36ad	-0.03862636
5	0x3dcc4a9e	0.099751696
6	0xbdde8335	-0.108648695
7	0xbdb570e8	-0.08859426
8	0x3b81f93c	0.0039664786
9	0xbd29dc92	-0.041470118
10	0xbe0f23a6	-0.13978443
11	0x3dc23866	0.094834134
12	0x3e0b7e7a	0.13622466
13	0xbcbb37ab	-0.022853693
14	0xbcebc323	-0.028779572
15	0xbda90a89	-0.082539625
16	0x3e0d0eaa	0.13775125
17	0xbbb9bf66	-0.0056685684
18	0xbd276e8d	-0.040876914
19	0xbe018dab	-0.12651698
20	0x3d947f6d	0.07250867
21	0x3dfa9cd8	0.12236947
22	0x3e0e7c20	0.13914537
23	0xbe081397	-0.13288723
24	0x3e15cd43	0.14629082
25	0xbd4e60af	-0.050385173
26	0x3ddb6002	0.107116714
27	0xbcb6246a	-0.02223416
28	0xbe1d159c	-0.15340275
29	0x3ca42823	0.02003867
30	0x3e0d011b	0.13769953
31	0x3d95c277	0.07312482
32	0xbe2a9a22	-0.1666036
33	0x3cf29324	0.029611178
34	0x3db27f3b	0.087156735
35	0xbcc9918a	-0.024605531
