parameters_DffNetwork_SGD_0.001_100.pth (torch, 13399 bytes, 5 tensors)

weight f4 [32, 12]
0	0xbe80b645	-0.2513906
1	0xbc40cb5d	-0.011767236
2	0xbe8e6493	-0.27811107
3	0xbe282828	-0.16421568
4	0x3d8d28d7	0.06892555
5	0xbe005eee	-0.12536213
6	0x3e8968e0	0.26837826
7	0xbb9a3170	-0.0047056004
8	0x3e3fd9ca	0.18735424
9	0x3e814e8c	0.2525524
10	0x3d7f81eb	0.06237976
11	0x3c8e7e12	0.0173941
12	0xbe52bd83	-0.20580105
13	0xbe02eb38	-0.12785041
14	0xbddd7254	-0.10812822
15	0xbdbe9e9a	-0.093075946
16	0xbc96dfb9	-0.018417226
17	0x3d7e2d65	0.06205501
18	0x3defccee	0.11709009
19	0x3dbff4b3	0.093728445
20	0xbe6f62df	-0.2337756
21	0x3e1495fe	0.14510342
22	0x3d541db8	0.051786155
23	0x3e8fb351	0.28066495
24	0x3d3d4ad0	0.046213925
25	0xbdaf5db6	-0.08562796
26	0x3e935d1e	0.2878198
27	0xbe8bfcc9	-0.27341297
28	0x3db6f4c4	0.08933404
29	0xbe78e643	-0.24306588
30	0x3e19ff4f	0.15038799
31	0x3e54ba13	0.20774107
32	0xbd495474	-0.049152806
33	0xbde06918	-0.10957545
34	0x3d0b7c11	0.034053866
35	0x3e70a56e	0.23500606
36	0xbd58472b	-0.052802246
37	0xbe581cd7	-0.21104752
38	0x3dbff858	0.0937354
39	0xbe8fd67f	-0.28093335
40	0x3e5dca93	0.21659307
41	0xbe6996f4	-0.2281149
42	0xbe4c83e1	-0.19972183
43	0xbd1d657e	-0.03842687
44	0xbdbcf599	-0.092265315
45	0xbcd789a0	-0.026310742
46	0x3e15770c	0.14596194
47	0x3e7a5c7e	0.24449345
48	0x3e86231c	0.2619866
49	0xbc08b6af	-0.008344336
50	0xbdddd893	-0.10832324
51	0xbe618737	-0.22024237
52	0xbdd01326	-0.10159902
53	0xbe18bd8b	-0.14916055
54	0xbe450546	-0.19240293
55	0x3ddfb729	0.10923607
56	0xbe074bb1	-0.13212468
57	0xbd3dbf01	-0.046324734
58	0x3e6db639	0.23214044
59	0x3e5e1221	0.21686603
60	0xbe4f3e04	-0.20238501
61	0xbe920d0a	-0.28525573
62	0x3d0ca1a6	0.034333847
63	0xbe1420ae	-0.14465591
64	0x3e5c17c2	0.21493438
65	0x3dea9871	0.11454857
66	0xbd43777d	-0.047721375
67	0x3e758dcc	0.23979872
68	0x3e45dc11	0.1932223
69	0xbd9b93c9	-0.07596547
70	0xbdb17a58	-0.08665913
71	0xbd96358c	-0.07334432
72	0xbe53b161	-0.20673133
73	0x3db58473	0.08863153
74	0x3da664b9	0.0812468
75	0xbd62a65e	-0.05533444
76	0x3e48aee4	0.19597965
77	0xbd6f4808	-0.058418304
78	0x3dfe6919	0.124223895
79	0x3dbf06f9	0.09327502
80	0x3d46fc43	0.04858042
81	0xbe8cb185	-0.27479187
82	0xbd96384f	-0.07334959
83	0x3e844645	0.2583486
84	0x3e301d89	0.17198767
85	0xbd324f5e	-0.04353272
86	0x3da28aae	0.07936607
87	0x3e528044	0.20556742
88	0xbe152873	-0.14566211
89	0x3dc3ee88	0.095669806
90	0x3e46ea72	0.19425371
91	0xbe04901e	-0.12945601
92	0x3e4def27	0.2011076
93	0xbe8654cf	-0.2623658
94	0x3e65ecba	0.22453585
95	0xbdf80981	-0.12111188
96	0xbe34eb5f	-0.17667912
97	0x3e156b77	0.14591776
98	0xbe035be9	-0.1282803
99	0xbd551289	-0.05201963
100	0xbde86e83	-0.113492034
101	0xbdffa2e3	-0.1248224
102	0xbe29da04	-0.16587073
103	0x3e13e226	0.14441738
104	0xbdcfc30a	-0.101446226
105	0x3dc6281f	0.09675621
106	0xbdc71921	-0.0972159
107	0xbcd53372	-0.026025508
108	0xbe5fa072	-0.21838549
109	0xbe48aa0e	-0.1959612
110	0xbe11d708	-0.14242184
111	0xbe3818ea	-0.17978254
112	0xbd7abfee	-0.061218195
113	0x3e404ecd	0.1878006
114	0x3e0384c7	0.1284362
115	0xbd3f2627	-0.046667244
116	0xbe034715	-0.12820084
117	0x3d934b60	0.07192111
118	0x3e917d39	0.2841585
119	0xbe00d661	-0.12581779
120	0xbd437938	-0.047723025
121	0x3e089f6b	0.13342063
122	0x3ca51eb3	0.02015624
123	0x3e0250ab	0.12726085
124	0xbddb602d	-0.107117034
125	0xbde0dec4	-0.10979989
126	0xbe126a2f	-0.14298318
127	0x3dca26cf	0.098706834
128	0xbe663f65	-0.2248512
129	0x3e6314d0	0.22175908
130	0xbe4f1dc4	-0.20226198
131	0xbe461a89	-0.1934606
132	0x3db24a71	0.08705605
133	0xbe71a0af	-0.23596452
134	0xbe4bcba5	-0.19901903
135	0xbdc2cb95	-0.095114864
136	0xbc97997c	-0.018505804
137	0xbe842613	-0.25810298
138	0xbe57eddc	-0.2108683
139	0x3dd10742	0.102064624
140	0xbde4c49b	-0.11170312
141	0x3e86bb8a	0.26314956
142	0x3e15a0bd	0.14612098
143	0xbd2d307f	-0.042282578
144	0x3dad7f65	0.08471564
145	0x3e8ac6bb	0.27104744
146	0x3dd1c66a	0.102429226
147	0x3dbc68d1	0.0919968
148	0x3d98ac52	0.074547425
149	0xbd4611ae	-0.048356704
150	0xbe8fc453	-0.2807947
151	0xbc9ce212	-0.019150767
152	0xbe3bc90b	-0.1833841
153	0x3dfcb0b4	0.12338391
154	0x3d7f2dab	0.06229941
155	0xbd95631b	-0.072942935
156	0xbe7ce2c6	-0.24695882
157	0x3e531e74	0.20617086
158	0x3d85fdc0	0.065425396
159	0xbda09504	-0.078409225
160	0xbd92b70d	-0.071638204
161	0x3d338f13	0.043837618
162	0xbe7c8956	-0.24661765
163	0x3df6150d	0.12015734
164	0xbd8a0ead	-0.067410804
165	0x3d25788d	0.04039817
166	0x3d904178	0.07043737
167	0x3e8cc50b	0.27494082
168	0xbe2ecbde	-0.17069957
169	0xbe72e0f1	-0.23718621
170	0xbdd684a3	-0.10474517
171	0x3dec568e	0.115399465
172	0x3e633f69	0.22192158
173	0xbdfc7d1b	-0.123285495
174	0x3db5b3f0	0.08872211
175	0x3da2d073	0.07949915
176	0x3e159116	0.14606127
177	0xbe095706	-0.13412103
178	0xbe8353a6	-0.25649756
179	0x3e210667	0.15725099
180	0xbd7a1880	-0.06105852
181	0x3e207bfc	0.15672296
182	0xbd70fc42	-0.05883432
183	0x3dd77217	0.10519808
184	0x3d255c55	0.040371258
185	0xbe81d559	-0.25358084
186	0xbe575098	-0.21026838
187	0x3c4e7768	0.012601711
188	0xbd953fc2	-0.072875515
189	0xbe2b85e5	-0.16750295
190	0xbde082b7	-0.10962432
191	0xbe820aa9	-0.25398758
192	0x3e569dc7	0.20958625
193	0x3db8aaf4	0.09016982
194	0x3e9290cc	0.28626096
195	0x3da0295c	0.07820389
196	0x3e90f97b	0.28315338
197	0x3e2c6030	0.16833568
198	0x3d786af3	0.06064887
199	0xbc1883bf	-0.0093087545
200	0xbde9186a	-0.1138161
201	0xbe388014	-0.18017608
202	0xbe117cd2	-0.14207771
203	0x3e88c4d0	0.26712656
204	0x3e51ba94	0.2048133
205	0x3db35713	0.087568425
206	0xbe8c31da	-0.27381784
207	0x3daa8267	0.083256535
208	0xbe77f7ce	-0.24215624
209	0xbe791fa5	-0.24328478
210	0x3e09d3c5	0.1345969
211	0xbd85ea92	-0.06538881
212	0x3de1b1c9	0.11020238
213	0x3e1bdd15	0.15221055
214	0xbe837920	-0.2567835
215	0xbdcde96a	-0.10054286
216	0x3bb1f340	0.005430609
217	0xbcb86cac	-0.022512756
218	0x3e81e67f	0.25371167
219	0x3d728d84	0.05921699
220	0xbc453b4d	-0.012038064
221	0xbe782b58	-0.24235284
222	0xbe847f18	-0.25878215
223	0x3e40bd64	0.18822247
224	0xbe1b40af	-0.15161394
225	0x3ddc3ae7	0.10753422
226	0x3e2f66ec	0.17129105
227	0x3dea1964	0.11430624
228	0xbc9c29d3	-0.019062912
229	0xbd0274dd	-0.03184973
230	0x3e7e6f67	0.24847184
231	0xbdfb24c0	-0.12262869
232	0x3e02b891	0.12765719
233	0x3e786364	0.24256665
234	0x3e54ffd6	0.20800719
235	0x3d2724f1	0.040806714
236	0xbbd98dce	-0.006639219
237	0xbe5fb470	-0.21846175
238	0xbe2d555f	-0.16927098
239	0xbe5c3d46	-0.21507749
240	0xbe39a12d	-0.1812789
241	0x3dcaf6ff	0.09910392
242	0xbe642258	-0.22278726
243	0xbbc0eb7a	-0.005887446
244	0x3d3ad0fd	0.045609463
245	0x3e8425c8	0.25810075
246	0x3e09cdf1	0.13457467
247	0x3e3ff14e	0.18744394
248	0x3e0f8320	0.14014864
249	0x3e09367f	0.13399695
250	0x3ca8e124	0.020615168
251	0xbe92d460	-0.28677654
252	0x3e69a661	0.22817375
253	0xbe7f8498	-0.24952924
254	0x3e674d1d	0.2258801
255	0xbdd03032	-0.101654425

bias f4 [32]
0	0x3dd5ca9e	0.10439037
1	0x3e8b661b	0.27226338
2	0xbd6474c0	-0.055775404
3	0x3e29e132	0.16589811
4	0x3e48611c	0.19568294
5	0xbd6f9bc0	-0.058498144
6	0xbe3b4385	-0.18287475
7	0xbe485c41	-0.19566442
8	0xbe538c9e	-0.2065911
9	0x3dc7d510	0.09757435
10	0xbc875309	-0.016519086
11	0x3e0a6794	0.13516074
12	0xbe83fba4	-0.25777924
13	0xbd937636	-0.07200281
14	0x3e018695	0.12648995
15	0x3e836eb7	0.25670406
16	0xbdb6588e	-0.08903609
17	0xbe0f5f08	-0.14001095
18	0x3e34edf9	0.17668904
19	0xbe8247be	-0.2544536
20	0x3e38a98b	0.18033426
21	0xbdba9d2d	-0.0911201
22	0xbd292b7a	-0.041301228
23	0x3dede1a3	0.116153024
24	0x3e81e7f3	0.25372276
25	0xbc19f213	-0.009396094
26	0xbe6e5943	-0.23276238
27	0x3e22fc9e	0.15916678
28	0xbdd80c88	-0.10549265
29	0xbe099508	-0.13435757
30	0x3e1a023c	0.15039915
31	0xbe3b22d4	-0.18275005

weight f4 [64, 32]
0	0x3d105e95	0.03524645
1	0xbd99e9d8	-0.07515305
2	0x3d323bca	0.04351405
3	0xbd8921b1	-0.06695879
4	0xbdf1d4db	-0.11808177
5	0xbc212f37	-0.009837917
6	0xbe308c15	-0.17240937
7	0xbdc28572	-0.09498109
8	0xbd7d49cd	-0.06183796
9	0xbdfde1cf	-0.12396585
10	0xbcaa04ad	-0.020754183
11	0xbd6561b2	-0.056001373
12	0x3e0a35b8	0.13497055
13	0xbc346979	-0.011011475
14	0xbe234ca6	-0.15947208
15	0x3d8f7308	0.07004362
16	0xbdf693e3	-0.12039926
17	0xbe1e90c3	-0.1548491
18	0xbc871ce9	-0.016493278
19	0x3d5ab818	0.05339822
20	0x3ca5abda	0.020223547
21	0x3cee1c33	0.02906618
22	0x3c25587b	0.010091896
23	0x3dbe5984	0.092944175
24	0xbdeb3e31	-0.114864714
25	0x3d86aa8c	0.06575498
26	0xbbd60357	-0.00653116
27	0xbc918ce7	-0.017767383
28	0xbe31e784	-0.17373472
29	0xbd39118a	-0.045182742
30	0x3dd1eff7	0.10250848
31	0xbd7a83d8	-0.061160892
32	0xbbc5ea80	-0.0060399175
33	0xbc051205	-0.008121972
34	0xbdc898fd	-0.09794805
35	0xbc207ae7	-0.009794927
36	0xbc4ee6ce	-0.01262827
37	0xbcaa4fe5	-0.02079005
38	0xbe0886ef	-0.13332723
39	0x3e328acf	0.17435764
40	0xbccd4dbe	-0.025061484
41	0xbe2b1542	-0.16707328
42	0x3dcd09ac	0.100116104
43	0x3e0e1cd8	0.1387819
44	0x3dafdd85	0.08587173
45	0x3e226371	0.15858246
46	0x3d204f0a	0.039137878
47	0xbdd4eb75	-0.10396472
48	0xbcb5b9f8	-0.022183403
49	0x3e2462a0	0.16053247
50	0x3e06eb77	0.1317576
51	0x3d8c0b63	0.06838109
52	0xbd26e715	-0.04074772
53	0xbd4e0cd7	-0.050305214
54	0x3c82b9fe	0.015957829
55	0xbda5f332	-0.081030264
56	0xbe000388	-0.12501347
57	0x3e14116d	0.14459772
58	0xbe1831ad	-0.148627
59	0xbe29860e	-0.16555044
60	0x3e2382a3	0.15967803
61	0xbdb77e32	-0.08959617
62	0x3e210379	0.15723981
63	0x3dcf49bf	0.10121488
64	0x3d6e346a	0.058155455
65	0x3c7bc3f6	0.015366545
66	0xbd39c3de	-0.04535281
67	0x3d6a12f5	0.057146985
68	0x3e1ff618	0.15621221
69	0x3d8530e3	0.06503465
70	0x3d2f3f0d	0.04278474
71	0x3e2fd571	0.17171265
72	0xbcb5c828	-0.022190168
73	0x3c6c8f35	0.01443844
74	0x3da46b45	0.080282725
75	0xbe14d26d	-0.14533396
76	0x3da61252	0.08108963
77	0xbd79b1d0	-0.06096059
78	0xbd062f38	-0.032759875
79	0xbdcd5456	-0.100258514
80	0xbdbec334	-0.09314576
81	0xbd30ae65	-0.043135066
82	0xbcc4708b	-0.023979446
83	0x3e18d45c	0.14924759
84	0xbddb7ce3	-0.107171796
85	0x3dadb9e8	0.084827244
86	0xbd184c93	-0.037182402
87	0x3d0f5f71	0.03500313
88	0xbdc4032e	-0.09570919
89	0xbdbfb333	-0.093603514
90	0xbe263f77	-0.16235147
91	0xb98f2fd0	-0.00027310709
92	0x3d3a6db5	0.04551478
93	0x3db1c566	0.08680229
94	0x3de8c753	0.11366143
95	0xbd418a4f	-0.047251042
96	0xbcd295c6	-0.025706183
97	0x3e1b89a3	0.15189223
98	0xbe16b56d	-0.14717646
99	0x3dfc550f	0.12320911
100	0xbcce90bb	-0.025215497
101	0x3e1cff86	0.1533185
102	0xbdfe305a	-0.12411566
103	0x3db40440	0.08789873
104	0x3e04aee4	0.1295734
105	0xbe0e33fb	-0.13887016
106	0xbd8379cc	-0.06419715
107	0xbca2604c	-0.019821309
108	0xbdcf4dca	-0.10122259
109	0xbd78d1b4	-0.060746863
110	0xbc67df5e	-0.014152376
111	0xbd175ebf	-0.03695559
112	0xbd4c668b	-0.04990248
113	0x3ce7f66e	0.028315749
114	0xbdb44467	-0.08802109
115	0x3e288e40	0.16460514
116	0xbc82d567	-0.015970899
117	0x3d432f24	0.04765238
118	0x3e315158	0.17316186
119	0xbe0d724a	-0.13813129
120	0x3dd055ab	0.1017259
121	0x3d8be12b	0.06830057
122	0x3d53ddfc	0.051725373
123	0x3bcfe387	0.006344262
124	0xbd2de00a	-0.04244999
125	0xbd1043c9	-0.035220895
126	0xbb8f5242	-0.0043738196
127	0x3d622954	0.055215195
128	0xbe2bb69d	-0.1676888
129	0x3de9366b	0.113873325
130	0x3d950666	0.07276611
131	0xbe2419fe	-0.1602554
132	0xbe182590	-0.14858079
133	0x3c1bb971	0.009504662
134	0x3d5d9d96	0.054105364
135	0x3d3fb952	0.046807595
136	0x3d56f83e	0.052482836
137	0xbc1d8c7c	-0.009616014
138	0x3d254be6	0.040355586
139	0xbdf99034	-0.12185708
140	0xbd23f044	-0.040024057
141	0x3e1acc09	0.15116896
142	0xbdec0b31	-0.11525572
143	0xbcbfccf7	-0.023413165
144	0x3e06b90e	0.1315653
145	0x3e03c6f8	0.1286887
146	0xbe2e82bc	-0.17042059
147	0xbb80c38d	-0.0039295615
148	0xbd7007d8	-0.05860123
149	0xbd95b1e8	-0.073093235
150	0x3d69a4ba	0.05704186
151	0xbdd30b22	-0.10304858
152	0xbdafa828	-0.08576995
153	0xbe0354b9	-0.12825288
154	0xbe295b56	-0.16538748
155	0xbd847ea7	-0.064694695
156	0xbd858522	-0.06519534
157	0xbdafad29	-0.085779496
158	0x3d06351a	0.032765485
159	0xbd6a4d04	-0.057202354
160	0xbdec9c36	-0.11553232
161	0x3e118e16	0.14214358
162	0x3e268bf0	0.1626432
163	0x3c23ed78	0.010005347
164	0xbe1c867c	-0.15285677
165	0xbd219e9b	-0.0394579
166	0xbe0719d6	-0.1319345
167	0xbd2b3696	-0.041800104
168	0xbd9f9c85	-0.077935256
169	0x3e337942	0.17526725
170	0x3e06c967	0.13162766
171	0xbdfdae85	-0.123868026
172	0x3dd4382c	0.103622764
173	0x3d7c94df	0.061665412
174	0xbd8a3d10	-0.06749928
175	0x3e1d429f	0.15357445
176	0xbe2547f7	-0.16140734
177	0xbdfb1a04	-0.122608215
178	0xbdcd2a21	-0.10017801
179	0x3d1d87a6	0.038459443
180	0x3e0ce03f	0.13757418
181	0xbe1b2ec8	-0.15154564
182	0xbe172f2c	-0.14764088
183	0x3cea7769	0.028621392
184	0x3db7106c	0.08938679
185	0xbe038175	-0.12842353
186	0x3dbb9f4a	0.09161241
187	0xbde43e9e	-0.11144756
188	0x3db8af97	0.09017866
189	0x3d0945a0	0.033513665
190	0xbe20c0f5	-0.15698607
191	0xbdf06fd8	-0.117400825
192	0x3d0a7e2c	0.033811733
193	0xbe27825f	-0.16358326
194	0xb920726b	-0.00015301413
195	0xbe0d0406	-0.13771066
196	0xbd7cbbc8	-0.06170252
197	0xbd084a81	-0.033274177
198	0xbde19240	-0.11014223
199	0x3df43077	0.119233064
200	0xbe103073	-0.14080982
201	0x3d6dee18	0.058088392
202	0x3e14e790	0.14541459
203	0xbd69dc7e	-0.057095043
204	0x3e2102e1	0.15723754
205	0x3e104f2a	0.14092699
206	0xbb371044	-0.002793328
207	0xbc9c2b61	-0.019063653
208	0x3c9bcdaf	0.019018976
209	0x3ca9599a	0.020672608
210	0x3caa4363	0.020784086
211	0x3d8654a0	0.0655911
212	0xbd3267da	-0.04355607
213	0x3c91740e	0.017755534
214	0x3dc14b27	0.09438162
215	0x3d8045b4	0.06263295
216	0xbe22772f	-0.15865777
217	0xbd89f1d7	-0.067355804
218	0x3d7c1df2	0.061551996
219	0x3dbf049c	0.09327051
220	0x3dd9bd8c	0.10631856
221	0xbd685496	-0.056721292
222	0x3d327212	0.043565817
223	0xbdd43824	-0.103622705
224	0x3e2c7c3b	0.16844265
225	0xbddc6f49	-0.107634135
226	0xbb922806	-0.0044603376
227	0xbda36509	-0.07978255
228	0x3e1a023e	0.15039918
229	0xbdc44871	-0.095841296
230	0xbb90efd6	-0.004423122
231	0xbde26b00	-0.11055565
232	0x3dbeb293	0.09311404
233	0x3d3fb163	0.04680003
234	0xbd100f05	-0.035170574
235	0x3d56aea3	0.05241264
236	0x3e20c433	0.15699844
237	0x3e1b27e8	0.15151942
238	0x3d7d4de9	0.06184188
239	0x3c9a6876	0.018848639
240	0x3c08dd7e	0.008353589
241	0x3e2059b1	0.15659215
242	0x3de20c5f	0.11037516
243	0x3e163d59	0.1467184
244	0xbdf80f1b	-0.12112256
245	0xbd91a10e	-0.07110797
246	0x3db251b2	0.087069884
247	0xbd019a83	-0.031641494
248	0xbe27a328	-0.16370833
249	0x3ce54e48	0.027991429
250	0xbcca3903	-0.024685388
251	0x3db71d99	0.08941192
252	0x3dc110e3	0.09427049
253	0x3d99998e	0.07499991
254	0x3dd59437	0.1042866
255	0xbe03965d	-0.12850328

bias f4 [64]
0	0x3e1a526d	0.15070505
1	0xbd16cf8b	-0.036819022
2	0x3c910362	0.017701808
3	0x3dc99635	0.09843103
4	0xbe14e182	-0.1453915
5	0x3e2d6749	0.16933931
6	0x3de9c470	0.114144206
7	0xbe2ec918	-0.17068899
8	0x3d8d0d9b	0.06887361
9	0x3d674d0e	0.05646997
10	0x3cf41ab1	0.029797884
11	0x3d410ea1	0.04713309
12	0x3da6e2fb	0.08148762
13	0xbe2b4e7e	-0.16729161
14	0x3e1b58a8	0.15170538
15	0xbd8e8f0a	-0.06960876
16	0xbe2cff7c	-0.16894335
17	0xbd699a62	-0.057031997
18	0x3df326f0	0.11872661
19	0x3d496228	0.049165875
20	0x3e23e128	0.16003859
21	0x3de82715	0.11335579
22	0xbdc3c672	-0.09559335
23	0xbde37c46	-0.11107688
24	0xbd614e15	-0.055006105
25	0x3d8fc09c	0.07019159
26	0xbe26a901	-0.16275407
27	0xbe1209bc	-0.14261526
28	0x3dafc132	0.08581771
29	0xbdf7f573	-0.121073626
30	0x3d73155a	0.059346534
31	0xbda72672	-0.0816163
32	0x3dbf93ce	0.093543634
33	0xbe10786e	-0.1410844
34	0x3d43d30c	0.04780869
35	0x3e08bb69	0.13352741
36	0x3e041fa8	0.12902701
37	0xbd25e459	-0.040500972
38	0xbbe0f1d3	-0.006864765
39	0x3e11de31	0.14244916
40	0x3e071484	0.1319142
41	0x3dc0398d	0.09385977
42	0xbdfba315	-0.12286965
43	0xbce09ac9	-0.027417557
44	0xbe263da7	-0.16234456
45	0xbdd720a3	-0.10504272
46	0x3e18c1c9	0.14917673
47	0xbdbfa42f	-0.093574874
48	0xbdfccda7	-0.123439126
49	0xbbf479ab	-0.007460793
50	0x3e0b797d	0.13620563
51	0x3e2778ae	0.1635463
52	0xbd738080	-0.05944872
53	0xbd94debc	-0.07269046
54	0x3d9ccce7	0.076562695
55	0x3d6a92d7	0.057268944
56	0x3d5428a6	0.051796578
57	0x3e13306b	0.14373939
58	0xbbb9e0ed	-0.005672565
59	0xbdd9c4ed	-0.10633264
60	0xbcd56b69	-0.026052194
61	0x3e1f1c9b	0.15538256
62	0xbd563ce1	-0.052304152
63	0xbde3e663	-0.11127927

weight f4 [1, 64]
0	0x3df851cd	0.12124977
1	0xbc87b468	-0.016565517
2	0xbdf6322f	-0.120212905
3	0x3d95177b	0.07279869
4	0x3d1071d4	0.035264805
5	0x3a217cc0	0.0006160252
6	0x3dd5e471	0.10443962
7	0x3de95794	0.11393657
8	0x3d3966c0	0.045264006
9	0x3dcda8d5	0.10041968
10	0x3d3305f0	0.043706834
11	0xbc8d640a	-0.017259616
12	0xbd1af404	-0.037830368
13	0x3d8f550e	0.06998645
14	0xbd2dd1e7	-0.042436507
15	0x3daa21f5	0.08307258
16	0xbda301b4	-0.07959309
17	0xbdb6ca17	-0.08925264
18	0x3cf8dae1	0.030377807
19	0x3c6d6cfe	0.014491318
20	0xbda30258	-0.079594314
21	0x3c9f50f7	0.019447787
22	0xbd02bdb0	-0.03191918
23	0xbdf50778	-0.11964315
24	0xbd00a8c8	-0.031410962
25	0x3b3b336a	0.002856458
26	0x3c0e65c0	0.008691251
27	0xbd83ea70	-0.064412
28	0xbdfe313c	-0.124117345
29	0x3dbee658	0.09321278
30	0x3bcaf4c0	0.0061937273
31	0x3d775f54	0.060393646
32	0x3df84482	0.12122442
33	0xbde74d68	-0.11294061
34	0xba85e598	-0.0010215519
35	0xbdd721c5	-0.10504488
36	0x3d962704	0.073316604
37	0x3d7d3a74	0.061823323
38	0xbcd62407	-0.026140226
39	0x3d8f4344	0.06995252
40	0xbdf18abe	-0.11794041
41	0x3da6f08c	0.081513494
42	0x3deeed2a	0.11666329
43	0xbcf73e40	-0.03018105
44	0xbd0ecec4	-0.034865156
45	0xbdb8462e	-0.08997761
46	0xbd87d35f	-0.06632113
47	0x3b16f2c0	0.0023032874
48	0x3db935fa	0.09043498
49	0x3d9bea9e	0.07613109
50	0xbd6aa087	-0.057281997
51	0xbca569e0	-0.020192087
52	0xbd376338	-0.044772357
53	0xbdf2aa64	-0.11848906
54	0x3d8d79e8	0.069080174
55	0xbd8f805b	-0.07006904
56	0x3c2c9d90	0.010535613
57	0xbddde9d8	-0.10835618
58	0xbd6a4bb4	-0.057201102
59	0xbdddc590	-0.10828698
60	0x3cc7fd52	0.024412785
61	0x3c200800	0.009767532
62	0x3becd900	0.007228017
63	0x3d8fe22a	0.07025559
