parameters_DffNetwork_Adam_0.001_500.pth (torch, 10519 bytes, 5 tensors)

weight f4 [36, 12]
0.035159845 0.14265966 -0.25508434 -0.24162476 -0.22987814 0.034118786 -0.20735116 0.046296775
-0.2626582 0.103744574 -0.20029669 0.05650456 0.04967746 -0.17583148 0.22757873 0.78737545
0.2046986 -0.22822298 0.1870918 -0.00012646616 0.11432326 0.63464886 -0.44824153 -0.18942598
0.16250367 -0.06017518 0.12248209 0.04098243 0.21149829 0.24327001 0.14178602 -0.044760637
0.25267816 0.25020778 -0.21531838 0.23353323 0.041661885 -0.26311404 -0.44635263 -0.70068204
0.0008293381 -0.45553708 -0.32582286 -0.4508212 -0.11996709 0.29182646 0.59214664 -0.28034014
-0.19682497 -0.20569304 -0.34721318 -0.8958335 -0.09464355 -0.17361279 0.18360716 -0.021699447
0.02058187 -0.56628287 0.17041832 -0.25629678 0.10090708 -0.24401139 -0.14520758 0.97689515
-0.012889254 -0.08167341 0.16517693 0.038350318 0.10106916 0.9201809 -0.36986992 -0.32512647
0.12732773 -0.08021533 0.07720846 0.98505926 -0.3092331 0.17803302 -0.016857577 0.063782565
-0.040887438 0.9244662 -0.22770755 0.25777853 0.16108246 0.2804043 -0.19311428 -0.09446402
0.1507021 -0.16093108 -0.22749645 0.008590697 -0.21992962 -0.16653039 -0.2750709 0.2218842
-0.18744516 0.15967453 0.049922332 -0.81862694 -0.16099223 0.23034637 -0.20569287 -0.008511527
-0.21617123 -0.5761393 0.19512843 -0.14514023 -0.045711547 -0.31034702 -0.17237553 -0.479493
-0.25147042 -0.11445653 0.09604157 0.23200017 0.19869705 -0.3965292 0.18200044 0.14207691
-0.2292624 0.21099947 -0.108379155 0.15753345 0.12593527 -0.13425572 0.14432159 -0.2882361
0.062586375 0.15485018 -0.26944846 0.030271113 0.18863773 -0.11127238 0.2187746 -0.1555736
-0.2482178 0.10691176 -0.03575771 -0.28077886 -0.028515443 0.25215185 0.015041816 -0.1641247
-0.1061866 0.02756954 0.15251604 -0.9978074 0.16806783 -0.12761365 0.14661923 -0.020040572
0.033061143 -0.97314435 0.19212204 0.24746442 -0.45086953 -0.39678228 -0.2804604 -0.29257917
0.033355415 -0.21624425 0.043474916 -0.32175025 -0.17307483 0.49540824 0.595562 -0.0841209
-0.08737717 0.33570942 0.2578584 1.3583884 0.038422897 0.31910107 0.1414519 -0.2036563
-0.08865657 0.83764684 -0.34556788 0.19742347 0.18531494 0.18164381 -0.03698563 -0.24769925
-0.27471468 0.21125506 -0.12892911 0.22662383 -0.2057983 0.23619327 -0.1712387 -0.004584777
0.2591365 0.26886854 0.03259425 -0.11567132 -0.19575532 -0.1271645 0.090964064 0.1962054
0.045069836 0.04365403 -0.2606258 0.28206408 0.09079101 0.10826887 -0.017094227 0.49917385
0.1458244 -0.015485469 -0.26011 -0.18431516 0.11287553 0.865061 -0.12722091 0.15026242
-0.002779312 -0.04948021 0.053318508 -0.11337156 -0.19140545 -0.024346234 -0.20533094 0.073228285
0.27859604 -0.13852191 -0.21034567 -0.07162213 0.26867378 0.3261279 0.26372582 1.0390624
0.06842854 0.00717275 -0.28802252 0.24850625 0.21419355 0.8871727 -0.45353234 -0.24048266
0.16860732 0.3717237 0.13852206 1.6053287 0.056968745 0.33704105 0.18294999 -0.22215697
0.108280174 0.6582116 -0.47722957 0.16200864 0.036572497 0.19805004 0.2538021 1.3102386
00000000: c503 103d 6015 123e 6a9a 82be 7b6c 77be
00000010: 2d65 6bbe 24c0 0b3d dd53 54be b0a1 3d3d
00000020: 237b 86be 0978 d43d 931a 4dbe 5371 673d
00000030: 987a 4b3d 2b0d 34be 660a 693e 7091 493f
00000040: 839c 513e 49b3 69be fe94 3f3e 009c 04b9
00000050: 5022 ea3d 5978 223f ea7f e5be e2f8 41be
00000060: 5d67 263e 407a 76bd e4d7 fa3d 31dd 273d
00000070: 0293 583e c61b 793e 5b30 113e ee56 37bd
00000080: 085f 813e 3c1b 803e 6c7c 5cbe 5623 6f3e
00000090: a7a5 2a3d e2b6 86be 5588 e4be e65f 33bf
000000a0: f067 593a 283c e9be 41d2 a6be 09d2 e6be
000000b0: 4eb1 f5bd 476a 953e ec96 173f be88 8fbe
000000c0: 7c8c 49be 32a1 52be edc5 b1be 5855 65bf
000000d0: 7ad4 c1bd 8dc7 31be 8403 3c3e 0ac3 b1bc
000000e0: 4f9b a83c eaf7 10bf 2482 2e3e 5539 83be
000000f0: 5fa8 ce3d 1fde 79be 4cb1 14be cd15 7a3f
00000100: 732d 53bc 6444 a7bd 2424 293e 3915 1d3d
00000110: 59fd ce3d fa90 6b3f 975f bdbe fa76 a6be
00000120: 3362 023e ef47 a4bd 781f 9e3d d82c 7c3f
00000130: cd53 9ebe 4a4e 363e e718 8abc 6fa0 823d
00000140: 9679 27bd d1a9 6c3f 2b2c 69be 8cfb 833e
00000150: cdf2 243e 2791 8f3e c0bf 45be 5a76 c1bd
00000160: a751 1a3e 1ecb 24be d4f4 68be ffbf 0c3c
00000170: 3b35 61be f186 2abe 18d6 8cbe 9d35 633e
00000180: a0f1 3fbe b881 233e 5c7b 4c3d 8991 51bf
00000190: 26db 24be ebdf 6b3e 27a1 52be ef73 0bbc
000001a0: fe5b 5dbe dd7d 13bf bfcf 473e a49f 14be
000001b0: 083c 3bbd cee5 9ebe 3683 30be 1b80 f5be
000001c0: bbc0 80be 2f68 eabd 71b1 c43d 7491 6d3e
000001d0: 3d77 4b3e e005 cbbe 535e 3a3e 9c7c 113e
000001e0: c3c3 6abe 3f10 583e e4f5 ddbd 7350 213e
000001f0: 2df5 003e 557a 09be 0ac9 133e af93 93be
00000200: 492d 803d 0c91 1e3e 26f5 89be 20fb f73c
00000210: 402a 413e c6e2 e3bd 7306 603e b04e 1fbe
00000220: cf2c 7ebe 8ef4 da3d ad76 12bd 3fc2 8fbe
00000230: 3899 e9bc 0c1a 813e f371 763c 4e10 28be
00000240: 5c78 d9bd 84d9 e13c 2a2d 1c3e 4e70 7fbf
00000250: f919 2c3e 27ad 02be 5a23 163e 202c a4bc
00000260: 1f6b 073d fd1f 79bf a4bb 443e 5067 7d3e
00000270: 5fd8 e6be 0c27 cbbe 8198 8fbe f0cc 95be
00000280: b09f 083d 226f 5dbe c112 323d 73bc a4be
00000290: 873a 31be 26a6 fd3e c076 183f 9447 acbd
000002a0: cdf2 b2bd 1be2 ab3e 0406 843e acdf ad3f
000002b0: 5461 1d3d 3761 a33e c4d8 103e 478b 50be
000002c0: 9391 b5bd 0670 563f 46ee b0be 6129 4a3e
000002d0: 33c3 3d3e d600 3a3e 3e7e 17bd dfa4 7dbe
000002e0: 67a7 8cbe 3f53 583e fe05 04be 1410 683e
000002f0: cabc 52be a6dc 713e 3359 2fbe e63b 96bb
00000300: 8aad 843e 23a9 893e 8c81 053d 16e5 ecbd
00000310: 1574 48be 6937 02be 5e4b ba3d 12ea 483e
00000320: 269b 383d 91ce 323d bf70 85be b46a 903e
00000330: a3f0 b93d 12bc dd3d 3109 8cbc b793 ff3e
00000340: fe52 153e c4b6 7dbc 232d 85be 1dbd 3cbe
00000350: 492b e73d a374 5d3f 3346 02be 64de 193e
00000360: 1e25 36bb c3ab 4abd 8264 5a3d 592f e8bd
00000370: caff 43be c171 c7bc 4642 52be b6f8 953d
00000380: 24a4 8e3e b0d8 0dbe db64 57be a0ae 92bd
00000390: 9c8f 893e 3cfa a63e 1207 873e ffff 843f
000003a0: 4324 8c3d 6309 eb3b b077 93be 6c78 7e3e
000003b0: 8e55 5b3e c01d 633f 6435 e8be 1641 76be
000003c0: 66a7 2c3e 9252 be3e bad8 0d3e 697b cd3f
000003d0: 0f58 693d a590 ac3e 3e57 3b3e 1e7d 63be
000003e0: ffc1 dd3d 8e80 283f 6f57 f4be 98e5 253e
000003f0: 0bcd 153d a1cd 4a3e 59f2 813e e6b5 a73f

bias f4 [36]
0.09571907 0.23791237 -0.10983733 -0.31690747 0.2035645 0.19612673 0.120245345 0.01228883
0.12764747 0.03469105 -0.1515171 -0.23913983 0.11077684 -0.31848636 0.18358873 -0.21888044
-0.078665845 0.17621155 -0.18114865 0.24087432 0.25345644 0.17431405 0.20816165 0.0029377139
0.0076152887 0.076564185 -0.27981213 0.13211027 -0.25333595 -0.12155202 0.15612964 0.16991979
-0.334891 -0.28378308 0.19048677 0.15406881
00000000: 5c08 c43d 4d9f 733e 65f2 e0bd b241 a2be
00000010: 3673 503e 72d5 483e 3143 f63d 1757 493c
00000020: 05b6 023e 3418 0e3d 4c27 1bbe 12e1 74be
00000030: f8de e23d a510 a3be affe 3b3e 3222 60be
00000040: 8f1b a1bd cd70 343e 087f 39be c2a7 763e
00000050: 0bc5 813e 627f 323e 5428 553e a986 403b
00000060: ac89 f93b afcd 9c3d 8943 8fbe ea47 073e
00000070: 40b5 81be 44f0 f8bd 73e0 1f3e 74ff 2d3e
00000080: d576 abbe 044c 91be f70e 433e 37c4 1d3e

weight f4 [36, 36]
0.010352831 0.06820762 -0.13521081 1.8646455 -0.18227012 0.10129924 -0.068438366 0.021187644
0.004588952 -0.017484654 -0.012957236 0.038951438 -0.14875166 1.8712616 0.36942464 -0.11815467
-0.048737448 0.12328758 0.12243335 0.11968759 0.28572613 0.56167763 0.40860915 -0.0392375
-0.07947059 -0.10756321 -0.13387576 2.0301936 -0.13384107 0.066233836 -0.053586084 -0.17887677
1.9785253 1.9212563 0.04186444 0.5020709 -0.011136711 0.29237744 0.09357413 2.0534217
-0.039766163 0.21366842 0.10270112 -0.15350485 -0.19712786 0.045094106 -0.14097153 0.046518765
0.007360886 1.9171553 0.5546534 -0.1230497 -0.110395014 0.028135506 -0.10963911 0.22278385
0.3863264 0.55217016 0.2984014 -0.00044236582 0.060080335 -0.19064455 -0.061556995 2.0001147
-0.05193621 0.15439045 0.04761062 -0.06960628 1.8703734 2.0073473 0.09272904 0.60841703
0.014248258 -0.3970672 0.16207066 -2.6949782 -0.052009337 -0.17709307 -0.20722018 -0.101435564
-0.101064175 0.16252427 -0.026740193 -0.15287898 -0.16591963 -2.4817774 -0.91305363 0.03865554
-0.09104918 -0.13458793 -0.026213944 -0.70995426 -0.725941 -0.87751275 -0.763102 -0.15986876
-0.062529266 0.038269695 0.094363615 -2.3858995 -0.14368 -0.11502 0.04816579 -0.11808703
-2.5827324 -2.4163387 -0.122706935 -0.9458451 -0.043232195 -0.12515678 0.11576464 -2.1040068
-0.04177879 -0.14136216 0.05946508 -0.051670294 0.062855706 0.026020074 -0.065393016 -0.13664824
-0.06726608 -2.078025 -0.4537194 0.12228869 -0.035230696 -0.013574063 -0.08060001 -0.31328204
-0.39578453 -0.7447206 -0.35854885 0.07466853 0.020949384 -0.055013202 0.068218276 -1.8823442
0.11140164 0.07021298 -0.13106138 0.05210529 -1.9107748 -2.0037365 -0.03619146 -0.68723345
0.004875296 -0.19054198 0.010258059 -2.4033513 0.08592675 -0.3014749 -0.11654419 -0.047222815
0.07607526 0.14993082 -0.081211686 -0.014305691 0.09013873 -2.0176423 -0.6802689 0.10893824
-0.0885914 0.049226683 -0.11679083 -0.3455471 -0.47588724 -0.8337341 -0.23924033 -0.037027817
-0.041795082 0.045261998 0.02566727 -2.2226534 -0.13795951 0.019340953 -0.12595187 -0.12549207
-2.1056495 -2.3117673 0.0191417 -0.67881453 0.05628754 0.23494282 -0.1494349 2.0703628
0.076316595 -0.04542719 0.2494653 0.13809454 0.061556723 0.09701614 0.08718906 0.15257025
-0.13143115 2.0673177 0.32629716 -0.12059902 0.072006285 -0.08418611 -0.10028567 0.29061908
0.45347062 0.759463 0.4279202 0.02336542 0.078077935 -0.105170555 0.14105532 1.9750034
0.13293251 -0.014193496 -0.16634245 -0.090115845 2.1333618 2.1186464 -0.11421272 0.6628767
0.173386 0.03322091 -0.13581932 1.9084885 -0.101267815 -0.006757236 0.025837202 0.10617584
0.098695084 0.10682605 -0.030714493 -0.12933904 -0.14900193 2.0883753 0.44047654 -0.0640262
-0.06142704 -0.054026928 0.13318506 0.2855413 0.5687158 0.77726316 0.37759593 0.06082076
-0.2275368 -0.085379876 -0.011273822 1.8944476 0.018621406 -0.0756799 0.10717685 -0.023453018
1.8315241 2.1251032 0.10255265 0.756913 0.06495894 -0.06748841 -0.11378276 -1.9975736
00000000: ec9e 293c 70b0 8b3d b474 0abe b4ac ee3f
00000010: 05a5 3abe fa75 cf3d 6a29 8cbd b691 ad3c
00000020: eb5e 963b fa3b 8fbc 964a 54bc 8b8b 1f3d
00000030: 5b52 18be 8085 ef3f 3a25 bd3e 13fb f1bd
00000040: eba0 47bd 337e fc3d 56be fa3d c41e f53d
00000050: b24a 923e 1bca 0f3f 3835 d13e 80b7 20bd
00000060: 7ac1 a2bd 1a4a dcbd ba16 09be b1ee 0140
00000070: a20d 09be 9ba5 873d 157d 5bbd 792b 37be
00000080: 5140 fd3f baeb f53f 0c7a 2b3d b887 003f
00000090: c076 36bc 7fb2 953e cba3 bf3d 436b 0340
000000a0: d8e1 22bd e5cb 5a3e f754 d23d 6030 1dbe
000000b0: e3db 49be 99b4 383d d75a 10be 768a 3e3d
000000c0: 9633 f13b 5865 f53f c4fd 0d3f 7b01 fcbd
000000d0: c816 e2bd 6f7c e63c 788a e0bd 7321 643e
000000e0: 93cc c53e 065b 0d3f 11c8 983e 56ed e7b9
000000f0: cc16 763d 5338 43be 3023 7cbd e101 0040
00000100: 10bb 54bd 8818 1e3e 5a03 433d bd8d 8ebd
00000110: 6568 ef3f 6178 0040 b9e8 bd3d 38c1 1b3f
00000120: 8771 693c 644c cbbe daf5 253e 867a 2cc0
00000130: be07 55bd e357 35be 8731 54be 73bd cfbd
00000140: bcfa cebd c36c 263e 400e dbbc 4f8c 1cbe
00000150: d6e6 29be 71d5 1ec0 e2bd 69bf 4655 1e3d
00000160: fe77 babd 6bd1 09be a0be d6bc 90bf 35bf
00000170: 45d7 39bf ada4 60bf a75a 43bf a3b4 23be
00000180: 580f 80bd afc0 1c3d b641 c13d 94b2 18c0
00000190: da20 13be 9b8f ebbd 7e49 453d 9dd7 f1bd
000001a0: 7d4b 25c0 4ba5 1ac0 c64d fbbd e822 72bf
000001b0: 3e14 31bd 1929 00be 0316 ed3d 0ca8 06c0
000001c0: 3d20 2bbd 3ec1 10be a891 733d 3ba4 53bd
000001d0: 7eba 803d 0d28 d53c c6ec 85bd 84ed 0bbe
000001e0: ccc2 89bd 5dfe 04c0 e94d e8be 7e72 fa3d
000001f0: 104e 10bd bf65 5ebc 9e11 a5bd 8166 a0be
00000200: 45a4 cabe 02a6 3ebf b793 b7be d0eb 983d
00000210: 0b9e ab3c 8655 61bd 06b6 8b3d a8f0 f0bf
00000220: 8b26 e43d d3cb 8f3d f434 06be 5b6c 553d
00000230: 4594 f4bf 383d 00c0 7f3d 14bd 88ee 2fbf
00000240: f2c0 9f3b 701d 43be 6b11 283c 82d0 19c0
00000250: 5dfa af3d eb5a 9abe b8ae eebd b66c 41bd
00000260: 59cd 9b3d 7787 193e 5052 a6bd 6b62 6abc
00000270: a89a b83d 0d21 01c0 1a26 2ebf 031b df3d
00000280: 686f b5bd eba1 493d 0830 efbd 8deb b0be
00000290: 7ea7 f3be 996f 55bf 6bfb 74be 7baa 17bd
000002a0: 5231 2bbd a564 393d 2b44 d23c f43f 0ec0
000002b0: 4245 0dbe eb70 9e3c 87f9 00be fe80 00be
000002c0: f6c2 06c0 fff3 13c0 0ecf 9c3c cac6 2dbf
000002d0: c38d 663d da94 703e 7605 19be d380 0440
000002e0: e04b 9c3d dc11 3abd d573 7f3e a868 0d3e
000002f0: e722 7c3d 66b0 c63d 2e90 b23d 603b 1c3e
00000300: e395 06be ef4e 0440 6c10 a73e 9efc f6bd
00000310: 0878 933d c469 acbd 9362 cdbd 06cc 943e
00000320: 4d2d e83e 2b6c 423f 5b18 db3e d668 bf3c
00000330: 53e7 9f3d a963 d7bd ce70 103e e9cc fc3f
00000340: 761f 083e d68b 68bc ad55 2abe a88e b8bd
00000350: 0089 0840 e797 0740 5ce8 e9bd 4ab2 293f
00000360: 198c 313e a612 083d 3814 0bbe 5a49 f43f
00000370: 8065 cfbd ce6b ddbb 8aa8 d33c b872 d93d
00000380: a620 ca3d 9ec7 da3d f69c fbbc 7471 04be
00000390: f693 18be f1a7 0540 2486 e13e 2b20 83bd
000003a0: eb9a 7bbd 574b 5dbd aa61 083e 7832 923e
000003b0: 5c97 113f b8fa 463f 4154 c13e 301f 793d
000003c0: 68ff 68be a5db aebd d6b5 38bc 427d f23f
000003d0: eb8b 983c 10fe 9abd 897f db3d 8b20 c0bc
000003e0: 626f ea3f b101 0840 2007 d23d 0dc5 413f
000003f0: 3109 853d 5d37 8abd f006 e9bd 7eb0 ffbf

bias f4 [36]
0.040671393 0.05894329 -0.026759677 0.16086249 -0.15264282 -0.15875593 -0.051924482 0.09886403
-0.12002808 0.054853167 0.15008359 -0.11462423 0.059681922 0.033057418 -0.11685501 -0.010121318
-0.051267993 -0.1396345 -0.06194515 -0.09676133 -0.03565847 -0.013648129 -0.106189765 -0.13460268
0.025654985 0.094399445 -0.15368168 0.024358533 -0.015044954 -0.15891856 -0.038690303 0.022061722
0.13454723 0.12427815 0.14016868 -0.11966227
00000000: 0c97 263d 856e 713d 1c37 dbbc 23b9 243e
00000010: 664e 1cbe ea90 22be c4ae 54bd 3979 ca3d
00000020: 48d1 f5bd b7ad 603d 83af 193e 1cc0 eabd
00000030: 0875 743d 3767 073d ae51 efbd e2d3 25bc
00000040: 63fe 51bd 59fc 0ebe 33ba 7dbd ce2a c6bd
00000050: 9e0e 12bd 679c 5fbc 057a d9bd 49d5 09be
00000060: 672a d23c 7f54 c13d bb5e 1dbe 8c8b c73c
00000070: 1c7f 76bc 8cbb 22be b979 1ebd c9ba b43c
00000080: c0c6 093e 8b85 fe3d 6188 0f3e 7e11 f5bd

weight f4 [1, 36]
0.23330396 0.15887329 -0.11104916 -0.15723187 -0.09715668 0.16717947 0.2110678 -0.112977974
-0.110974446 0.16241652 -0.21804163 0.14505804 0.18540445 0.08502245 -0.12428869 -0.2227809
0.10137831 0.13499342 -0.1700101 -0.19912916 -0.12669134 0.19790356 -0.13074626 0.13643019
-0.095246114 -0.17458951 0.2388516 -0.10707747 -0.11188466 0.19098657 0.24692637 -0.10128539
-0.19171567 -0.18094966 -0.19617948 -0.22841494
00000000: 3ce7 6e3e aeaf 223e be6d e3bd 6401 21be
00000010: 15fa c6bd 1831 2b3e 2822 583e ff60 e7bd
00000020: 9246 e3bd 8450 263e 4e46 5fbe 188a 143e
00000030: aada 3d3e 4020 ae3d 128b febd ad20 64be
00000040: 6e9f cf3d b73b 0a3e 2117 2ebe 84e8 4bbe
00000050: 60bb 01be 3ba7 4a3e 59e2 05be 5bb4 0b3e
00000060: 6510 c3bd 98c7 32be 8495 743e 6f4b dbbd
00000070: c923 e5bd fc91 433e 44da 7c3e b76e cfbd
00000080: 1d51 44be de4a 39be 46e3 48be 9be5 69be
